{"class_name": "Model", "config": {"name": "model_64", "layers": [{"name": "input_64", "class_name": "InputLayer", "config": {"batch_input_shape": [null, 143], "dtype": "float32", "sparse": false, "name": "input_64"}, "inbound_nodes": []}, {"name": "BP_0xa87ff6_4_S_0xc4ca42_1_M_4_L_0", "class_name": "BatchNormalization", "config": {"name": "BP_0xa87ff6_4_S_0xc4ca42_1_M_4_L_0", "trainable": true, "dtype": "float32", "axis": -1, "momentum": 0.9, "epsilon": 1e-05, "center": true, "scale": true, "beta_initializer": {"class_name": "Zeros", "config": {}}, "gamma_initializer": {"class_name": "Ones", "config": {}}, "moving_mean_initializer": {"class_name": "Zeros", "config": {}}, "moving_variance_initializer": {"class_name": "Ones", "config": {}}, "beta_regularizer": null, "gamma_regularizer": null, "beta_constraint": null, "gamma_constraint": null}, "inbound_nodes": [[["input_64", 0, 0, {}]]]}, {"name": "BP_0xa87ff6_4_S_0xc4ca42_1_M_4_L_1", "class_name": "Dense", "config": {"name": "BP_0xa87ff6_4_S_0xc4ca42_1_M_4_L_1", "trainable": true, "dtype": "float32", "units": 64, "activation": "linear", "use_bias": true, "kernel_initializer": {"class_name": "VarianceScaling", "config": {"scale": 2.0, "mode": "fan_in", "distribution": "normal", "seed": null}}, "bias_initializer": {"class_name": "Zeros", "config": {}}, "kernel_regularizer": {"class_name": "L1L2", "config": {"l1": 0.0, "l2": 0.0002500000118743628}}, "bias_regularizer": null, "activity_regularizer": null, "kernel_constraint": null, "bias_constraint": null}, "inbound_nodes": [[["BP_0xa87ff6_4_S_0xc4ca42_1_M_4_L_0", 0, 0, {}]]]}, {"name": "BP_0xa87ff6_4_S_0xc4ca42_1_M_4_L_2", "class_name": "Activation", "config": {"name": "BP_0xa87ff6_4_S_0xc4ca42_1_M_4_L_2", "trainable": true, "dtype": "float32", "activation": "relu"}, "inbound_nodes": [[["BP_0xa87ff6_4_S_0xc4ca42_1_M_4_L_1", 0, 0, {}]]]}, {"name": "BP_0xa87ff6_4_S_0xc4ca42_1_M_14_L_0", "class_name": "Dense", "config": {"name": "BP_0xa87ff6_4_S_0xc4ca42_1_M_14_L_0", "trainable": true, "dtype": "float32", "units": 64, "activation": "linear", "use_bias": true, "kernel_initializer": {"class_name": "VarianceScaling", "config": {"scale": 2.0, "mode": "fan_in", "distribution": "normal", "seed": null}}, "bias_initializer": {"class_name": "Zeros", "config": {}}, "kernel_regularizer": {"class_name": "L1L2", "config": {"l1": 0.0, "l2": 0.0002500000118743628}}, "bias_regularizer": null, "activity_regularizer": null, "kernel_constraint": null, "bias_constraint": null}, "inbound_nodes": [[["BP_0xa87ff6_4_S_0xc4ca42_1_M_4_L_2", 0, 0, {}]]]}, {"name": "BP_0xa87ff6_4_S_0xc4ca42_1_M_14_L_1", "class_name": "Activation", "config": {"name": "BP_0xa87ff6_4_S_0xc4ca42_1_M_14_L_1", "trainable": true, "dtype": "float32", "activation": "relu"}, "inbound_nodes": [[["BP_0xa87ff6_4_S_0xc4ca42_1_M_14_L_0", 0, 0, {}]]]}, {"name": "BP_0xa87ff6_4_S_0xc4ca42_1_M_14_L_2", "class_name": "Dropout", "config": {"name": "BP_0xa87ff6_4_S_0xc4ca42_1_M_14_L_2", "trainable": true, "dtype": "float32", "rate": 0.25, "noise_shape": null, "seed": null}, "inbound_nodes": [[["BP_0xa87ff6_4_S_0xc4ca42_1_M_14_L_1", 0, 0, {}]]]}, {"name": "BP_0xa87ff6_4_S_0xc4ca42_1_M_6_L_0", "class_name": "BatchNormalization", "config": {"name": "BP_0xa87ff6_4_S_0xc4ca42_1_M_6_L_0", "trainable": true, "dtype": "float32", "axis": -1, "momentum": 0.9, "epsilon": 1e-05, "center": true, "scale": true, "beta_initializer": {"class_name": "Zeros", "config": {}}, "gamma_initializer": {"class_name": "Ones", "config": {}}, "moving_mean_initializer": {"class_name": "Zeros", "config": {}}, "moving_variance_initializer": {"class_name": "Ones", "config": {}}, "beta_regularizer": null, "gamma_regularizer": null, "beta_constraint": null, "gamma_constraint": null}, "inbound_nodes": [[["BP_0xa87ff6_4_S_0xc4ca42_1_M_14_L_2", 0, 0, {}]]]}, {"name": "BP_0xa87ff6_4_S_0xc4ca42_1_M_10_L_0", "class_name": "BatchNormalization", "config": {"name": "BP_0xa87ff6_4_S_0xc4ca42_1_M_10_L_0", "trainable": true, "dtype": "float32", "axis": -1, "momentum": 0.9, "epsilon": 1e-05, "center": true, "scale": true, "beta_initializer": {"class_name": "Zeros", "config": {}}, "gamma_initializer": {"class_name": "Ones", "config": {}}, "moving_mean_initializer": {"class_name": "Zeros", "config": {}}, "moving_variance_initializer": {"class_name": "Ones", "config": {}}, "beta_regularizer": null, "gamma_regularizer": null, "beta_constraint": null, "gamma_constraint": null}, "inbound_nodes": [[["input_64", 0, 0, {}]]]}, {"name": "BP_0xa87ff6_4_S_0xc4ca42_1_M_6_L_1", "class_name": "Dense", "config": {"name": "BP_0xa87ff6_4_S_0xc4ca42_1_M_6_L_1", "trainable": true, "dtype": "float32", "units": 64, "activation": "linear", "use_bias": true, "kernel_initializer": {"class_name": "VarianceScaling", "config": {"scale": 2.0, "mode": "fan_in", "distribution": "normal", "seed": null}}, "bias_initializer": {"class_name": "Zeros", "config": {}}, "kernel_regularizer": {"class_name": "L1L2", "config": {"l1": 0.0, "l2": 0.0002500000118743628}}, "bias_regularizer": null, "activity_regularizer": null, "kernel_constraint": null, "bias_constraint": null}, "inbound_nodes": [[["BP_0xa87ff6_4_S_0xc4ca42_1_M_6_L_0", 0, 0, {}]]]}, {"name": "BP_0xa87ff6_4_S_0xc4ca42_1_M_10_L_1", "class_name": "Dense", "config": {"name": "BP_0xa87ff6_4_S_0xc4ca42_1_M_10_L_1", "trainable": true, "dtype": "float32", "units": 64, "activation": "linear", "use_bias": true, "kernel_initializer": {"class_name": "VarianceScaling", "config": {"scale": 2.0, "mode": "fan_in", "distribution": "normal", "seed": null}}, "bias_initializer": {"class_name": "Zeros", "config": {}}, "kernel_regularizer": {"class_name": "L1L2", "config": {"l1": 0.0, "l2": 0.0002500000118743628}}, "bias_regularizer": null, "activity_regularizer": null, "kernel_constraint": null, "bias_constraint": null}, "inbound_nodes": [[["BP_0xa87ff6_4_S_0xc4ca42_1_M_10_L_0", 0, 0, {}]]]}, {"name": "BP_0xa87ff6_4_S_0xc4ca42_1_M_6_L_2", "class_name": "Activation", "config": {"name": "BP_0xa87ff6_4_S_0xc4ca42_1_M_6_L_2", "trainable": true, "dtype": "float32", "activation": "relu"}, "inbound_nodes": [[["BP_0xa87ff6_4_S_0xc4ca42_1_M_6_L_1", 0, 0, {}]]]}, {"name": "BP_0xa87ff6_4_S_0xc4ca42_1_M_10_L_2", "class_name": "Activation", "config": {"name": "BP_0xa87ff6_4_S_0xc4ca42_1_M_10_L_2", "trainable": true, "dtype": "float32", "activation": "relu"}, "inbound_nodes": [[["BP_0xa87ff6_4_S_0xc4ca42_1_M_10_L_1", 0, 0, {}]]]}, {"name": "concatenate_1211", "class_name": "Concatenate", "config": {"name": "concatenate_1211", "trainable": true, "dtype": "float32", "axis": -1}, "inbound_nodes": [[["BP_0xa87ff6_4_S_0xc4ca42_1_M_6_L_2", 0, 0, {}], ["BP_0xa87ff6_4_S_0xc4ca42_1_M_10_L_2", 0, 0, {}], ["input_64", 0, 0, {}]]]}, {"name": "concatenate_1212", "class_name": "Concatenate", "config": {"name": "concatenate_1212", "trainable": true, "dtype": "float32", "axis": -1}, "inbound_nodes": [[["input_64", 0, 0, {}], ["concatenate_1211", 0, 0, {}]]]}, {"name": "BP_0xc4ca42_1_S_0xc81e72_2_M_4_L_0", "class_name": "BatchNormalization", "config": {"name": "BP_0xc4ca42_1_S_0xc81e72_2_M_4_L_0", "trainable": true, "dtype": "float32", "axis": -1, "momentum": 0.9, "epsilon": 1e-05, "center": true, "scale": true, "beta_initializer": {"class_name": "Zeros", "config": {}}, "gamma_initializer": {"class_name": "Ones", "config": {}}, "moving_mean_initializer": {"class_name": "Zeros", "config": {}}, "moving_variance_initializer": {"class_name": "Ones", "config": {}}, "beta_regularizer": null, "gamma_regularizer": null, "beta_constraint": null, "gamma_constraint": null}, "inbound_nodes": [[["concatenate_1212", 0, 0, {}]]]}, {"name": "BP_0xc4ca42_1_S_0xc81e72_2_M_4_L_1", "class_name": "Dense", "config": {"name": "BP_0xc4ca42_1_S_0xc81e72_2_M_4_L_1", "trainable": true, "dtype": "float32", "units": 64, "activation": "linear", "use_bias": true, "kernel_initializer": {"class_name": "VarianceScaling", "config": {"scale": 2.0, "mode": "fan_in", "distribution": "normal", "seed": null}}, "bias_initializer": {"class_name": "Zeros", "config": {}}, "kernel_regularizer": {"class_name": "L1L2", "config": {"l1": 0.0, "l2": 0.0002500000118743628}}, "bias_regularizer": null, "activity_regularizer": null, "kernel_constraint": null, "bias_constraint": null}, "inbound_nodes": [[["BP_0xc4ca42_1_S_0xc81e72_2_M_4_L_0", 0, 0, {}]]]}, {"name": "BP_0xc4ca42_1_S_0xc81e72_2_M_4_L_2", "class_name": "Activation", "config": {"name": "BP_0xc4ca42_1_S_0xc81e72_2_M_4_L_2", "trainable": true, "dtype": "float32", "activation": "relu"}, "inbound_nodes": [[["BP_0xc4ca42_1_S_0xc81e72_2_M_4_L_1", 0, 0, {}]]]}, {"name": "BP_0xc4ca42_1_S_0xc81e72_2_M_9_L_0", "class_name": "Dense", "config": {"name": "BP_0xc4ca42_1_S_0xc81e72_2_M_9_L_0", "trainable": true, "dtype": "float32", "units": 64, "activation": "linear", "use_bias": true, "kernel_initializer": {"class_name": "VarianceScaling", "config": {"scale": 2.0, "mode": "fan_in", "distribution": "normal", "seed": null}}, "bias_initializer": {"class_name": "Zeros", "config": {}}, "kernel_regularizer": {"class_name": "L1L2", "config": {"l1": 0.0, "l2": 0.0002500000118743628}}, "bias_regularizer": null, "activity_regularizer": null, "kernel_constraint": null, "bias_constraint": null}, "inbound_nodes": [[["BP_0xc4ca42_1_S_0xc81e72_2_M_4_L_2", 0, 0, {}]]]}, {"name": "BP_0xc4ca42_1_S_0xc81e72_2_M_9_L_1", "class_name": "Activation", "config": {"name": "BP_0xc4ca42_1_S_0xc81e72_2_M_9_L_1", "trainable": true, "dtype": "float32", "activation": "relu"}, "inbound_nodes": [[["BP_0xc4ca42_1_S_0xc81e72_2_M_9_L_0", 0, 0, {}]]]}, {"name": "BP_0xc4ca42_1_S_0xc81e72_2_M_9_L_2", "class_name": "Dropout", "config": {"name": "BP_0xc4ca42_1_S_0xc81e72_2_M_9_L_2", "trainable": true, "dtype": "float32", "rate": 0.25, "noise_shape": null, "seed": null}, "inbound_nodes": [[["BP_0xc4ca42_1_S_0xc81e72_2_M_9_L_1", 0, 0, {}]]]}, {"name": "BP_0xc4ca42_1_S_0xc81e72_2_M_14_L_0", "class_name": "BatchNormalization", "config": {"name": "BP_0xc4ca42_1_S_0xc81e72_2_M_14_L_0", "trainable": true, "dtype": "float32", "axis": -1, "momentum": 0.9, "epsilon": 1e-05, "center": true, "scale": true, "beta_initializer": {"class_name": "Zeros", "config": {}}, "gamma_initializer": {"class_name": "Ones", "config": {}}, "moving_mean_initializer": {"class_name": "Zeros", "config": {}}, "moving_variance_initializer": {"class_name": "Ones", "config": {}}, "beta_regularizer": null, "gamma_regularizer": null, "beta_constraint": null, "gamma_constraint": null}, "inbound_nodes": [[["BP_0xc4ca42_1_S_0xc81e72_2_M_9_L_2", 0, 0, {}]]]}, {"name": "BP_0xc4ca42_1_S_0xc81e72_2_M_14_L_1", "class_name": "Dense", "config": {"name": "BP_0xc4ca42_1_S_0xc81e72_2_M_14_L_1", "trainable": true, "dtype": "float32", "units": 64, "activation": "linear", "use_bias": true, "kernel_initializer": {"class_name": "VarianceScaling", "config": {"scale": 2.0, "mode": "fan_in", "distribution": "normal", "seed": null}}, "bias_initializer": {"class_name": "Zeros", "config": {}}, "kernel_regularizer": {"class_name": "L1L2", "config": {"l1": 0.0, "l2": 0.0002500000118743628}}, "bias_regularizer": null, "activity_regularizer": null, "kernel_constraint": null, "bias_constraint": null}, "inbound_nodes": [[["BP_0xc4ca42_1_S_0xc81e72_2_M_14_L_0", 0, 0, {}]]]}, {"name": "BP_0xc4ca42_1_S_0xc81e72_2_M_14_L_2", "class_name": "Activation", "config": {"name": "BP_0xc4ca42_1_S_0xc81e72_2_M_14_L_2", "trainable": true, "dtype": "float32", "activation": "relu"}, "inbound_nodes": [[["BP_0xc4ca42_1_S_0xc81e72_2_M_14_L_1", 0, 0, {}]]]}, {"name": "concatenate_1213", "class_name": "Concatenate", "config": {"name": "concatenate_1213", "trainable": true, "dtype": "float32", "axis": -1}, "inbound_nodes": [[["BP_0xc4ca42_1_S_0xc81e72_2_M_9_L_2", 0, 0, {}], ["BP_0xc4ca42_1_S_0xc81e72_2_M_14_L_2", 0, 0, {}]]]}, {"name": "BP_0xc4ca42_1_S_0xc81e72_2_M_6_L_0", "class_name": "BatchNormalization", "config": {"name": "BP_0xc4ca42_1_S_0xc81e72_2_M_6_L_0", "trainable": true, "dtype": "float32", "axis": -1, "momentum": 0.9, "epsilon": 1e-05, "center": true, "scale": true, "beta_initializer": {"class_name": "Zeros", "config": {}}, "gamma_initializer": {"class_name": "Ones", "config": {}}, "moving_mean_initializer": {"class_name": "Zeros", "config": {}}, "moving_variance_initializer": {"class_name": "Ones", "config": {}}, "beta_regularizer": null, "gamma_regularizer": null, "beta_constraint": null, "gamma_constraint": null}, "inbound_nodes": [[["concatenate_1213", 0, 0, {}]]]}, {"name": "BP_0xc4ca42_1_S_0xc81e72_2_M_10_L_0", "class_name": "BatchNormalization", "config": {"name": "BP_0xc4ca42_1_S_0xc81e72_2_M_10_L_0", "trainable": true, "dtype": "float32", "axis": -1, "momentum": 0.9, "epsilon": 1e-05, "center": true, "scale": true, "beta_initializer": {"class_name": "Zeros", "config": {}}, "gamma_initializer": {"class_name": "Ones", "config": {}}, "moving_mean_initializer": {"class_name": "Zeros", "config": {}}, "moving_variance_initializer": {"class_name": "Ones", "config": {}}, "beta_regularizer": null, "gamma_regularizer": null, "beta_constraint": null, "gamma_constraint": null}, "inbound_nodes": [[["concatenate_1212", 0, 0, {}]]]}, {"name": "BP_0xc4ca42_1_S_0xc81e72_2_M_6_L_1", "class_name": "Dense", "config": {"name": "BP_0xc4ca42_1_S_0xc81e72_2_M_6_L_1", "trainable": true, "dtype": "float32", "units": 64, "activation": "linear", "use_bias": true, "kernel_initializer": {"class_name": "VarianceScaling", "config": {"scale": 2.0, "mode": "fan_in", "distribution": "normal", "seed": null}}, "bias_initializer": {"class_name": "Zeros", "config": {}}, "kernel_regularizer": {"class_name": "L1L2", "config": {"l1": 0.0, "l2": 0.0002500000118743628}}, "bias_regularizer": null, "activity_regularizer": null, "kernel_constraint": null, "bias_constraint": null}, "inbound_nodes": [[["BP_0xc4ca42_1_S_0xc81e72_2_M_6_L_0", 0, 0, {}]]]}, {"name": "BP_0xc4ca42_1_S_0xc81e72_2_M_10_L_1", "class_name": "Dense", "config": {"name": "BP_0xc4ca42_1_S_0xc81e72_2_M_10_L_1", "trainable": true, "dtype": "float32", "units": 64, "activation": "linear", "use_bias": true, "kernel_initializer": {"class_name": "VarianceScaling", "config": {"scale": 2.0, "mode": "fan_in", "distribution": "normal", "seed": null}}, "bias_initializer": {"class_name": "Zeros", "config": {}}, "kernel_regularizer": {"class_name": "L1L2", "config": {"l1": 0.0, "l2": 0.0002500000118743628}}, "bias_regularizer": null, "activity_regularizer": null, "kernel_constraint": null, "bias_constraint": null}, "inbound_nodes": [[["BP_0xc4ca42_1_S_0xc81e72_2_M_10_L_0", 0, 0, {}]]]}, {"name": "BP_0xc4ca42_1_S_0xc81e72_2_M_6_L_2", "class_name": "Activation", "config": {"name": "BP_0xc4ca42_1_S_0xc81e72_2_M_6_L_2", "trainable": true, "dtype": "float32", "activation": "relu"}, "inbound_nodes": [[["BP_0xc4ca42_1_S_0xc81e72_2_M_6_L_1", 0, 0, {}]]]}, {"name": "BP_0xc4ca42_1_S_0xc81e72_2_M_10_L_2", "class_name": "Activation", "config": {"name": "BP_0xc4ca42_1_S_0xc81e72_2_M_10_L_2", "trainable": true, "dtype": "float32", "activation": "relu"}, "inbound_nodes": [[["BP_0xc4ca42_1_S_0xc81e72_2_M_10_L_1", 0, 0, {}]]]}, {"name": "concatenate_1214", "class_name": "Concatenate", "config": {"name": "concatenate_1214", "trainable": true, "dtype": "float32", "axis": -1}, "inbound_nodes": [[["BP_0xc4ca42_1_S_0xc81e72_2_M_6_L_2", 0, 0, {}], ["BP_0xc4ca42_1_S_0xc81e72_2_M_10_L_2", 0, 0, {}], ["concatenate_1212", 0, 0, {}]]]}, {"name": "BP_0xc9f0f8_8_S_0xc4ca42_1_M_4_L_0", "class_name": "BatchNormalization", "config": {"name": "BP_0xc9f0f8_8_S_0xc4ca42_1_M_4_L_0", "trainable": true, "dtype": "float32", "axis": -1, "momentum": 0.9, "epsilon": 1e-05, "center": true, "scale": true, "beta_initializer": {"class_name": "Zeros", "config": {}}, "gamma_initializer": {"class_name": "Ones", "config": {}}, "moving_mean_initializer": {"class_name": "Zeros", "config": {}}, "moving_variance_initializer": {"class_name": "Ones", "config": {}}, "beta_regularizer": null, "gamma_regularizer": null, "beta_constraint": null, "gamma_constraint": null}, "inbound_nodes": [[["concatenate_1214", 0, 0, {}]]]}, {"name": "BP_0xc9f0f8_8_S_0xc4ca42_1_M_4_L_1", "class_name": "Dense", "config": {"name": "BP_0xc9f0f8_8_S_0xc4ca42_1_M_4_L_1", "trainable": true, "dtype": "float32", "units": 64, "activation": "linear", "use_bias": true, "kernel_initializer": {"class_name": "VarianceScaling", "config": {"scale": 2.0, "mode": "fan_in", "distribution": "normal", "seed": null}}, "bias_initializer": {"class_name": "Zeros", "config": {}}, "kernel_regularizer": {"class_name": "L1L2", "config": {"l1": 0.0, "l2": 0.0002500000118743628}}, "bias_regularizer": null, "activity_regularizer": null, "kernel_constraint": null, "bias_constraint": null}, "inbound_nodes": [[["BP_0xc9f0f8_8_S_0xc4ca42_1_M_4_L_0", 0, 0, {}]]]}, {"name": "BP_0xc9f0f8_8_S_0xc4ca42_1_M_4_L_2", "class_name": "Activation", "config": {"name": "BP_0xc9f0f8_8_S_0xc4ca42_1_M_4_L_2", "trainable": true, "dtype": "float32", "activation": "relu"}, "inbound_nodes": [[["BP_0xc9f0f8_8_S_0xc4ca42_1_M_4_L_1", 0, 0, {}]]]}, {"name": "BP_0xc9f0f8_8_S_0xc4ca42_1_M_14_L_0", "class_name": "Dense", "config": {"name": "BP_0xc9f0f8_8_S_0xc4ca42_1_M_14_L_0", "trainable": true, "dtype": "float32", "units": 64, "activation": "linear", "use_bias": true, "kernel_initializer": {"class_name": "VarianceScaling", "config": {"scale": 2.0, "mode": "fan_in", "distribution": "normal", "seed": null}}, "bias_initializer": {"class_name": "Zeros", "config": {}}, "kernel_regularizer": {"class_name": "L1L2", "config": {"l1": 0.0, "l2": 0.0002500000118743628}}, "bias_regularizer": null, "activity_regularizer": null, "kernel_constraint": null, "bias_constraint": null}, "inbound_nodes": [[["BP_0xc9f0f8_8_S_0xc4ca42_1_M_4_L_2", 0, 0, {}]]]}, {"name": "BP_0xc9f0f8_8_S_0xc4ca42_1_M_14_L_1", "class_name": "Activation", "config": {"name": "BP_0xc9f0f8_8_S_0xc4ca42_1_M_14_L_1", "trainable": true, "dtype": "float32", "activation": "relu"}, "inbound_nodes": [[["BP_0xc9f0f8_8_S_0xc4ca42_1_M_14_L_0", 0, 0, {}]]]}, {"name": "BP_0xc9f0f8_8_S_0xc4ca42_1_M_14_L_2", "class_name": "Dropout", "config": {"name": "BP_0xc9f0f8_8_S_0xc4ca42_1_M_14_L_2", "trainable": true, "dtype": "float32", "rate": 0.25, "noise_shape": null, "seed": null}, "inbound_nodes": [[["BP_0xc9f0f8_8_S_0xc4ca42_1_M_14_L_1", 0, 0, {}]]]}, {"name": "BP_0xc9f0f8_8_S_0xc4ca42_1_M_6_L_0", "class_name": "BatchNormalization", "config": {"name": "BP_0xc9f0f8_8_S_0xc4ca42_1_M_6_L_0", "trainable": true, "dtype": "float32", "axis": -1, "momentum": 0.9, "epsilon": 1e-05, "center": true, "scale": true, "beta_initializer": {"class_name": "Zeros", "config": {}}, "gamma_initializer": {"class_name": "Ones", "config": {}}, "moving_mean_initializer": {"class_name": "Zeros", "config": {}}, "moving_variance_initializer": {"class_name": "Ones", "config": {}}, "beta_regularizer": null, "gamma_regularizer": null, "beta_constraint": null, "gamma_constraint": null}, "inbound_nodes": [[["BP_0xc9f0f8_8_S_0xc4ca42_1_M_14_L_2", 0, 0, {}]]]}, {"name": "BP_0xc9f0f8_8_S_0xc4ca42_1_M_10_L_0", "class_name": "BatchNormalization", "config": {"name": "BP_0xc9f0f8_8_S_0xc4ca42_1_M_10_L_0", "trainable": true, "dtype": "float32", "axis": -1, "momentum": 0.9, "epsilon": 1e-05, "center": true, "scale": true, "beta_initializer": {"class_name": "Zeros", "config": {}}, "gamma_initializer": {"class_name": "Ones", "config": {}}, "moving_mean_initializer": {"class_name": "Zeros", "config": {}}, "moving_variance_initializer": {"class_name": "Ones", "config": {}}, "beta_regularizer": null, "gamma_regularizer": null, "beta_constraint": null, "gamma_constraint": null}, "inbound_nodes": [[["concatenate_1214", 0, 0, {}]]]}, {"name": "BP_0x45c48c_9_S_0xc81e72_2_M_4_L_0", "class_name": "BatchNormalization", "config": {"name": "BP_0x45c48c_9_S_0xc81e72_2_M_4_L_0", "trainable": true, "dtype": "float32", "axis": -1, "momentum": 0.9, "epsilon": 1e-05, "center": true, "scale": true, "beta_initializer": {"class_name": "Zeros", "config": {}}, "gamma_initializer": {"class_name": "Ones", "config": {}}, "moving_mean_initializer": {"class_name": "Zeros", "config": {}}, "moving_variance_initializer": {"class_name": "Ones", "config": {}}, "beta_regularizer": null, "gamma_regularizer": null, "beta_constraint": null, "gamma_constraint": null}, "inbound_nodes": [[["concatenate_1214", 0, 0, {}]]]}, {"name": "BP_0xc9f0f8_8_S_0xc4ca42_1_M_6_L_1", "class_name": "Dense", "config": {"name": "BP_0xc9f0f8_8_S_0xc4ca42_1_M_6_L_1", "trainable": true, "dtype": "float32", "units": 64, "activation": "linear", "use_bias": true, "kernel_initializer": {"class_name": "VarianceScaling", "config": {"scale": 2.0, "mode": "fan_in", "distribution": "normal", "seed": null}}, "bias_initializer": {"class_name": "Zeros", "config": {}}, "kernel_regularizer": {"class_name": "L1L2", "config": {"l1": 0.0, "l2": 0.0002500000118743628}}, "bias_regularizer": null, "activity_regularizer": null, "kernel_constraint": null, "bias_constraint": null}, "inbound_nodes": [[["BP_0xc9f0f8_8_S_0xc4ca42_1_M_6_L_0", 0, 0, {}]]]}, {"name": "BP_0xc9f0f8_8_S_0xc4ca42_1_M_10_L_1", "class_name": "Dense", "config": {"name": "BP_0xc9f0f8_8_S_0xc4ca42_1_M_10_L_1", "trainable": true, "dtype": "float32", "units": 64, "activation": "linear", "use_bias": true, "kernel_initializer": {"class_name": "VarianceScaling", "config": {"scale": 2.0, "mode": "fan_in", "distribution": "normal", "seed": null}}, "bias_initializer": {"class_name": "Zeros", "config": {}}, "kernel_regularizer": {"class_name": "L1L2", "config": {"l1": 0.0, "l2": 0.0002500000118743628}}, "bias_regularizer": null, "activity_regularizer": null, "kernel_constraint": null, "bias_constraint": null}, "inbound_nodes": [[["BP_0xc9f0f8_8_S_0xc4ca42_1_M_10_L_0", 0, 0, {}]]]}, {"name": "BP_0x45c48c_9_S_0xc81e72_2_M_4_L_1", "class_name": "Dense", "config": {"name": "BP_0x45c48c_9_S_0xc81e72_2_M_4_L_1", "trainable": true, "dtype": "float32", "units": 64, "activation": "linear", "use_bias": true, "kernel_initializer": {"class_name": "VarianceScaling", "config": {"scale": 2.0, "mode": "fan_in", "distribution": "normal", "seed": null}}, "bias_initializer": {"class_name": "Zeros", "config": {}}, "kernel_regularizer": {"class_name": "L1L2", "config": {"l1": 0.0, "l2": 0.0002500000118743628}}, "bias_regularizer": null, "activity_regularizer": null, "kernel_constraint": null, "bias_constraint": null}, "inbound_nodes": [[["BP_0x45c48c_9_S_0xc81e72_2_M_4_L_0", 0, 0, {}]]]}, {"name": "BP_0xc9f0f8_8_S_0xc4ca42_1_M_6_L_2", "class_name": "Activation", "config": {"name": "BP_0xc9f0f8_8_S_0xc4ca42_1_M_6_L_2", "trainable": true, "dtype": "float32", "activation": "relu"}, "inbound_nodes": [[["BP_0xc9f0f8_8_S_0xc4ca42_1_M_6_L_1", 0, 0, {}]]]}, {"name": "BP_0xc9f0f8_8_S_0xc4ca42_1_M_10_L_2", "class_name": "Activation", "config": {"name": "BP_0xc9f0f8_8_S_0xc4ca42_1_M_10_L_2", "trainable": true, "dtype": "float32", "activation": "relu"}, "inbound_nodes": [[["BP_0xc9f0f8_8_S_0xc4ca42_1_M_10_L_1", 0, 0, {}]]]}, {"name": "BP_0x45c48c_9_S_0xc81e72_2_M_4_L_2", "class_name": "Activation", "config": {"name": "BP_0x45c48c_9_S_0xc81e72_2_M_4_L_2", "trainable": true, "dtype": "float32", "activation": "relu"}, "inbound_nodes": [[["BP_0x45c48c_9_S_0xc81e72_2_M_4_L_1", 0, 0, {}]]]}, {"name": "concatenate_1219", "class_name": "Concatenate", "config": {"name": "concatenate_1219", "trainable": true, "dtype": "float32", "axis": -1}, "inbound_nodes": [[["BP_0xc9f0f8_8_S_0xc4ca42_1_M_6_L_2", 0, 0, {}], ["BP_0xc9f0f8_8_S_0xc4ca42_1_M_10_L_2", 0, 0, {}], ["concatenate_1214", 0, 0, {}]]]}, {"name": "BP_0x45c48c_9_S_0xc81e72_2_M_9_L_0", "class_name": "Dense", "config": {"name": "BP_0x45c48c_9_S_0xc81e72_2_M_9_L_0", "trainable": true, "dtype": "float32", "units": 64, "activation": "linear", "use_bias": true, "kernel_initializer": {"class_name": "VarianceScaling", "config": {"scale": 2.0, "mode": "fan_in", "distribution": "normal", "seed": null}}, "bias_initializer": {"class_name": "Zeros", "config": {}}, "kernel_regularizer": {"class_name": "L1L2", "config": {"l1": 0.0, "l2": 0.0002500000118743628}}, "bias_regularizer": null, "activity_regularizer": null, "kernel_constraint": null, "bias_constraint": null}, "inbound_nodes": [[["BP_0x45c48c_9_S_0xc81e72_2_M_4_L_2", 0, 0, {}]]]}, {"name": "BP_0xc20ad4_12_S_0xc4ca42_1_M_4_L_0", "class_name": "BatchNormalization", "config": {"name": "BP_0xc20ad4_12_S_0xc4ca42_1_M_4_L_0", "trainable": true, "dtype": "float32", "axis": -1, "momentum": 0.9, "epsilon": 1e-05, "center": true, "scale": true, "beta_initializer": {"class_name": "Zeros", "config": {}}, "gamma_initializer": {"class_name": "Ones", "config": {}}, "moving_mean_initializer": {"class_name": "Zeros", "config": {}}, "moving_variance_initializer": {"class_name": "Ones", "config": {}}, "beta_regularizer": null, "gamma_regularizer": null, "beta_constraint": null, "gamma_constraint": null}, "inbound_nodes": [[["concatenate_1219", 0, 0, {}]]]}, {"name": "BP_0x45c48c_9_S_0xc81e72_2_M_9_L_1", "class_name": "Activation", "config": {"name": "BP_0x45c48c_9_S_0xc81e72_2_M_9_L_1", "trainable": true, "dtype": "float32", "activation": "relu"}, "inbound_nodes": [[["BP_0x45c48c_9_S_0xc81e72_2_M_9_L_0", 0, 0, {}]]]}, {"name": "BP_0xc20ad4_12_S_0xc4ca42_1_M_4_L_1", "class_name": "Dense", "config": {"name": "BP_0xc20ad4_12_S_0xc4ca42_1_M_4_L_1", "trainable": true, "dtype": "float32", "units": 64, "activation": "linear", "use_bias": true, "kernel_initializer": {"class_name": "VarianceScaling", "config": {"scale": 2.0, "mode": "fan_in", "distribution": "normal", "seed": null}}, "bias_initializer": {"class_name": "Zeros", "config": {}}, "kernel_regularizer": {"class_name": "L1L2", "config": {"l1": 0.0, "l2": 0.0002500000118743628}}, "bias_regularizer": null, "activity_regularizer": null, "kernel_constraint": null, "bias_constraint": null}, "inbound_nodes": [[["BP_0xc20ad4_12_S_0xc4ca42_1_M_4_L_0", 0, 0, {}]]]}, {"name": "BP_0x45c48c_9_S_0xc81e72_2_M_9_L_2", "class_name": "Dropout", "config": {"name": "BP_0x45c48c_9_S_0xc81e72_2_M_9_L_2", "trainable": true, "dtype": "float32", "rate": 0.25, "noise_shape": null, "seed": null}, "inbound_nodes": [[["BP_0x45c48c_9_S_0xc81e72_2_M_9_L_1", 0, 0, {}]]]}, {"name": "BP_0xc20ad4_12_S_0xc4ca42_1_M_4_L_2", "class_name": "Activation", "config": {"name": "BP_0xc20ad4_12_S_0xc4ca42_1_M_4_L_2", "trainable": true, "dtype": "float32", "activation": "relu"}, "inbound_nodes": [[["BP_0xc20ad4_12_S_0xc4ca42_1_M_4_L_1", 0, 0, {}]]]}, {"name": "BP_0x45c48c_9_S_0xc81e72_2_M_14_L_0", "class_name": "BatchNormalization", "config": {"name": "BP_0x45c48c_9_S_0xc81e72_2_M_14_L_0", "trainable": true, "dtype": "float32", "axis": -1, "momentum": 0.9, "epsilon": 1e-05, "center": true, "scale": true, "beta_initializer": {"class_name": "Zeros", "config": {}}, "gamma_initializer": {"class_name": "Ones", "config": {}}, "moving_mean_initializer": {"class_name": "Zeros", "config": {}}, "moving_variance_initializer": {"class_name": "Ones", "config": {}}, "beta_regularizer": null, "gamma_regularizer": null, "beta_constraint": null, "gamma_constraint": null}, "inbound_nodes": [[["BP_0x45c48c_9_S_0xc81e72_2_M_9_L_2", 0, 0, {}]]]}, {"name": "BP_0xc20ad4_12_S_0xc4ca42_1_M_14_L_0", "class_name": "Dense", "config": {"name": "BP_0xc20ad4_12_S_0xc4ca42_1_M_14_L_0", "trainable": true, "dtype": "float32", "units": 64, "activation": "linear", "use_bias": true, "kernel_initializer": {"class_name": "VarianceScaling", "config": {"scale": 2.0, "mode": "fan_in", "distribution": "normal", "seed": null}}, "bias_initializer": {"class_name": "Zeros", "config": {}}, "kernel_regularizer": {"class_name": "L1L2", "config": {"l1": 0.0, "l2": 0.0002500000118743628}}, "bias_regularizer": null, "activity_regularizer": null, "kernel_constraint": null, "bias_constraint": null}, "inbound_nodes": [[["BP_0xc20ad4_12_S_0xc4ca42_1_M_4_L_2", 0, 0, {}]]]}, {"name": "BP_0x45c48c_9_S_0xc81e72_2_M_14_L_1", "class_name": "Dense", "config": {"name": "BP_0x45c48c_9_S_0xc81e72_2_M_14_L_1", "trainable": true, "dtype": "float32", "units": 64, "activation": "linear", "use_bias": true, "kernel_initializer": {"class_name": "VarianceScaling", "config": {"scale": 2.0, "mode": "fan_in", "distribution": "normal", "seed": null}}, "bias_initializer": {"class_name": "Zeros", "config": {}}, "kernel_regularizer": {"class_name": "L1L2", "config": {"l1": 0.0, "l2": 0.0002500000118743628}}, "bias_regularizer": null, "activity_regularizer": null, "kernel_constraint": null, "bias_constraint": null}, "inbound_nodes": [[["BP_0x45c48c_9_S_0xc81e72_2_M_14_L_0", 0, 0, {}]]]}, {"name": "BP_0xc20ad4_12_S_0xc4ca42_1_M_14_L_1", "class_name": "Activation", "config": {"name": "BP_0xc20ad4_12_S_0xc4ca42_1_M_14_L_1", "trainable": true, "dtype": "float32", "activation": "relu"}, "inbound_nodes": [[["BP_0xc20ad4_12_S_0xc4ca42_1_M_14_L_0", 0, 0, {}]]]}, {"name": "BP_0x45c48c_9_S_0xc81e72_2_M_14_L_2", "class_name": "Activation", "config": {"name": "BP_0x45c48c_9_S_0xc81e72_2_M_14_L_2", "trainable": true, "dtype": "float32", "activation": "relu"}, "inbound_nodes": [[["BP_0x45c48c_9_S_0xc81e72_2_M_14_L_1", 0, 0, {}]]]}, {"name": "BP_0xc20ad4_12_S_0xc4ca42_1_M_14_L_2", "class_name": "Dropout", "config": {"name": "BP_0xc20ad4_12_S_0xc4ca42_1_M_14_L_2", "trainable": true, "dtype": "float32", "rate": 0.25, "noise_shape": null, "seed": null}, "inbound_nodes": [[["BP_0xc20ad4_12_S_0xc4ca42_1_M_14_L_1", 0, 0, {}]]]}, {"name": "concatenate_1215", "class_name": "Concatenate", "config": {"name": "concatenate_1215", "trainable": true, "dtype": "float32", "axis": -1}, "inbound_nodes": [[["BP_0x45c48c_9_S_0xc81e72_2_M_9_L_2", 0, 0, {}], ["BP_0x45c48c_9_S_0xc81e72_2_M_14_L_2", 0, 0, {}]]]}, {"name": "BP_0xc20ad4_12_S_0xc4ca42_1_M_6_L_0", "class_name": "BatchNormalization", "config": {"name": "BP_0xc20ad4_12_S_0xc4ca42_1_M_6_L_0", "trainable": true, "dtype": "float32", "axis": -1, "momentum": 0.9, "epsilon": 1e-05, "center": true, "scale": true, "beta_initializer": {"class_name": "Zeros", "config": {}}, "gamma_initializer": {"class_name": "Ones", "config": {}}, "moving_mean_initializer": {"class_name": "Zeros", "config": {}}, "moving_variance_initializer": {"class_name": "Ones", "config": {}}, "beta_regularizer": null, "gamma_regularizer": null, "beta_constraint": null, "gamma_constraint": null}, "inbound_nodes": [[["BP_0xc20ad4_12_S_0xc4ca42_1_M_14_L_2", 0, 0, {}]]]}, {"name": "BP_0xc20ad4_12_S_0xc4ca42_1_M_10_L_0", "class_name": "BatchNormalization", "config": {"name": "BP_0xc20ad4_12_S_0xc4ca42_1_M_10_L_0", "trainable": true, "dtype": "float32", "axis": -1, "momentum": 0.9, "epsilon": 1e-05, "center": true, "scale": true, "beta_initializer": {"class_name": "Zeros", "config": {}}, "gamma_initializer": {"class_name": "Ones", "config": {}}, "moving_mean_initializer": {"class_name": "Zeros", "config": {}}, "moving_variance_initializer": {"class_name": "Ones", "config": {}}, "beta_regularizer": null, "gamma_regularizer": null, "beta_constraint": null, "gamma_constraint": null}, "inbound_nodes": [[["concatenate_1219", 0, 0, {}]]]}, {"name": "BP_0x45c48c_9_S_0xc81e72_2_M_6_L_0", "class_name": "BatchNormalization", "config": {"name": "BP_0x45c48c_9_S_0xc81e72_2_M_6_L_0", "trainable": true, "dtype": "float32", "axis": -1, "momentum": 0.9, "epsilon": 1e-05, "center": true, "scale": true, "beta_initializer": {"class_name": "Zeros", "config": {}}, "gamma_initializer": {"class_name": "Ones", "config": {}}, "moving_mean_initializer": {"class_name": "Zeros", "config": {}}, "moving_variance_initializer": {"class_name": "Ones", "config": {}}, "beta_regularizer": null, "gamma_regularizer": null, "beta_constraint": null, "gamma_constraint": null}, "inbound_nodes": [[["concatenate_1215", 0, 0, {}]]]}, {"name": "BP_0x45c48c_9_S_0xc81e72_2_M_10_L_0", "class_name": "BatchNormalization", "config": {"name": "BP_0x45c48c_9_S_0xc81e72_2_M_10_L_0", "trainable": true, "dtype": "float32", "axis": -1, "momentum": 0.9, "epsilon": 1e-05, "center": true, "scale": true, "beta_initializer": {"class_name": "Zeros", "config": {}}, "gamma_initializer": {"class_name": "Ones", "config": {}}, "moving_mean_initializer": {"class_name": "Zeros", "config": {}}, "moving_variance_initializer": {"class_name": "Ones", "config": {}}, "beta_regularizer": null, "gamma_regularizer": null, "beta_constraint": null, "gamma_constraint": null}, "inbound_nodes": [[["concatenate_1214", 0, 0, {}]]]}, {"name": "BP_0xc20ad4_12_S_0xc4ca42_1_M_6_L_1", "class_name": "Dense", "config": {"name": "BP_0xc20ad4_12_S_0xc4ca42_1_M_6_L_1", "trainable": true, "dtype": "float32", "units": 64, "activation": "linear", "use_bias": true, "kernel_initializer": {"class_name": "VarianceScaling", "config": {"scale": 2.0, "mode": "fan_in", "distribution": "normal", "seed": null}}, "bias_initializer": {"class_name": "Zeros", "config": {}}, "kernel_regularizer": {"class_name": "L1L2", "config": {"l1": 0.0, "l2": 0.0002500000118743628}}, "bias_regularizer": null, "activity_regularizer": null, "kernel_constraint": null, "bias_constraint": null}, "inbound_nodes": [[["BP_0xc20ad4_12_S_0xc4ca42_1_M_6_L_0", 0, 0, {}]]]}, {"name": "BP_0xc20ad4_12_S_0xc4ca42_1_M_10_L_1", "class_name": "Dense", "config": {"name": "BP_0xc20ad4_12_S_0xc4ca42_1_M_10_L_1", "trainable": true, "dtype": "float32", "units": 64, "activation": "linear", "use_bias": true, "kernel_initializer": {"class_name": "VarianceScaling", "config": {"scale": 2.0, "mode": "fan_in", "distribution": "normal", "seed": null}}, "bias_initializer": {"class_name": "Zeros", "config": {}}, "kernel_regularizer": {"class_name": "L1L2", "config": {"l1": 0.0, "l2": 0.0002500000118743628}}, "bias_regularizer": null, "activity_regularizer": null, "kernel_constraint": null, "bias_constraint": null}, "inbound_nodes": [[["BP_0xc20ad4_12_S_0xc4ca42_1_M_10_L_0", 0, 0, {}]]]}, {"name": "BP_0x45c48c_9_S_0xc81e72_2_M_6_L_1", "class_name": "Dense", "config": {"name": "BP_0x45c48c_9_S_0xc81e72_2_M_6_L_1", "trainable": true, "dtype": "float32", "units": 64, "activation": "linear", "use_bias": true, "kernel_initializer": {"class_name": "VarianceScaling", "config": {"scale": 2.0, "mode": "fan_in", "distribution": "normal", "seed": null}}, "bias_initializer": {"class_name": "Zeros", "config": {}}, "kernel_regularizer": {"class_name": "L1L2", "config": {"l1": 0.0, "l2": 0.0002500000118743628}}, "bias_regularizer": null, "activity_regularizer": null, "kernel_constraint": null, "bias_constraint": null}, "inbound_nodes": [[["BP_0x45c48c_9_S_0xc81e72_2_M_6_L_0", 0, 0, {}]]]}, {"name": "BP_0x45c48c_9_S_0xc81e72_2_M_10_L_1", "class_name": "Dense", "config": {"name": "BP_0x45c48c_9_S_0xc81e72_2_M_10_L_1", "trainable": true, "dtype": "float32", "units": 64, "activation": "linear", "use_bias": true, "kernel_initializer": {"class_name": "VarianceScaling", "config": {"scale": 2.0, "mode": "fan_in", "distribution": "normal", "seed": null}}, "bias_initializer": {"class_name": "Zeros", "config": {}}, "kernel_regularizer": {"class_name": "L1L2", "config": {"l1": 0.0, "l2": 0.0002500000118743628}}, "bias_regularizer": null, "activity_regularizer": null, "kernel_constraint": null, "bias_constraint": null}, "inbound_nodes": [[["BP_0x45c48c_9_S_0xc81e72_2_M_10_L_0", 0, 0, {}]]]}, {"name": "BP_0xc20ad4_12_S_0xc4ca42_1_M_6_L_2", "class_name": "Activation", "config": {"name": "BP_0xc20ad4_12_S_0xc4ca42_1_M_6_L_2", "trainable": true, "dtype": "float32", "activation": "relu"}, "inbound_nodes": [[["BP_0xc20ad4_12_S_0xc4ca42_1_M_6_L_1", 0, 0, {}]]]}, {"name": "BP_0xc20ad4_12_S_0xc4ca42_1_M_10_L_2", "class_name": "Activation", "config": {"name": "BP_0xc20ad4_12_S_0xc4ca42_1_M_10_L_2", "trainable": true, "dtype": "float32", "activation": "relu"}, "inbound_nodes": [[["BP_0xc20ad4_12_S_0xc4ca42_1_M_10_L_1", 0, 0, {}]]]}, {"name": "BP_0x45c48c_9_S_0xc81e72_2_M_6_L_2", "class_name": "Activation", "config": {"name": "BP_0x45c48c_9_S_0xc81e72_2_M_6_L_2", "trainable": true, "dtype": "float32", "activation": "relu"}, "inbound_nodes": [[["BP_0x45c48c_9_S_0xc81e72_2_M_6_L_1", 0, 0, {}]]]}, {"name": "BP_0x45c48c_9_S_0xc81e72_2_M_10_L_2", "class_name": "Activation", "config": {"name": "BP_0x45c48c_9_S_0xc81e72_2_M_10_L_2", "trainable": true, "dtype": "float32", "activation": "relu"}, "inbound_nodes": [[["BP_0x45c48c_9_S_0xc81e72_2_M_10_L_1", 0, 0, {}]]]}, {"name": "concatenate_1220", "class_name": "Concatenate", "config": {"name": "concatenate_1220", "trainable": true, "dtype": "float32", "axis": -1}, "inbound_nodes": [[["BP_0xc20ad4_12_S_0xc4ca42_1_M_6_L_2", 0, 0, {}], ["BP_0xc20ad4_12_S_0xc4ca42_1_M_10_L_2", 0, 0, {}], ["concatenate_1219", 0, 0, {}]]]}, {"name": "concatenate_1216", "class_name": "Concatenate", "config": {"name": "concatenate_1216", "trainable": true, "dtype": "float32", "axis": -1}, "inbound_nodes": [[["BP_0x45c48c_9_S_0xc81e72_2_M_6_L_2", 0, 0, {}], ["BP_0x45c48c_9_S_0xc81e72_2_M_10_L_2", 0, 0, {}], ["concatenate_1214", 0, 0, {}]]]}, {"name": "concatenate_1221", "class_name": "Concatenate", "config": {"name": "concatenate_1221", "trainable": true, "dtype": "float32", "axis": -1}, "inbound_nodes": [[["concatenate_1214", 0, 0, {}], ["concatenate_1219", 0, 0, {}], ["concatenate_1220", 0, 0, {}]]]}, {"name": "BP_0xc81e72_2_S_0xc81e72_2_M_4_L_0", "class_name": "BatchNormalization", "config": {"name": "BP_0xc81e72_2_S_0xc81e72_2_M_4_L_0", "trainable": true, "dtype": "float32", "axis": -1, "momentum": 0.9, "epsilon": 1e-05, "center": true, "scale": true, "beta_initializer": {"class_name": "Zeros", "config": {}}, "gamma_initializer": {"class_name": "Ones", "config": {}}, "moving_mean_initializer": {"class_name": "Zeros", "config": {}}, "moving_variance_initializer": {"class_name": "Ones", "config": {}}, "beta_regularizer": null, "gamma_regularizer": null, "beta_constraint": null, "gamma_constraint": null}, "inbound_nodes": [[["concatenate_1216", 0, 0, {}]]]}, {"name": "BP_0x8f14e4_7_S_0xc81e72_2_M_4_L_0", "class_name": "BatchNormalization", "config": {"name": "BP_0x8f14e4_7_S_0xc81e72_2_M_4_L_0", "trainable": true, "dtype": "float32", "axis": -1, "momentum": 0.9, "epsilon": 1e-05, "center": true, "scale": true, "beta_initializer": {"class_name": "Zeros", "config": {}}, "gamma_initializer": {"class_name": "Ones", "config": {}}, "moving_mean_initializer": {"class_name": "Zeros", "config": {}}, "moving_variance_initializer": {"class_name": "Ones", "config": {}}, "beta_regularizer": null, "gamma_regularizer": null, "beta_constraint": null, "gamma_constraint": null}, "inbound_nodes": [[["concatenate_1221", 0, 0, {}]]]}, {"name": "BP_0xc81e72_2_S_0xc81e72_2_M_4_L_1", "class_name": "Dense", "config": {"name": "BP_0xc81e72_2_S_0xc81e72_2_M_4_L_1", "trainable": true, "dtype": "float32", "units": 64, "activation": "linear", "use_bias": true, "kernel_initializer": {"class_name": "VarianceScaling", "config": {"scale": 2.0, "mode": "fan_in", "distribution": "normal", "seed": null}}, "bias_initializer": {"class_name": "Zeros", "config": {}}, "kernel_regularizer": {"class_name": "L1L2", "config": {"l1": 0.0, "l2": 0.0002500000118743628}}, "bias_regularizer": null, "activity_regularizer": null, "kernel_constraint": null, "bias_constraint": null}, "inbound_nodes": [[["BP_0xc81e72_2_S_0xc81e72_2_M_4_L_0", 0, 0, {}]]]}, {"name": "BP_0x8f14e4_7_S_0xc81e72_2_M_4_L_1", "class_name": "Dense", "config": {"name": "BP_0x8f14e4_7_S_0xc81e72_2_M_4_L_1", "trainable": true, "dtype": "float32", "units": 64, "activation": "linear", "use_bias": true, "kernel_initializer": {"class_name": "VarianceScaling", "config": {"scale": 2.0, "mode": "fan_in", "distribution": "normal", "seed": null}}, "bias_initializer": {"class_name": "Zeros", "config": {}}, "kernel_regularizer": {"class_name": "L1L2", "config": {"l1": 0.0, "l2": 0.0002500000118743628}}, "bias_regularizer": null, "activity_regularizer": null, "kernel_constraint": null, "bias_constraint": null}, "inbound_nodes": [[["BP_0x8f14e4_7_S_0xc81e72_2_M_4_L_0", 0, 0, {}]]]}, {"name": "BP_0xc81e72_2_S_0xc81e72_2_M_4_L_2", "class_name": "Activation", "config": {"name": "BP_0xc81e72_2_S_0xc81e72_2_M_4_L_2", "trainable": true, "dtype": "float32", "activation": "relu"}, "inbound_nodes": [[["BP_0xc81e72_2_S_0xc81e72_2_M_4_L_1", 0, 0, {}]]]}, {"name": "BP_0x8f14e4_7_S_0xc81e72_2_M_4_L_2", "class_name": "Activation", "config": {"name": "BP_0x8f14e4_7_S_0xc81e72_2_M_4_L_2", "trainable": true, "dtype": "float32", "activation": "relu"}, "inbound_nodes": [[["BP_0x8f14e4_7_S_0xc81e72_2_M_4_L_1", 0, 0, {}]]]}, {"name": "BP_0xc81e72_2_S_0xc81e72_2_M_9_L_0", "class_name": "Dense", "config": {"name": "BP_0xc81e72_2_S_0xc81e72_2_M_9_L_0", "trainable": true, "dtype": "float32", "units": 64, "activation": "linear", "use_bias": true, "kernel_initializer": {"class_name": "VarianceScaling", "config": {"scale": 2.0, "mode": "fan_in", "distribution": "normal", "seed": null}}, "bias_initializer": {"class_name": "Zeros", "config": {}}, "kernel_regularizer": {"class_name": "L1L2", "config": {"l1": 0.0, "l2": 0.0002500000118743628}}, "bias_regularizer": null, "activity_regularizer": null, "kernel_constraint": null, "bias_constraint": null}, "inbound_nodes": [[["BP_0xc81e72_2_S_0xc81e72_2_M_4_L_2", 0, 0, {}]]]}, {"name": "BP_0x8f14e4_7_S_0xc81e72_2_M_9_L_0", "class_name": "Dense", "config": {"name": "BP_0x8f14e4_7_S_0xc81e72_2_M_9_L_0", "trainable": true, "dtype": "float32", "units": 64, "activation": "linear", "use_bias": true, "kernel_initializer": {"class_name": "VarianceScaling", "config": {"scale": 2.0, "mode": "fan_in", "distribution": "normal", "seed": null}}, "bias_initializer": {"class_name": "Zeros", "config": {}}, "kernel_regularizer": {"class_name": "L1L2", "config": {"l1": 0.0, "l2": 0.0002500000118743628}}, "bias_regularizer": null, "activity_regularizer": null, "kernel_constraint": null, "bias_constraint": null}, "inbound_nodes": [[["BP_0x8f14e4_7_S_0xc81e72_2_M_4_L_2", 0, 0, {}]]]}, {"name": "BP_0xc81e72_2_S_0xc81e72_2_M_9_L_1", "class_name": "Activation", "config": {"name": "BP_0xc81e72_2_S_0xc81e72_2_M_9_L_1", "trainable": true, "dtype": "float32", "activation": "relu"}, "inbound_nodes": [[["BP_0xc81e72_2_S_0xc81e72_2_M_9_L_0", 0, 0, {}]]]}, {"name": "BP_0x8f14e4_7_S_0xc81e72_2_M_9_L_1", "class_name": "Activation", "config": {"name": "BP_0x8f14e4_7_S_0xc81e72_2_M_9_L_1", "trainable": true, "dtype": "float32", "activation": "relu"}, "inbound_nodes": [[["BP_0x8f14e4_7_S_0xc81e72_2_M_9_L_0", 0, 0, {}]]]}, {"name": "BP_0xc81e72_2_S_0xc81e72_2_M_9_L_2", "class_name": "Dropout", "config": {"name": "BP_0xc81e72_2_S_0xc81e72_2_M_9_L_2", "trainable": true, "dtype": "float32", "rate": 0.25, "noise_shape": null, "seed": null}, "inbound_nodes": [[["BP_0xc81e72_2_S_0xc81e72_2_M_9_L_1", 0, 0, {}]]]}, {"name": "BP_0x8f14e4_7_S_0xc81e72_2_M_9_L_2", "class_name": "Dropout", "config": {"name": "BP_0x8f14e4_7_S_0xc81e72_2_M_9_L_2", "trainable": true, "dtype": "float32", "rate": 0.25, "noise_shape": null, "seed": null}, "inbound_nodes": [[["BP_0x8f14e4_7_S_0xc81e72_2_M_9_L_1", 0, 0, {}]]]}, {"name": "BP_0xc81e72_2_S_0xc81e72_2_M_14_L_0", "class_name": "BatchNormalization", "config": {"name": "BP_0xc81e72_2_S_0xc81e72_2_M_14_L_0", "trainable": true, "dtype": "float32", "axis": -1, "momentum": 0.9, "epsilon": 1e-05, "center": true, "scale": true, "beta_initializer": {"class_name": "Zeros", "config": {}}, "gamma_initializer": {"class_name": "Ones", "config": {}}, "moving_mean_initializer": {"class_name": "Zeros", "config": {}}, "moving_variance_initializer": {"class_name": "Ones", "config": {}}, "beta_regularizer": null, "gamma_regularizer": null, "beta_constraint": null, "gamma_constraint": null}, "inbound_nodes": [[["BP_0xc81e72_2_S_0xc81e72_2_M_9_L_2", 0, 0, {}]]]}, {"name": "BP_0x8f14e4_7_S_0xc81e72_2_M_14_L_0", "class_name": "BatchNormalization", "config": {"name": "BP_0x8f14e4_7_S_0xc81e72_2_M_14_L_0", "trainable": true, "dtype": "float32", "axis": -1, "momentum": 0.9, "epsilon": 1e-05, "center": true, "scale": true, "beta_initializer": {"class_name": "Zeros", "config": {}}, "gamma_initializer": {"class_name": "Ones", "config": {}}, "moving_mean_initializer": {"class_name": "Zeros", "config": {}}, "moving_variance_initializer": {"class_name": "Ones", "config": {}}, "beta_regularizer": null, "gamma_regularizer": null, "beta_constraint": null, "gamma_constraint": null}, "inbound_nodes": [[["BP_0x8f14e4_7_S_0xc81e72_2_M_9_L_2", 0, 0, {}]]]}, {"name": "BP_0xc81e72_2_S_0xc81e72_2_M_14_L_1", "class_name": "Dense", "config": {"name": "BP_0xc81e72_2_S_0xc81e72_2_M_14_L_1", "trainable": true, "dtype": "float32", "units": 64, "activation": "linear", "use_bias": true, "kernel_initializer": {"class_name": "VarianceScaling", "config": {"scale": 2.0, "mode": "fan_in", "distribution": "normal", "seed": null}}, "bias_initializer": {"class_name": "Zeros", "config": {}}, "kernel_regularizer": {"class_name": "L1L2", "config": {"l1": 0.0, "l2": 0.0002500000118743628}}, "bias_regularizer": null, "activity_regularizer": null, "kernel_constraint": null, "bias_constraint": null}, "inbound_nodes": [[["BP_0xc81e72_2_S_0xc81e72_2_M_14_L_0", 0, 0, {}]]]}, {"name": "BP_0x8f14e4_7_S_0xc81e72_2_M_14_L_1", "class_name": "Dense", "config": {"name": "BP_0x8f14e4_7_S_0xc81e72_2_M_14_L_1", "trainable": true, "dtype": "float32", "units": 64, "activation": "linear", "use_bias": true, "kernel_initializer": {"class_name": "VarianceScaling", "config": {"scale": 2.0, "mode": "fan_in", "distribution": "normal", "seed": null}}, "bias_initializer": {"class_name": "Zeros", "config": {}}, "kernel_regularizer": {"class_name": "L1L2", "config": {"l1": 0.0, "l2": 0.0002500000118743628}}, "bias_regularizer": null, "activity_regularizer": null, "kernel_constraint": null, "bias_constraint": null}, "inbound_nodes": [[["BP_0x8f14e4_7_S_0xc81e72_2_M_14_L_0", 0, 0, {}]]]}, {"name": "BP_0xc81e72_2_S_0xc81e72_2_M_14_L_2", "class_name": "Activation", "config": {"name": "BP_0xc81e72_2_S_0xc81e72_2_M_14_L_2", "trainable": true, "dtype": "float32", "activation": "relu"}, "inbound_nodes": [[["BP_0xc81e72_2_S_0xc81e72_2_M_14_L_1", 0, 0, {}]]]}, {"name": "BP_0x8f14e4_7_S_0xc81e72_2_M_14_L_2", "class_name": "Activation", "config": {"name": "BP_0x8f14e4_7_S_0xc81e72_2_M_14_L_2", "trainable": true, "dtype": "float32", "activation": "relu"}, "inbound_nodes": [[["BP_0x8f14e4_7_S_0xc81e72_2_M_14_L_1", 0, 0, {}]]]}, {"name": "concatenate_1217", "class_name": "Concatenate", "config": {"name": "concatenate_1217", "trainable": true, "dtype": "float32", "axis": -1}, "inbound_nodes": [[["BP_0xc81e72_2_S_0xc81e72_2_M_9_L_2", 0, 0, {}], ["BP_0xc81e72_2_S_0xc81e72_2_M_14_L_2", 0, 0, {}]]]}, {"name": "concatenate_1222", "class_name": "Concatenate", "config": {"name": "concatenate_1222", "trainable": true, "dtype": "float32", "axis": -1}, "inbound_nodes": [[["BP_0x8f14e4_7_S_0xc81e72_2_M_9_L_2", 0, 0, {}], ["BP_0x8f14e4_7_S_0xc81e72_2_M_14_L_2", 0, 0, {}]]]}, {"name": "BP_0xc81e72_2_S_0xc81e72_2_M_6_L_0", "class_name": "BatchNormalization", "config": {"name": "BP_0xc81e72_2_S_0xc81e72_2_M_6_L_0", "trainable": true, "dtype": "float32", "axis": -1, "momentum": 0.9, "epsilon": 1e-05, "center": true, "scale": true, "beta_initializer": {"class_name": "Zeros", "config": {}}, "gamma_initializer": {"class_name": "Ones", "config": {}}, "moving_mean_initializer": {"class_name": "Zeros", "config": {}}, "moving_variance_initializer": {"class_name": "Ones", "config": {}}, "beta_regularizer": null, "gamma_regularizer": null, "beta_constraint": null, "gamma_constraint": null}, "inbound_nodes": [[["concatenate_1217", 0, 0, {}]]]}, {"name": "BP_0xc81e72_2_S_0xc81e72_2_M_10_L_0", "class_name": "BatchNormalization", "config": {"name": "BP_0xc81e72_2_S_0xc81e72_2_M_10_L_0", "trainable": true, "dtype": "float32", "axis": -1, "momentum": 0.9, "epsilon": 1e-05, "center": true, "scale": true, "beta_initializer": {"class_name": "Zeros", "config": {}}, "gamma_initializer": {"class_name": "Ones", "config": {}}, "moving_mean_initializer": {"class_name": "Zeros", "config": {}}, "moving_variance_initializer": {"class_name": "Ones", "config": {}}, "beta_regularizer": null, "gamma_regularizer": null, "beta_constraint": null, "gamma_constraint": null}, "inbound_nodes": [[["concatenate_1216", 0, 0, {}]]]}, {"name": "BP_0x8f14e4_7_S_0xc81e72_2_M_6_L_0", "class_name": "BatchNormalization", "config": {"name": "BP_0x8f14e4_7_S_0xc81e72_2_M_6_L_0", "trainable": true, "dtype": "float32", "axis": -1, "momentum": 0.9, "epsilon": 1e-05, "center": true, "scale": true, "beta_initializer": {"class_name": "Zeros", "config": {}}, "gamma_initializer": {"class_name": "Ones", "config": {}}, "moving_mean_initializer": {"class_name": "Zeros", "config": {}}, "moving_variance_initializer": {"class_name": "Ones", "config": {}}, "beta_regularizer": null, "gamma_regularizer": null, "beta_constraint": null, "gamma_constraint": null}, "inbound_nodes": [[["concatenate_1222", 0, 0, {}]]]}, {"name": "BP_0x8f14e4_7_S_0xc81e72_2_M_10_L_0", "class_name": "BatchNormalization", "config": {"name": "BP_0x8f14e4_7_S_0xc81e72_2_M_10_L_0", "trainable": true, "dtype": "float32", "axis": -1, "momentum": 0.9, "epsilon": 1e-05, "center": true, "scale": true, "beta_initializer": {"class_name": "Zeros", "config": {}}, "gamma_initializer": {"class_name": "Ones", "config": {}}, "moving_mean_initializer": {"class_name": "Zeros", "config": {}}, "moving_variance_initializer": {"class_name": "Ones", "config": {}}, "beta_regularizer": null, "gamma_regularizer": null, "beta_constraint": null, "gamma_constraint": null}, "inbound_nodes": [[["concatenate_1221", 0, 0, {}]]]}, {"name": "BP_0xc81e72_2_S_0xc81e72_2_M_6_L_1", "class_name": "Dense", "config": {"name": "BP_0xc81e72_2_S_0xc81e72_2_M_6_L_1", "trainable": true, "dtype": "float32", "units": 64, "activation": "linear", "use_bias": true, "kernel_initializer": {"class_name": "VarianceScaling", "config": {"scale": 2.0, "mode": "fan_in", "distribution": "normal", "seed": null}}, "bias_initializer": {"class_name": "Zeros", "config": {}}, "kernel_regularizer": {"class_name": "L1L2", "config": {"l1": 0.0, "l2": 0.0002500000118743628}}, "bias_regularizer": null, "activity_regularizer": null, "kernel_constraint": null, "bias_constraint": null}, "inbound_nodes": [[["BP_0xc81e72_2_S_0xc81e72_2_M_6_L_0", 0, 0, {}]]]}, {"name": "BP_0xc81e72_2_S_0xc81e72_2_M_10_L_1", "class_name": "Dense", "config": {"name": "BP_0xc81e72_2_S_0xc81e72_2_M_10_L_1", "trainable": true, "dtype": "float32", "units": 64, "activation": "linear", "use_bias": true, "kernel_initializer": {"class_name": "VarianceScaling", "config": {"scale": 2.0, "mode": "fan_in", "distribution": "normal", "seed": null}}, "bias_initializer": {"class_name": "Zeros", "config": {}}, "kernel_regularizer": {"class_name": "L1L2", "config": {"l1": 0.0, "l2": 0.0002500000118743628}}, "bias_regularizer": null, "activity_regularizer": null, "kernel_constraint": null, "bias_constraint": null}, "inbound_nodes": [[["BP_0xc81e72_2_S_0xc81e72_2_M_10_L_0", 0, 0, {}]]]}, {"name": "BP_0x8f14e4_7_S_0xc81e72_2_M_6_L_1", "class_name": "Dense", "config": {"name": "BP_0x8f14e4_7_S_0xc81e72_2_M_6_L_1", "trainable": true, "dtype": "float32", "units": 64, "activation": "linear", "use_bias": true, "kernel_initializer": {"class_name": "VarianceScaling", "config": {"scale": 2.0, "mode": "fan_in", "distribution": "normal", "seed": null}}, "bias_initializer": {"class_name": "Zeros", "config": {}}, "kernel_regularizer": {"class_name": "L1L2", "config": {"l1": 0.0, "l2": 0.0002500000118743628}}, "bias_regularizer": null, "activity_regularizer": null, "kernel_constraint": null, "bias_constraint": null}, "inbound_nodes": [[["BP_0x8f14e4_7_S_0xc81e72_2_M_6_L_0", 0, 0, {}]]]}, {"name": "BP_0x8f14e4_7_S_0xc81e72_2_M_10_L_1", "class_name": "Dense", "config": {"name": "BP_0x8f14e4_7_S_0xc81e72_2_M_10_L_1", "trainable": true, "dtype": "float32", "units": 64, "activation": "linear", "use_bias": true, "kernel_initializer": {"class_name": "VarianceScaling", "config": {"scale": 2.0, "mode": "fan_in", "distribution": "normal", "seed": null}}, "bias_initializer": {"class_name": "Zeros", "config": {}}, "kernel_regularizer": {"class_name": "L1L2", "config": {"l1": 0.0, "l2": 0.0002500000118743628}}, "bias_regularizer": null, "activity_regularizer": null, "kernel_constraint": null, "bias_constraint": null}, "inbound_nodes": [[["BP_0x8f14e4_7_S_0xc81e72_2_M_10_L_0", 0, 0, {}]]]}, {"name": "BP_0xc81e72_2_S_0xc81e72_2_M_6_L_2", "class_name": "Activation", "config": {"name": "BP_0xc81e72_2_S_0xc81e72_2_M_6_L_2", "trainable": true, "dtype": "float32", "activation": "relu"}, "inbound_nodes": [[["BP_0xc81e72_2_S_0xc81e72_2_M_6_L_1", 0, 0, {}]]]}, {"name": "BP_0xc81e72_2_S_0xc81e72_2_M_10_L_2", "class_name": "Activation", "config": {"name": "BP_0xc81e72_2_S_0xc81e72_2_M_10_L_2", "trainable": true, "dtype": "float32", "activation": "relu"}, "inbound_nodes": [[["BP_0xc81e72_2_S_0xc81e72_2_M_10_L_1", 0, 0, {}]]]}, {"name": "BP_0x8f14e4_7_S_0xc81e72_2_M_6_L_2", "class_name": "Activation", "config": {"name": "BP_0x8f14e4_7_S_0xc81e72_2_M_6_L_2", "trainable": true, "dtype": "float32", "activation": "relu"}, "inbound_nodes": [[["BP_0x8f14e4_7_S_0xc81e72_2_M_6_L_1", 0, 0, {}]]]}, {"name": "BP_0x8f14e4_7_S_0xc81e72_2_M_10_L_2", "class_name": "Activation", "config": {"name": "BP_0x8f14e4_7_S_0xc81e72_2_M_10_L_2", "trainable": true, "dtype": "float32", "activation": "relu"}, "inbound_nodes": [[["BP_0x8f14e4_7_S_0xc81e72_2_M_10_L_1", 0, 0, {}]]]}, {"name": "concatenate_1218", "class_name": "Concatenate", "config": {"name": "concatenate_1218", "trainable": true, "dtype": "float32", "axis": -1}, "inbound_nodes": [[["BP_0xc81e72_2_S_0xc81e72_2_M_6_L_2", 0, 0, {}], ["BP_0xc81e72_2_S_0xc81e72_2_M_10_L_2", 0, 0, {}], ["concatenate_1216", 0, 0, {}]]]}, {"name": "concatenate_1223", "class_name": "Concatenate", "config": {"name": "concatenate_1223", "trainable": true, "dtype": "float32", "axis": -1}, "inbound_nodes": [[["BP_0x8f14e4_7_S_0xc81e72_2_M_6_L_2", 0, 0, {}], ["BP_0x8f14e4_7_S_0xc81e72_2_M_10_L_2", 0, 0, {}], ["concatenate_1221", 0, 0, {}]]]}, {"name": "concatenate_1224", "class_name": "Concatenate", "config": {"name": "concatenate_1224", "trainable": true, "dtype": "float32", "axis": -1}, "inbound_nodes": [[["input_64", 0, 0, {}], ["concatenate_1218", 0, 0, {}], ["concatenate_1223", 0, 0, {}]]]}, {"name": "dense_64", "class_name": "Dense", "config": {"name": "dense_64", "trainable": true, "dtype": "float32", "units": 2, "activation": "linear", "use_bias": true, "kernel_initializer": {"class_name": "VarianceScaling", "config": {"scale": 1.0, "mode": "fan_avg", "distribution": "uniform", "seed": null}}, "bias_initializer": {"class_name": "Zeros", "config": {}}, "kernel_regularizer": null, "bias_regularizer": null, "activity_regularizer": null, "kernel_constraint": null, "bias_constraint": null}, "inbound_nodes": [[["concatenate_1224", 0, 0, {}]]]}, {"name": "activation_64", "class_name": "Activation", "config": {"name": "activation_64", "trainable": true, "dtype": "float32", "activation": "softmax"}, "inbound_nodes": [[["dense_64", 0, 0, {}]]]}], "input_layers": [["input_64", 0, 0]], "output_layers": [["activation_64", 0, 0]]}, "keras_version": "2.2.5", "backend": "tensorflow"}