{"class_name": "Model", "config": {"name": "model_45", "layers": [{"name": "input_45", "class_name": "InputLayer", "config": {"batch_input_shape": [null, 143], "dtype": "float32", "sparse": false, "name": "input_45"}, "inbound_nodes": []}, {"name": "BP_0xa87ff6_4_S_0xc4ca42_1_M_8_L_0", "class_name": "BatchNormalization", "config": {"name": "BP_0xa87ff6_4_S_0xc4ca42_1_M_8_L_0", "trainable": true, "dtype": "float32", "axis": -1, "momentum": 0.9, "epsilon": 1e-05, "center": true, "scale": true, "beta_initializer": {"class_name": "Zeros", "config": {}}, "gamma_initializer": {"class_name": "Ones", "config": {}}, "moving_mean_initializer": {"class_name": "Zeros", "config": {}}, "moving_variance_initializer": {"class_name": "Ones", "config": {}}, "beta_regularizer": null, "gamma_regularizer": null, "beta_constraint": null, "gamma_constraint": null}, "inbound_nodes": [[["input_45", 0, 0, {}]]]}, {"name": "BP_0xa87ff6_4_S_0xc4ca42_1_M_8_L_1", "class_name": "Dense", "config": {"name": "BP_0xa87ff6_4_S_0xc4ca42_1_M_8_L_1", "trainable": true, "dtype": "float32", "units": 64, "activation": "linear", "use_bias": true, "kernel_initializer": {"class_name": "VarianceScaling", "config": {"scale": 2.0, "mode": "fan_in", "distribution": "normal", "seed": null}}, "bias_initializer": {"class_name": "Zeros", "config": {}}, "kernel_regularizer": {"class_name": "L1L2", "config": {"l1": 0.0, "l2": 0.0002500000118743628}}, "bias_regularizer": null, "activity_regularizer": null, "kernel_constraint": null, "bias_constraint": null}, "inbound_nodes": [[["BP_0xa87ff6_4_S_0xc4ca42_1_M_8_L_0", 0, 0, {}]]]}, {"name": "BP_0xa87ff6_4_S_0xc4ca42_1_M_8_L_2", "class_name": "Activation", "config": {"name": "BP_0xa87ff6_4_S_0xc4ca42_1_M_8_L_2", "trainable": true, "dtype": "float32", "activation": "relu"}, "inbound_nodes": [[["BP_0xa87ff6_4_S_0xc4ca42_1_M_8_L_1", 0, 0, {}]]]}, {"name": "concatenate_899", "class_name": "Concatenate", "config": {"name": "concatenate_899", "trainable": true, "dtype": "float32", "axis": -1}, "inbound_nodes": [[["BP_0xa87ff6_4_S_0xc4ca42_1_M_8_L_2", 0, 0, {}], ["input_45", 0, 0, {}]]]}, {"name": "BP_0xa87ff6_4_S_0xc4ca42_1_M_1_L_0", "class_name": "BatchNormalization", "config": {"name": "BP_0xa87ff6_4_S_0xc4ca42_1_M_1_L_0", "trainable": true, "dtype": "float32", "axis": -1, "momentum": 0.9, "epsilon": 1e-05, "center": true, "scale": true, "beta_initializer": {"class_name": "Zeros", "config": {}}, "gamma_initializer": {"class_name": "Ones", "config": {}}, "moving_mean_initializer": {"class_name": "Zeros", "config": {}}, "moving_variance_initializer": {"class_name": "Ones", "config": {}}, "beta_regularizer": null, "gamma_regularizer": null, "beta_constraint": null, "gamma_constraint": null}, "inbound_nodes": [[["concatenate_899", 0, 0, {}]]]}, {"name": "BP_0xa87ff6_4_S_0xc4ca42_1_M_1_L_1", "class_name": "Dense", "config": {"name": "BP_0xa87ff6_4_S_0xc4ca42_1_M_1_L_1", "trainable": true, "dtype": "float32", "units": 64, "activation": "linear", "use_bias": true, "kernel_initializer": {"class_name": "VarianceScaling", "config": {"scale": 2.0, "mode": "fan_in", "distribution": "normal", "seed": null}}, "bias_initializer": {"class_name": "Zeros", "config": {}}, "kernel_regularizer": {"class_name": "L1L2", "config": {"l1": 0.0, "l2": 0.0002500000118743628}}, "bias_regularizer": null, "activity_regularizer": null, "kernel_constraint": null, "bias_constraint": null}, "inbound_nodes": [[["BP_0xa87ff6_4_S_0xc4ca42_1_M_1_L_0", 0, 0, {}]]]}, {"name": "BP_0xa87ff6_4_S_0xc4ca42_1_M_1_L_2", "class_name": "Activation", "config": {"name": "BP_0xa87ff6_4_S_0xc4ca42_1_M_1_L_2", "trainable": true, "dtype": "float32", "activation": "relu"}, "inbound_nodes": [[["BP_0xa87ff6_4_S_0xc4ca42_1_M_1_L_1", 0, 0, {}]]]}, {"name": "BP_0xa87ff6_4_S_0xc4ca42_1_M_7_L_0", "class_name": "BatchNormalization", "config": {"name": "BP_0xa87ff6_4_S_0xc4ca42_1_M_7_L_0", "trainable": true, "dtype": "float32", "axis": -1, "momentum": 0.9, "epsilon": 1e-05, "center": true, "scale": true, "beta_initializer": {"class_name": "Zeros", "config": {}}, "gamma_initializer": {"class_name": "Ones", "config": {}}, "moving_mean_initializer": {"class_name": "Zeros", "config": {}}, "moving_variance_initializer": {"class_name": "Ones", "config": {}}, "beta_regularizer": null, "gamma_regularizer": null, "beta_constraint": null, "gamma_constraint": null}, "inbound_nodes": [[["BP_0xa87ff6_4_S_0xc4ca42_1_M_1_L_2", 0, 0, {}]]]}, {"name": "BP_0xa87ff6_4_S_0xc4ca42_1_M_7_L_1", "class_name": "Dense", "config": {"name": "BP_0xa87ff6_4_S_0xc4ca42_1_M_7_L_1", "trainable": true, "dtype": "float32", "units": 64, "activation": "linear", "use_bias": true, "kernel_initializer": {"class_name": "VarianceScaling", "config": {"scale": 2.0, "mode": "fan_in", "distribution": "normal", "seed": null}}, "bias_initializer": {"class_name": "Zeros", "config": {}}, "kernel_regularizer": {"class_name": "L1L2", "config": {"l1": 0.0, "l2": 0.0002500000118743628}}, "bias_regularizer": null, "activity_regularizer": null, "kernel_constraint": null, "bias_constraint": null}, "inbound_nodes": [[["BP_0xa87ff6_4_S_0xc4ca42_1_M_7_L_0", 0, 0, {}]]]}, {"name": "BP_0xa87ff6_4_S_0xc4ca42_1_M_7_L_2", "class_name": "Activation", "config": {"name": "BP_0xa87ff6_4_S_0xc4ca42_1_M_7_L_2", "trainable": true, "dtype": "float32", "activation": "relu"}, "inbound_nodes": [[["BP_0xa87ff6_4_S_0xc4ca42_1_M_7_L_1", 0, 0, {}]]]}, {"name": "concatenate_900", "class_name": "Concatenate", "config": {"name": "concatenate_900", "trainable": true, "dtype": "float32", "axis": -1}, "inbound_nodes": [[["BP_0xa87ff6_4_S_0xc4ca42_1_M_1_L_2", 0, 0, {}], ["BP_0xa87ff6_4_S_0xc4ca42_1_M_7_L_2", 0, 0, {}]]]}, {"name": "BP_0xa87ff6_4_S_0xc4ca42_1_M_2_L_0", "class_name": "Dense", "config": {"name": "BP_0xa87ff6_4_S_0xc4ca42_1_M_2_L_0", "trainable": true, "dtype": "float32", "units": 64, "activation": "linear", "use_bias": true, "kernel_initializer": {"class_name": "VarianceScaling", "config": {"scale": 2.0, "mode": "fan_in", "distribution": "normal", "seed": null}}, "bias_initializer": {"class_name": "Zeros", "config": {}}, "kernel_regularizer": {"class_name": "L1L2", "config": {"l1": 0.0, "l2": 0.0002500000118743628}}, "bias_regularizer": null, "activity_regularizer": null, "kernel_constraint": null, "bias_constraint": null}, "inbound_nodes": [[["concatenate_900", 0, 0, {}]]]}, {"name": "BP_0xa87ff6_4_S_0xc4ca42_1_M_2_L_1", "class_name": "Activation", "config": {"name": "BP_0xa87ff6_4_S_0xc4ca42_1_M_2_L_1", "trainable": true, "dtype": "float32", "activation": "relu"}, "inbound_nodes": [[["BP_0xa87ff6_4_S_0xc4ca42_1_M_2_L_0", 0, 0, {}]]]}, {"name": "BP_0xa87ff6_4_S_0xc4ca42_1_M_2_L_2", "class_name": "Dropout", "config": {"name": "BP_0xa87ff6_4_S_0xc4ca42_1_M_2_L_2", "trainable": true, "dtype": "float32", "rate": 0.25, "noise_shape": null, "seed": null}, "inbound_nodes": [[["BP_0xa87ff6_4_S_0xc4ca42_1_M_2_L_1", 0, 0, {}]]]}, {"name": "concatenate_901", "class_name": "Concatenate", "config": {"name": "concatenate_901", "trainable": true, "dtype": "float32", "axis": -1}, "inbound_nodes": [[["BP_0xa87ff6_4_S_0xc4ca42_1_M_1_L_2", 0, 0, {}], ["BP_0xa87ff6_4_S_0xc4ca42_1_M_2_L_2", 0, 0, {}], ["input_45", 0, 0, {}]]]}, {"name": "concatenate_902", "class_name": "Concatenate", "config": {"name": "concatenate_902", "trainable": true, "dtype": "float32", "axis": -1}, "inbound_nodes": [[["input_45", 0, 0, {}], ["concatenate_901", 0, 0, {}]]]}, {"name": "BP_0xc4ca42_1_S_0xc81e72_2_M_4_L_0", "class_name": "Dense", "config": {"name": "BP_0xc4ca42_1_S_0xc81e72_2_M_4_L_0", "trainable": true, "dtype": "float32", "units": 64, "activation": "linear", "use_bias": true, "kernel_initializer": {"class_name": "VarianceScaling", "config": {"scale": 2.0, "mode": "fan_in", "distribution": "normal", "seed": null}}, "bias_initializer": {"class_name": "Zeros", "config": {}}, "kernel_regularizer": {"class_name": "L1L2", "config": {"l1": 0.0, "l2": 0.0002500000118743628}}, "bias_regularizer": null, "activity_regularizer": null, "kernel_constraint": null, "bias_constraint": null}, "inbound_nodes": [[["concatenate_902", 0, 0, {}]]]}, {"name": "BP_0xc4ca42_1_S_0xc81e72_2_M_4_L_1", "class_name": "Activation", "config": {"name": "BP_0xc4ca42_1_S_0xc81e72_2_M_4_L_1", "trainable": true, "dtype": "float32", "activation": "relu"}, "inbound_nodes": [[["BP_0xc4ca42_1_S_0xc81e72_2_M_4_L_0", 0, 0, {}]]]}, {"name": "BP_0xc4ca42_1_S_0xc81e72_2_M_4_L_2", "class_name": "Dropout", "config": {"name": "BP_0xc4ca42_1_S_0xc81e72_2_M_4_L_2", "trainable": true, "dtype": "float32", "rate": 0.25, "noise_shape": null, "seed": null}, "inbound_nodes": [[["BP_0xc4ca42_1_S_0xc81e72_2_M_4_L_1", 0, 0, {}]]]}, {"name": "BP_0xc4ca42_1_S_0xc81e72_2_M_9_L_0", "class_name": "BatchNormalization", "config": {"name": "BP_0xc4ca42_1_S_0xc81e72_2_M_9_L_0", "trainable": true, "dtype": "float32", "axis": -1, "momentum": 0.9, "epsilon": 1e-05, "center": true, "scale": true, "beta_initializer": {"class_name": "Zeros", "config": {}}, "gamma_initializer": {"class_name": "Ones", "config": {}}, "moving_mean_initializer": {"class_name": "Zeros", "config": {}}, "moving_variance_initializer": {"class_name": "Ones", "config": {}}, "beta_regularizer": null, "gamma_regularizer": null, "beta_constraint": null, "gamma_constraint": null}, "inbound_nodes": [[["BP_0xc4ca42_1_S_0xc81e72_2_M_4_L_2", 0, 0, {}]]]}, {"name": "BP_0xc4ca42_1_S_0xc81e72_2_M_9_L_1", "class_name": "Dense", "config": {"name": "BP_0xc4ca42_1_S_0xc81e72_2_M_9_L_1", "trainable": true, "dtype": "float32", "units": 64, "activation": "linear", "use_bias": true, "kernel_initializer": {"class_name": "VarianceScaling", "config": {"scale": 2.0, "mode": "fan_in", "distribution": "normal", "seed": null}}, "bias_initializer": {"class_name": "Zeros", "config": {}}, "kernel_regularizer": {"class_name": "L1L2", "config": {"l1": 0.0, "l2": 0.0002500000118743628}}, "bias_regularizer": null, "activity_regularizer": null, "kernel_constraint": null, "bias_constraint": null}, "inbound_nodes": [[["BP_0xc4ca42_1_S_0xc81e72_2_M_9_L_0", 0, 0, {}]]]}, {"name": "BP_0xc4ca42_1_S_0xc81e72_2_M_9_L_2", "class_name": "Activation", "config": {"name": "BP_0xc4ca42_1_S_0xc81e72_2_M_9_L_2", "trainable": true, "dtype": "float32", "activation": "relu"}, "inbound_nodes": [[["BP_0xc4ca42_1_S_0xc81e72_2_M_9_L_1", 0, 0, {}]]]}, {"name": "BP_0xc4ca42_1_S_0xc81e72_2_M_14_L_0", "class_name": "Dense", "config": {"name": "BP_0xc4ca42_1_S_0xc81e72_2_M_14_L_0", "trainable": true, "dtype": "float32", "units": 64, "activation": "linear", "use_bias": true, "kernel_initializer": {"class_name": "VarianceScaling", "config": {"scale": 2.0, "mode": "fan_in", "distribution": "normal", "seed": null}}, "bias_initializer": {"class_name": "Zeros", "config": {}}, "kernel_regularizer": {"class_name": "L1L2", "config": {"l1": 0.0, "l2": 0.0002500000118743628}}, "bias_regularizer": null, "activity_regularizer": null, "kernel_constraint": null, "bias_constraint": null}, "inbound_nodes": [[["BP_0xc4ca42_1_S_0xc81e72_2_M_9_L_2", 0, 0, {}]]]}, {"name": "BP_0xc4ca42_1_S_0xc81e72_2_M_14_L_1", "class_name": "Activation", "config": {"name": "BP_0xc4ca42_1_S_0xc81e72_2_M_14_L_1", "trainable": true, "dtype": "float32", "activation": "relu"}, "inbound_nodes": [[["BP_0xc4ca42_1_S_0xc81e72_2_M_14_L_0", 0, 0, {}]]]}, {"name": "BP_0xc4ca42_1_S_0xc81e72_2_M_14_L_2", "class_name": "Dropout", "config": {"name": "BP_0xc4ca42_1_S_0xc81e72_2_M_14_L_2", "trainable": true, "dtype": "float32", "rate": 0.25, "noise_shape": null, "seed": null}, "inbound_nodes": [[["BP_0xc4ca42_1_S_0xc81e72_2_M_14_L_1", 0, 0, {}]]]}, {"name": "concatenate_903", "class_name": "Concatenate", "config": {"name": "concatenate_903", "trainable": true, "dtype": "float32", "axis": -1}, "inbound_nodes": [[["BP_0xc4ca42_1_S_0xc81e72_2_M_9_L_2", 0, 0, {}], ["BP_0xc4ca42_1_S_0xc81e72_2_M_14_L_2", 0, 0, {}]]]}, {"name": "BP_0xc4ca42_1_S_0xc81e72_2_M_6_L_0", "class_name": "BatchNormalization", "config": {"name": "BP_0xc4ca42_1_S_0xc81e72_2_M_6_L_0", "trainable": true, "dtype": "float32", "axis": -1, "momentum": 0.9, "epsilon": 1e-05, "center": true, "scale": true, "beta_initializer": {"class_name": "Zeros", "config": {}}, "gamma_initializer": {"class_name": "Ones", "config": {}}, "moving_mean_initializer": {"class_name": "Zeros", "config": {}}, "moving_variance_initializer": {"class_name": "Ones", "config": {}}, "beta_regularizer": null, "gamma_regularizer": null, "beta_constraint": null, "gamma_constraint": null}, "inbound_nodes": [[["concatenate_903", 0, 0, {}]]]}, {"name": "BP_0xc4ca42_1_S_0xc81e72_2_M_10_L_0", "class_name": "BatchNormalization", "config": {"name": "BP_0xc4ca42_1_S_0xc81e72_2_M_10_L_0", "trainable": true, "dtype": "float32", "axis": -1, "momentum": 0.9, "epsilon": 1e-05, "center": true, "scale": true, "beta_initializer": {"class_name": "Zeros", "config": {}}, "gamma_initializer": {"class_name": "Ones", "config": {}}, "moving_mean_initializer": {"class_name": "Zeros", "config": {}}, "moving_variance_initializer": {"class_name": "Ones", "config": {}}, "beta_regularizer": null, "gamma_regularizer": null, "beta_constraint": null, "gamma_constraint": null}, "inbound_nodes": [[["concatenate_902", 0, 0, {}]]]}, {"name": "BP_0xc4ca42_1_S_0xc81e72_2_M_6_L_1", "class_name": "Dense", "config": {"name": "BP_0xc4ca42_1_S_0xc81e72_2_M_6_L_1", "trainable": true, "dtype": "float32", "units": 64, "activation": "linear", "use_bias": true, "kernel_initializer": {"class_name": "VarianceScaling", "config": {"scale": 2.0, "mode": "fan_in", "distribution": "normal", "seed": null}}, "bias_initializer": {"class_name": "Zeros", "config": {}}, "kernel_regularizer": {"class_name": "L1L2", "config": {"l1": 0.0, "l2": 0.0002500000118743628}}, "bias_regularizer": null, "activity_regularizer": null, "kernel_constraint": null, "bias_constraint": null}, "inbound_nodes": [[["BP_0xc4ca42_1_S_0xc81e72_2_M_6_L_0", 0, 0, {}]]]}, {"name": "BP_0xc4ca42_1_S_0xc81e72_2_M_10_L_1", "class_name": "Dense", "config": {"name": "BP_0xc4ca42_1_S_0xc81e72_2_M_10_L_1", "trainable": true, "dtype": "float32", "units": 64, "activation": "linear", "use_bias": true, "kernel_initializer": {"class_name": "VarianceScaling", "config": {"scale": 2.0, "mode": "fan_in", "distribution": "normal", "seed": null}}, "bias_initializer": {"class_name": "Zeros", "config": {}}, "kernel_regularizer": {"class_name": "L1L2", "config": {"l1": 0.0, "l2": 0.0002500000118743628}}, "bias_regularizer": null, "activity_regularizer": null, "kernel_constraint": null, "bias_constraint": null}, "inbound_nodes": [[["BP_0xc4ca42_1_S_0xc81e72_2_M_10_L_0", 0, 0, {}]]]}, {"name": "BP_0xc4ca42_1_S_0xc81e72_2_M_6_L_2", "class_name": "Activation", "config": {"name": "BP_0xc4ca42_1_S_0xc81e72_2_M_6_L_2", "trainable": true, "dtype": "float32", "activation": "relu"}, "inbound_nodes": [[["BP_0xc4ca42_1_S_0xc81e72_2_M_6_L_1", 0, 0, {}]]]}, {"name": "BP_0xc4ca42_1_S_0xc81e72_2_M_10_L_2", "class_name": "Activation", "config": {"name": "BP_0xc4ca42_1_S_0xc81e72_2_M_10_L_2", "trainable": true, "dtype": "float32", "activation": "relu"}, "inbound_nodes": [[["BP_0xc4ca42_1_S_0xc81e72_2_M_10_L_1", 0, 0, {}]]]}, {"name": "concatenate_904", "class_name": "Concatenate", "config": {"name": "concatenate_904", "trainable": true, "dtype": "float32", "axis": -1}, "inbound_nodes": [[["BP_0xc4ca42_1_S_0xc81e72_2_M_6_L_2", 0, 0, {}], ["BP_0xc4ca42_1_S_0xc81e72_2_M_10_L_2", 0, 0, {}], ["concatenate_902", 0, 0, {}]]]}, {"name": "BP_0xc9f0f8_8_S_0xc81e72_2_M_4_L_0", "class_name": "Dense", "config": {"name": "BP_0xc9f0f8_8_S_0xc81e72_2_M_4_L_0", "trainable": true, "dtype": "float32", "units": 64, "activation": "linear", "use_bias": true, "kernel_initializer": {"class_name": "VarianceScaling", "config": {"scale": 2.0, "mode": "fan_in", "distribution": "normal", "seed": null}}, "bias_initializer": {"class_name": "Zeros", "config": {}}, "kernel_regularizer": {"class_name": "L1L2", "config": {"l1": 0.0, "l2": 0.0002500000118743628}}, "bias_regularizer": null, "activity_regularizer": null, "kernel_constraint": null, "bias_constraint": null}, "inbound_nodes": [[["concatenate_904", 0, 0, {}]]]}, {"name": "BP_0xc9f0f8_8_S_0xc81e72_2_M_4_L_1", "class_name": "Activation", "config": {"name": "BP_0xc9f0f8_8_S_0xc81e72_2_M_4_L_1", "trainable": true, "dtype": "float32", "activation": "relu"}, "inbound_nodes": [[["BP_0xc9f0f8_8_S_0xc81e72_2_M_4_L_0", 0, 0, {}]]]}, {"name": "BP_0xc9f0f8_8_S_0xc81e72_2_M_4_L_2", "class_name": "Dropout", "config": {"name": "BP_0xc9f0f8_8_S_0xc81e72_2_M_4_L_2", "trainable": true, "dtype": "float32", "rate": 0.25, "noise_shape": null, "seed": null}, "inbound_nodes": [[["BP_0xc9f0f8_8_S_0xc81e72_2_M_4_L_1", 0, 0, {}]]]}, {"name": "BP_0xc9f0f8_8_S_0xc81e72_2_M_9_L_0", "class_name": "BatchNormalization", "config": {"name": "BP_0xc9f0f8_8_S_0xc81e72_2_M_9_L_0", "trainable": true, "dtype": "float32", "axis": -1, "momentum": 0.9, "epsilon": 1e-05, "center": true, "scale": true, "beta_initializer": {"class_name": "Zeros", "config": {}}, "gamma_initializer": {"class_name": "Ones", "config": {}}, "moving_mean_initializer": {"class_name": "Zeros", "config": {}}, "moving_variance_initializer": {"class_name": "Ones", "config": {}}, "beta_regularizer": null, "gamma_regularizer": null, "beta_constraint": null, "gamma_constraint": null}, "inbound_nodes": [[["BP_0xc9f0f8_8_S_0xc81e72_2_M_4_L_2", 0, 0, {}]]]}, {"name": "BP_0xc9f0f8_8_S_0xc81e72_2_M_9_L_1", "class_name": "Dense", "config": {"name": "BP_0xc9f0f8_8_S_0xc81e72_2_M_9_L_1", "trainable": true, "dtype": "float32", "units": 64, "activation": "linear", "use_bias": true, "kernel_initializer": {"class_name": "VarianceScaling", "config": {"scale": 2.0, "mode": "fan_in", "distribution": "normal", "seed": null}}, "bias_initializer": {"class_name": "Zeros", "config": {}}, "kernel_regularizer": {"class_name": "L1L2", "config": {"l1": 0.0, "l2": 0.0002500000118743628}}, "bias_regularizer": null, "activity_regularizer": null, "kernel_constraint": null, "bias_constraint": null}, "inbound_nodes": [[["BP_0xc9f0f8_8_S_0xc81e72_2_M_9_L_0", 0, 0, {}]]]}, {"name": "BP_0xc9f0f8_8_S_0xc81e72_2_M_9_L_2", "class_name": "Activation", "config": {"name": "BP_0xc9f0f8_8_S_0xc81e72_2_M_9_L_2", "trainable": true, "dtype": "float32", "activation": "relu"}, "inbound_nodes": [[["BP_0xc9f0f8_8_S_0xc81e72_2_M_9_L_1", 0, 0, {}]]]}, {"name": "BP_0xc9f0f8_8_S_0xc81e72_2_M_14_L_0", "class_name": "Dense", "config": {"name": "BP_0xc9f0f8_8_S_0xc81e72_2_M_14_L_0", "trainable": true, "dtype": "float32", "units": 64, "activation": "linear", "use_bias": true, "kernel_initializer": {"class_name": "VarianceScaling", "config": {"scale": 2.0, "mode": "fan_in", "distribution": "normal", "seed": null}}, "bias_initializer": {"class_name": "Zeros", "config": {}}, "kernel_regularizer": {"class_name": "L1L2", "config": {"l1": 0.0, "l2": 0.0002500000118743628}}, "bias_regularizer": null, "activity_regularizer": null, "kernel_constraint": null, "bias_constraint": null}, "inbound_nodes": [[["BP_0xc9f0f8_8_S_0xc81e72_2_M_9_L_2", 0, 0, {}]]]}, {"name": "BP_0xc9f0f8_8_S_0xc81e72_2_M_14_L_1", "class_name": "Activation", "config": {"name": "BP_0xc9f0f8_8_S_0xc81e72_2_M_14_L_1", "trainable": true, "dtype": "float32", "activation": "relu"}, "inbound_nodes": [[["BP_0xc9f0f8_8_S_0xc81e72_2_M_14_L_0", 0, 0, {}]]]}, {"name": "BP_0xc9f0f8_8_S_0xc81e72_2_M_14_L_2", "class_name": "Dropout", "config": {"name": "BP_0xc9f0f8_8_S_0xc81e72_2_M_14_L_2", "trainable": true, "dtype": "float32", "rate": 0.25, "noise_shape": null, "seed": null}, "inbound_nodes": [[["BP_0xc9f0f8_8_S_0xc81e72_2_M_14_L_1", 0, 0, {}]]]}, {"name": "concatenate_909", "class_name": "Concatenate", "config": {"name": "concatenate_909", "trainable": true, "dtype": "float32", "axis": -1}, "inbound_nodes": [[["BP_0xc9f0f8_8_S_0xc81e72_2_M_9_L_2", 0, 0, {}], ["BP_0xc9f0f8_8_S_0xc81e72_2_M_14_L_2", 0, 0, {}]]]}, {"name": "BP_0xc9f0f8_8_S_0xc81e72_2_M_6_L_0", "class_name": "BatchNormalization", "config": {"name": "BP_0xc9f0f8_8_S_0xc81e72_2_M_6_L_0", "trainable": true, "dtype": "float32", "axis": -1, "momentum": 0.9, "epsilon": 1e-05, "center": true, "scale": true, "beta_initializer": {"class_name": "Zeros", "config": {}}, "gamma_initializer": {"class_name": "Ones", "config": {}}, "moving_mean_initializer": {"class_name": "Zeros", "config": {}}, "moving_variance_initializer": {"class_name": "Ones", "config": {}}, "beta_regularizer": null, "gamma_regularizer": null, "beta_constraint": null, "gamma_constraint": null}, "inbound_nodes": [[["concatenate_909", 0, 0, {}]]]}, {"name": "BP_0xc9f0f8_8_S_0xc81e72_2_M_10_L_0", "class_name": "BatchNormalization", "config": {"name": "BP_0xc9f0f8_8_S_0xc81e72_2_M_10_L_0", "trainable": true, "dtype": "float32", "axis": -1, "momentum": 0.9, "epsilon": 1e-05, "center": true, "scale": true, "beta_initializer": {"class_name": "Zeros", "config": {}}, "gamma_initializer": {"class_name": "Ones", "config": {}}, "moving_mean_initializer": {"class_name": "Zeros", "config": {}}, "moving_variance_initializer": {"class_name": "Ones", "config": {}}, "beta_regularizer": null, "gamma_regularizer": null, "beta_constraint": null, "gamma_constraint": null}, "inbound_nodes": [[["concatenate_904", 0, 0, {}]]]}, {"name": "BP_0xc9f0f8_8_S_0xc81e72_2_M_6_L_1", "class_name": "Dense", "config": {"name": "BP_0xc9f0f8_8_S_0xc81e72_2_M_6_L_1", "trainable": true, "dtype": "float32", "units": 64, "activation": "linear", "use_bias": true, "kernel_initializer": {"class_name": "VarianceScaling", "config": {"scale": 2.0, "mode": "fan_in", "distribution": "normal", "seed": null}}, "bias_initializer": {"class_name": "Zeros", "config": {}}, "kernel_regularizer": {"class_name": "L1L2", "config": {"l1": 0.0, "l2": 0.0002500000118743628}}, "bias_regularizer": null, "activity_regularizer": null, "kernel_constraint": null, "bias_constraint": null}, "inbound_nodes": [[["BP_0xc9f0f8_8_S_0xc81e72_2_M_6_L_0", 0, 0, {}]]]}, {"name": "BP_0xc9f0f8_8_S_0xc81e72_2_M_10_L_1", "class_name": "Dense", "config": {"name": "BP_0xc9f0f8_8_S_0xc81e72_2_M_10_L_1", "trainable": true, "dtype": "float32", "units": 64, "activation": "linear", "use_bias": true, "kernel_initializer": {"class_name": "VarianceScaling", "config": {"scale": 2.0, "mode": "fan_in", "distribution": "normal", "seed": null}}, "bias_initializer": {"class_name": "Zeros", "config": {}}, "kernel_regularizer": {"class_name": "L1L2", "config": {"l1": 0.0, "l2": 0.0002500000118743628}}, "bias_regularizer": null, "activity_regularizer": null, "kernel_constraint": null, "bias_constraint": null}, "inbound_nodes": [[["BP_0xc9f0f8_8_S_0xc81e72_2_M_10_L_0", 0, 0, {}]]]}, {"name": "BP_0xc9f0f8_8_S_0xc81e72_2_M_6_L_2", "class_name": "Activation", "config": {"name": "BP_0xc9f0f8_8_S_0xc81e72_2_M_6_L_2", "trainable": true, "dtype": "float32", "activation": "relu"}, "inbound_nodes": [[["BP_0xc9f0f8_8_S_0xc81e72_2_M_6_L_1", 0, 0, {}]]]}, {"name": "BP_0xc9f0f8_8_S_0xc81e72_2_M_10_L_2", "class_name": "Activation", "config": {"name": "BP_0xc9f0f8_8_S_0xc81e72_2_M_10_L_2", "trainable": true, "dtype": "float32", "activation": "relu"}, "inbound_nodes": [[["BP_0xc9f0f8_8_S_0xc81e72_2_M_10_L_1", 0, 0, {}]]]}, {"name": "concatenate_910", "class_name": "Concatenate", "config": {"name": "concatenate_910", "trainable": true, "dtype": "float32", "axis": -1}, "inbound_nodes": [[["BP_0xc9f0f8_8_S_0xc81e72_2_M_6_L_2", 0, 0, {}], ["BP_0xc9f0f8_8_S_0xc81e72_2_M_10_L_2", 0, 0, {}], ["concatenate_904", 0, 0, {}]]]}, {"name": "BP_0xc20ad4_12_S_0xc4ca42_1_M_8_L_0", "class_name": "BatchNormalization", "config": {"name": "BP_0xc20ad4_12_S_0xc4ca42_1_M_8_L_0", "trainable": true, "dtype": "float32", "axis": -1, "momentum": 0.9, "epsilon": 1e-05, "center": true, "scale": true, "beta_initializer": {"class_name": "Zeros", "config": {}}, "gamma_initializer": {"class_name": "Ones", "config": {}}, "moving_mean_initializer": {"class_name": "Zeros", "config": {}}, "moving_variance_initializer": {"class_name": "Ones", "config": {}}, "beta_regularizer": null, "gamma_regularizer": null, "beta_constraint": null, "gamma_constraint": null}, "inbound_nodes": [[["concatenate_910", 0, 0, {}]]]}, {"name": "BP_0xc20ad4_12_S_0xc4ca42_1_M_8_L_1", "class_name": "Dense", "config": {"name": "BP_0xc20ad4_12_S_0xc4ca42_1_M_8_L_1", "trainable": true, "dtype": "float32", "units": 64, "activation": "linear", "use_bias": true, "kernel_initializer": {"class_name": "VarianceScaling", "config": {"scale": 2.0, "mode": "fan_in", "distribution": "normal", "seed": null}}, "bias_initializer": {"class_name": "Zeros", "config": {}}, "kernel_regularizer": {"class_name": "L1L2", "config": {"l1": 0.0, "l2": 0.0002500000118743628}}, "bias_regularizer": null, "activity_regularizer": null, "kernel_constraint": null, "bias_constraint": null}, "inbound_nodes": [[["BP_0xc20ad4_12_S_0xc4ca42_1_M_8_L_0", 0, 0, {}]]]}, {"name": "BP_0xc20ad4_12_S_0xc4ca42_1_M_8_L_2", "class_name": "Activation", "config": {"name": "BP_0xc20ad4_12_S_0xc4ca42_1_M_8_L_2", "trainable": true, "dtype": "float32", "activation": "relu"}, "inbound_nodes": [[["BP_0xc20ad4_12_S_0xc4ca42_1_M_8_L_1", 0, 0, {}]]]}, {"name": "BP_0x45c48c_9_S_0xc81e72_2_M_4_L_0", "class_name": "Dense", "config": {"name": "BP_0x45c48c_9_S_0xc81e72_2_M_4_L_0", "trainable": true, "dtype": "float32", "units": 64, "activation": "linear", "use_bias": true, "kernel_initializer": {"class_name": "VarianceScaling", "config": {"scale": 2.0, "mode": "fan_in", "distribution": "normal", "seed": null}}, "bias_initializer": {"class_name": "Zeros", "config": {}}, "kernel_regularizer": {"class_name": "L1L2", "config": {"l1": 0.0, "l2": 0.0002500000118743628}}, "bias_regularizer": null, "activity_regularizer": null, "kernel_constraint": null, "bias_constraint": null}, "inbound_nodes": [[["concatenate_904", 0, 0, {}]]]}, {"name": "concatenate_911", "class_name": "Concatenate", "config": {"name": "concatenate_911", "trainable": true, "dtype": "float32", "axis": -1}, "inbound_nodes": [[["BP_0xc20ad4_12_S_0xc4ca42_1_M_8_L_2", 0, 0, {}], ["concatenate_910", 0, 0, {}]]]}, {"name": "BP_0x45c48c_9_S_0xc81e72_2_M_4_L_1", "class_name": "Activation", "config": {"name": "BP_0x45c48c_9_S_0xc81e72_2_M_4_L_1", "trainable": true, "dtype": "float32", "activation": "relu"}, "inbound_nodes": [[["BP_0x45c48c_9_S_0xc81e72_2_M_4_L_0", 0, 0, {}]]]}, {"name": "BP_0xc20ad4_12_S_0xc4ca42_1_M_1_L_0", "class_name": "BatchNormalization", "config": {"name": "BP_0xc20ad4_12_S_0xc4ca42_1_M_1_L_0", "trainable": true, "dtype": "float32", "axis": -1, "momentum": 0.9, "epsilon": 1e-05, "center": true, "scale": true, "beta_initializer": {"class_name": "Zeros", "config": {}}, "gamma_initializer": {"class_name": "Ones", "config": {}}, "moving_mean_initializer": {"class_name": "Zeros", "config": {}}, "moving_variance_initializer": {"class_name": "Ones", "config": {}}, "beta_regularizer": null, "gamma_regularizer": null, "beta_constraint": null, "gamma_constraint": null}, "inbound_nodes": [[["concatenate_911", 0, 0, {}]]]}, {"name": "BP_0x45c48c_9_S_0xc81e72_2_M_4_L_2", "class_name": "Dropout", "config": {"name": "BP_0x45c48c_9_S_0xc81e72_2_M_4_L_2", "trainable": true, "dtype": "float32", "rate": 0.25, "noise_shape": null, "seed": null}, "inbound_nodes": [[["BP_0x45c48c_9_S_0xc81e72_2_M_4_L_1", 0, 0, {}]]]}, {"name": "BP_0xc20ad4_12_S_0xc4ca42_1_M_1_L_1", "class_name": "Dense", "config": {"name": "BP_0xc20ad4_12_S_0xc4ca42_1_M_1_L_1", "trainable": true, "dtype": "float32", "units": 64, "activation": "linear", "use_bias": true, "kernel_initializer": {"class_name": "VarianceScaling", "config": {"scale": 2.0, "mode": "fan_in", "distribution": "normal", "seed": null}}, "bias_initializer": {"class_name": "Zeros", "config": {}}, "kernel_regularizer": {"class_name": "L1L2", "config": {"l1": 0.0, "l2": 0.0002500000118743628}}, "bias_regularizer": null, "activity_regularizer": null, "kernel_constraint": null, "bias_constraint": null}, "inbound_nodes": [[["BP_0xc20ad4_12_S_0xc4ca42_1_M_1_L_0", 0, 0, {}]]]}, {"name": "BP_0x45c48c_9_S_0xc81e72_2_M_9_L_0", "class_name": "BatchNormalization", "config": {"name": "BP_0x45c48c_9_S_0xc81e72_2_M_9_L_0", "trainable": true, "dtype": "float32", "axis": -1, "momentum": 0.9, "epsilon": 1e-05, "center": true, "scale": true, "beta_initializer": {"class_name": "Zeros", "config": {}}, "gamma_initializer": {"class_name": "Ones", "config": {}}, "moving_mean_initializer": {"class_name": "Zeros", "config": {}}, "moving_variance_initializer": {"class_name": "Ones", "config": {}}, "beta_regularizer": null, "gamma_regularizer": null, "beta_constraint": null, "gamma_constraint": null}, "inbound_nodes": [[["BP_0x45c48c_9_S_0xc81e72_2_M_4_L_2", 0, 0, {}]]]}, {"name": "BP_0xc20ad4_12_S_0xc4ca42_1_M_1_L_2", "class_name": "Activation", "config": {"name": "BP_0xc20ad4_12_S_0xc4ca42_1_M_1_L_2", "trainable": true, "dtype": "float32", "activation": "relu"}, "inbound_nodes": [[["BP_0xc20ad4_12_S_0xc4ca42_1_M_1_L_1", 0, 0, {}]]]}, {"name": "BP_0x45c48c_9_S_0xc81e72_2_M_9_L_1", "class_name": "Dense", "config": {"name": "BP_0x45c48c_9_S_0xc81e72_2_M_9_L_1", "trainable": true, "dtype": "float32", "units": 64, "activation": "linear", "use_bias": true, "kernel_initializer": {"class_name": "VarianceScaling", "config": {"scale": 2.0, "mode": "fan_in", "distribution": "normal", "seed": null}}, "bias_initializer": {"class_name": "Zeros", "config": {}}, "kernel_regularizer": {"class_name": "L1L2", "config": {"l1": 0.0, "l2": 0.0002500000118743628}}, "bias_regularizer": null, "activity_regularizer": null, "kernel_constraint": null, "bias_constraint": null}, "inbound_nodes": [[["BP_0x45c48c_9_S_0xc81e72_2_M_9_L_0", 0, 0, {}]]]}, {"name": "BP_0xc20ad4_12_S_0xc4ca42_1_M_7_L_0", "class_name": "BatchNormalization", "config": {"name": "BP_0xc20ad4_12_S_0xc4ca42_1_M_7_L_0", "trainable": true, "dtype": "float32", "axis": -1, "momentum": 0.9, "epsilon": 1e-05, "center": true, "scale": true, "beta_initializer": {"class_name": "Zeros", "config": {}}, "gamma_initializer": {"class_name": "Ones", "config": {}}, "moving_mean_initializer": {"class_name": "Zeros", "config": {}}, "moving_variance_initializer": {"class_name": "Ones", "config": {}}, "beta_regularizer": null, "gamma_regularizer": null, "beta_constraint": null, "gamma_constraint": null}, "inbound_nodes": [[["BP_0xc20ad4_12_S_0xc4ca42_1_M_1_L_2", 0, 0, {}]]]}, {"name": "BP_0x45c48c_9_S_0xc81e72_2_M_9_L_2", "class_name": "Activation", "config": {"name": "BP_0x45c48c_9_S_0xc81e72_2_M_9_L_2", "trainable": true, "dtype": "float32", "activation": "relu"}, "inbound_nodes": [[["BP_0x45c48c_9_S_0xc81e72_2_M_9_L_1", 0, 0, {}]]]}, {"name": "BP_0xc20ad4_12_S_0xc4ca42_1_M_7_L_1", "class_name": "Dense", "config": {"name": "BP_0xc20ad4_12_S_0xc4ca42_1_M_7_L_1", "trainable": true, "dtype": "float32", "units": 64, "activation": "linear", "use_bias": true, "kernel_initializer": {"class_name": "VarianceScaling", "config": {"scale": 2.0, "mode": "fan_in", "distribution": "normal", "seed": null}}, "bias_initializer": {"class_name": "Zeros", "config": {}}, "kernel_regularizer": {"class_name": "L1L2", "config": {"l1": 0.0, "l2": 0.0002500000118743628}}, "bias_regularizer": null, "activity_regularizer": null, "kernel_constraint": null, "bias_constraint": null}, "inbound_nodes": [[["BP_0xc20ad4_12_S_0xc4ca42_1_M_7_L_0", 0, 0, {}]]]}, {"name": "BP_0x45c48c_9_S_0xc81e72_2_M_14_L_0", "class_name": "Dense", "config": {"name": "BP_0x45c48c_9_S_0xc81e72_2_M_14_L_0", "trainable": true, "dtype": "float32", "units": 64, "activation": "linear", "use_bias": true, "kernel_initializer": {"class_name": "VarianceScaling", "config": {"scale": 2.0, "mode": "fan_in", "distribution": "normal", "seed": null}}, "bias_initializer": {"class_name": "Zeros", "config": {}}, "kernel_regularizer": {"class_name": "L1L2", "config": {"l1": 0.0, "l2": 0.0002500000118743628}}, "bias_regularizer": null, "activity_regularizer": null, "kernel_constraint": null, "bias_constraint": null}, "inbound_nodes": [[["BP_0x45c48c_9_S_0xc81e72_2_M_9_L_2", 0, 0, {}]]]}, {"name": "BP_0xc20ad4_12_S_0xc4ca42_1_M_7_L_2", "class_name": "Activation", "config": {"name": "BP_0xc20ad4_12_S_0xc4ca42_1_M_7_L_2", "trainable": true, "dtype": "float32", "activation": "relu"}, "inbound_nodes": [[["BP_0xc20ad4_12_S_0xc4ca42_1_M_7_L_1", 0, 0, {}]]]}, {"name": "BP_0x45c48c_9_S_0xc81e72_2_M_14_L_1", "class_name": "Activation", "config": {"name": "BP_0x45c48c_9_S_0xc81e72_2_M_14_L_1", "trainable": true, "dtype": "float32", "activation": "relu"}, "inbound_nodes": [[["BP_0x45c48c_9_S_0xc81e72_2_M_14_L_0", 0, 0, {}]]]}, {"name": "concatenate_912", "class_name": "Concatenate", "config": {"name": "concatenate_912", "trainable": true, "dtype": "float32", "axis": -1}, "inbound_nodes": [[["BP_0xc20ad4_12_S_0xc4ca42_1_M_1_L_2", 0, 0, {}], ["BP_0xc20ad4_12_S_0xc4ca42_1_M_7_L_2", 0, 0, {}]]]}, {"name": "BP_0x45c48c_9_S_0xc81e72_2_M_14_L_2", "class_name": "Dropout", "config": {"name": "BP_0x45c48c_9_S_0xc81e72_2_M_14_L_2", "trainable": true, "dtype": "float32", "rate": 0.25, "noise_shape": null, "seed": null}, "inbound_nodes": [[["BP_0x45c48c_9_S_0xc81e72_2_M_14_L_1", 0, 0, {}]]]}, {"name": "BP_0xc20ad4_12_S_0xc4ca42_1_M_2_L_0", "class_name": "Dense", "config": {"name": "BP_0xc20ad4_12_S_0xc4ca42_1_M_2_L_0", "trainable": true, "dtype": "float32", "units": 64, "activation": "linear", "use_bias": true, "kernel_initializer": {"class_name": "VarianceScaling", "config": {"scale": 2.0, "mode": "fan_in", "distribution": "normal", "seed": null}}, "bias_initializer": {"class_name": "Zeros", "config": {}}, "kernel_regularizer": {"class_name": "L1L2", "config": {"l1": 0.0, "l2": 0.0002500000118743628}}, "bias_regularizer": null, "activity_regularizer": null, "kernel_constraint": null, "bias_constraint": null}, "inbound_nodes": [[["concatenate_912", 0, 0, {}]]]}, {"name": "concatenate_905", "class_name": "Concatenate", "config": {"name": "concatenate_905", "trainable": true, "dtype": "float32", "axis": -1}, "inbound_nodes": [[["BP_0x45c48c_9_S_0xc81e72_2_M_9_L_2", 0, 0, {}], ["BP_0x45c48c_9_S_0xc81e72_2_M_14_L_2", 0, 0, {}]]]}, {"name": "BP_0xc20ad4_12_S_0xc4ca42_1_M_2_L_1", "class_name": "Activation", "config": {"name": "BP_0xc20ad4_12_S_0xc4ca42_1_M_2_L_1", "trainable": true, "dtype": "float32", "activation": "relu"}, "inbound_nodes": [[["BP_0xc20ad4_12_S_0xc4ca42_1_M_2_L_0", 0, 0, {}]]]}, {"name": "BP_0x45c48c_9_S_0xc81e72_2_M_6_L_0", "class_name": "BatchNormalization", "config": {"name": "BP_0x45c48c_9_S_0xc81e72_2_M_6_L_0", "trainable": true, "dtype": "float32", "axis": -1, "momentum": 0.9, "epsilon": 1e-05, "center": true, "scale": true, "beta_initializer": {"class_name": "Zeros", "config": {}}, "gamma_initializer": {"class_name": "Ones", "config": {}}, "moving_mean_initializer": {"class_name": "Zeros", "config": {}}, "moving_variance_initializer": {"class_name": "Ones", "config": {}}, "beta_regularizer": null, "gamma_regularizer": null, "beta_constraint": null, "gamma_constraint": null}, "inbound_nodes": [[["concatenate_905", 0, 0, {}]]]}, {"name": "BP_0x45c48c_9_S_0xc81e72_2_M_10_L_0", "class_name": "BatchNormalization", "config": {"name": "BP_0x45c48c_9_S_0xc81e72_2_M_10_L_0", "trainable": true, "dtype": "float32", "axis": -1, "momentum": 0.9, "epsilon": 1e-05, "center": true, "scale": true, "beta_initializer": {"class_name": "Zeros", "config": {}}, "gamma_initializer": {"class_name": "Ones", "config": {}}, "moving_mean_initializer": {"class_name": "Zeros", "config": {}}, "moving_variance_initializer": {"class_name": "Ones", "config": {}}, "beta_regularizer": null, "gamma_regularizer": null, "beta_constraint": null, "gamma_constraint": null}, "inbound_nodes": [[["concatenate_904", 0, 0, {}]]]}, {"name": "BP_0xc20ad4_12_S_0xc4ca42_1_M_2_L_2", "class_name": "Dropout", "config": {"name": "BP_0xc20ad4_12_S_0xc4ca42_1_M_2_L_2", "trainable": true, "dtype": "float32", "rate": 0.25, "noise_shape": null, "seed": null}, "inbound_nodes": [[["BP_0xc20ad4_12_S_0xc4ca42_1_M_2_L_1", 0, 0, {}]]]}, {"name": "BP_0x45c48c_9_S_0xc81e72_2_M_6_L_1", "class_name": "Dense", "config": {"name": "BP_0x45c48c_9_S_0xc81e72_2_M_6_L_1", "trainable": true, "dtype": "float32", "units": 64, "activation": "linear", "use_bias": true, "kernel_initializer": {"class_name": "VarianceScaling", "config": {"scale": 2.0, "mode": "fan_in", "distribution": "normal", "seed": null}}, "bias_initializer": {"class_name": "Zeros", "config": {}}, "kernel_regularizer": {"class_name": "L1L2", "config": {"l1": 0.0, "l2": 0.0002500000118743628}}, "bias_regularizer": null, "activity_regularizer": null, "kernel_constraint": null, "bias_constraint": null}, "inbound_nodes": [[["BP_0x45c48c_9_S_0xc81e72_2_M_6_L_0", 0, 0, {}]]]}, {"name": "BP_0x45c48c_9_S_0xc81e72_2_M_10_L_1", "class_name": "Dense", "config": {"name": "BP_0x45c48c_9_S_0xc81e72_2_M_10_L_1", "trainable": true, "dtype": "float32", "units": 64, "activation": "linear", "use_bias": true, "kernel_initializer": {"class_name": "VarianceScaling", "config": {"scale": 2.0, "mode": "fan_in", "distribution": "normal", "seed": null}}, "bias_initializer": {"class_name": "Zeros", "config": {}}, "kernel_regularizer": {"class_name": "L1L2", "config": {"l1": 0.0, "l2": 0.0002500000118743628}}, "bias_regularizer": null, "activity_regularizer": null, "kernel_constraint": null, "bias_constraint": null}, "inbound_nodes": [[["BP_0x45c48c_9_S_0xc81e72_2_M_10_L_0", 0, 0, {}]]]}, {"name": "concatenate_913", "class_name": "Concatenate", "config": {"name": "concatenate_913", "trainable": true, "dtype": "float32", "axis": -1}, "inbound_nodes": [[["BP_0xc20ad4_12_S_0xc4ca42_1_M_1_L_2", 0, 0, {}], ["BP_0xc20ad4_12_S_0xc4ca42_1_M_2_L_2", 0, 0, {}], ["concatenate_910", 0, 0, {}]]]}, {"name": "BP_0x45c48c_9_S_0xc81e72_2_M_6_L_2", "class_name": "Activation", "config": {"name": "BP_0x45c48c_9_S_0xc81e72_2_M_6_L_2", "trainable": true, "dtype": "float32", "activation": "relu"}, "inbound_nodes": [[["BP_0x45c48c_9_S_0xc81e72_2_M_6_L_1", 0, 0, {}]]]}, {"name": "BP_0x45c48c_9_S_0xc81e72_2_M_10_L_2", "class_name": "Activation", "config": {"name": "BP_0x45c48c_9_S_0xc81e72_2_M_10_L_2", "trainable": true, "dtype": "float32", "activation": "relu"}, "inbound_nodes": [[["BP_0x45c48c_9_S_0xc81e72_2_M_10_L_1", 0, 0, {}]]]}, {"name": "concatenate_914", "class_name": "Concatenate", "config": {"name": "concatenate_914", "trainable": true, "dtype": "float32", "axis": -1}, "inbound_nodes": [[["concatenate_904", 0, 0, {}], ["concatenate_910", 0, 0, {}], ["concatenate_913", 0, 0, {}]]]}, {"name": "concatenate_906", "class_name": "Concatenate", "config": {"name": "concatenate_906", "trainable": true, "dtype": "float32", "axis": -1}, "inbound_nodes": [[["BP_0x45c48c_9_S_0xc81e72_2_M_6_L_2", 0, 0, {}], ["BP_0x45c48c_9_S_0xc81e72_2_M_10_L_2", 0, 0, {}], ["concatenate_904", 0, 0, {}]]]}, {"name": "BP_0x8f14e4_7_S_0xc4ca42_1_M_8_L_0", "class_name": "BatchNormalization", "config": {"name": "BP_0x8f14e4_7_S_0xc4ca42_1_M_8_L_0", "trainable": true, "dtype": "float32", "axis": -1, "momentum": 0.9, "epsilon": 1e-05, "center": true, "scale": true, "beta_initializer": {"class_name": "Zeros", "config": {}}, "gamma_initializer": {"class_name": "Ones", "config": {}}, "moving_mean_initializer": {"class_name": "Zeros", "config": {}}, "moving_variance_initializer": {"class_name": "Ones", "config": {}}, "beta_regularizer": null, "gamma_regularizer": null, "beta_constraint": null, "gamma_constraint": null}, "inbound_nodes": [[["concatenate_914", 0, 0, {}]]]}, {"name": "BP_0xc81e72_2_S_0xc81e72_2_M_4_L_0", "class_name": "Dense", "config": {"name": "BP_0xc81e72_2_S_0xc81e72_2_M_4_L_0", "trainable": true, "dtype": "float32", "units": 64, "activation": "linear", "use_bias": true, "kernel_initializer": {"class_name": "VarianceScaling", "config": {"scale": 2.0, "mode": "fan_in", "distribution": "normal", "seed": null}}, "bias_initializer": {"class_name": "Zeros", "config": {}}, "kernel_regularizer": {"class_name": "L1L2", "config": {"l1": 0.0, "l2": 0.0002500000118743628}}, "bias_regularizer": null, "activity_regularizer": null, "kernel_constraint": null, "bias_constraint": null}, "inbound_nodes": [[["concatenate_906", 0, 0, {}]]]}, {"name": "BP_0x8f14e4_7_S_0xc4ca42_1_M_8_L_1", "class_name": "Dense", "config": {"name": "BP_0x8f14e4_7_S_0xc4ca42_1_M_8_L_1", "trainable": true, "dtype": "float32", "units": 64, "activation": "linear", "use_bias": true, "kernel_initializer": {"class_name": "VarianceScaling", "config": {"scale": 2.0, "mode": "fan_in", "distribution": "normal", "seed": null}}, "bias_initializer": {"class_name": "Zeros", "config": {}}, "kernel_regularizer": {"class_name": "L1L2", "config": {"l1": 0.0, "l2": 0.0002500000118743628}}, "bias_regularizer": null, "activity_regularizer": null, "kernel_constraint": null, "bias_constraint": null}, "inbound_nodes": [[["BP_0x8f14e4_7_S_0xc4ca42_1_M_8_L_0", 0, 0, {}]]]}, {"name": "BP_0xc81e72_2_S_0xc81e72_2_M_4_L_1", "class_name": "Activation", "config": {"name": "BP_0xc81e72_2_S_0xc81e72_2_M_4_L_1", "trainable": true, "dtype": "float32", "activation": "relu"}, "inbound_nodes": [[["BP_0xc81e72_2_S_0xc81e72_2_M_4_L_0", 0, 0, {}]]]}, {"name": "BP_0x8f14e4_7_S_0xc4ca42_1_M_8_L_2", "class_name": "Activation", "config": {"name": "BP_0x8f14e4_7_S_0xc4ca42_1_M_8_L_2", "trainable": true, "dtype": "float32", "activation": "relu"}, "inbound_nodes": [[["BP_0x8f14e4_7_S_0xc4ca42_1_M_8_L_1", 0, 0, {}]]]}, {"name": "BP_0xc81e72_2_S_0xc81e72_2_M_4_L_2", "class_name": "Dropout", "config": {"name": "BP_0xc81e72_2_S_0xc81e72_2_M_4_L_2", "trainable": true, "dtype": "float32", "rate": 0.25, "noise_shape": null, "seed": null}, "inbound_nodes": [[["BP_0xc81e72_2_S_0xc81e72_2_M_4_L_1", 0, 0, {}]]]}, {"name": "concatenate_915", "class_name": "Concatenate", "config": {"name": "concatenate_915", "trainable": true, "dtype": "float32", "axis": -1}, "inbound_nodes": [[["BP_0x8f14e4_7_S_0xc4ca42_1_M_8_L_2", 0, 0, {}], ["concatenate_914", 0, 0, {}]]]}, {"name": "BP_0xc81e72_2_S_0xc81e72_2_M_9_L_0", "class_name": "BatchNormalization", "config": {"name": "BP_0xc81e72_2_S_0xc81e72_2_M_9_L_0", "trainable": true, "dtype": "float32", "axis": -1, "momentum": 0.9, "epsilon": 1e-05, "center": true, "scale": true, "beta_initializer": {"class_name": "Zeros", "config": {}}, "gamma_initializer": {"class_name": "Ones", "config": {}}, "moving_mean_initializer": {"class_name": "Zeros", "config": {}}, "moving_variance_initializer": {"class_name": "Ones", "config": {}}, "beta_regularizer": null, "gamma_regularizer": null, "beta_constraint": null, "gamma_constraint": null}, "inbound_nodes": [[["BP_0xc81e72_2_S_0xc81e72_2_M_4_L_2", 0, 0, {}]]]}, {"name": "BP_0x8f14e4_7_S_0xc4ca42_1_M_1_L_0", "class_name": "BatchNormalization", "config": {"name": "BP_0x8f14e4_7_S_0xc4ca42_1_M_1_L_0", "trainable": true, "dtype": "float32", "axis": -1, "momentum": 0.9, "epsilon": 1e-05, "center": true, "scale": true, "beta_initializer": {"class_name": "Zeros", "config": {}}, "gamma_initializer": {"class_name": "Ones", "config": {}}, "moving_mean_initializer": {"class_name": "Zeros", "config": {}}, "moving_variance_initializer": {"class_name": "Ones", "config": {}}, "beta_regularizer": null, "gamma_regularizer": null, "beta_constraint": null, "gamma_constraint": null}, "inbound_nodes": [[["concatenate_915", 0, 0, {}]]]}, {"name": "BP_0xc81e72_2_S_0xc81e72_2_M_9_L_1", "class_name": "Dense", "config": {"name": "BP_0xc81e72_2_S_0xc81e72_2_M_9_L_1", "trainable": true, "dtype": "float32", "units": 64, "activation": "linear", "use_bias": true, "kernel_initializer": {"class_name": "VarianceScaling", "config": {"scale": 2.0, "mode": "fan_in", "distribution": "normal", "seed": null}}, "bias_initializer": {"class_name": "Zeros", "config": {}}, "kernel_regularizer": {"class_name": "L1L2", "config": {"l1": 0.0, "l2": 0.0002500000118743628}}, "bias_regularizer": null, "activity_regularizer": null, "kernel_constraint": null, "bias_constraint": null}, "inbound_nodes": [[["BP_0xc81e72_2_S_0xc81e72_2_M_9_L_0", 0, 0, {}]]]}, {"name": "BP_0x8f14e4_7_S_0xc4ca42_1_M_1_L_1", "class_name": "Dense", "config": {"name": "BP_0x8f14e4_7_S_0xc4ca42_1_M_1_L_1", "trainable": true, "dtype": "float32", "units": 64, "activation": "linear", "use_bias": true, "kernel_initializer": {"class_name": "VarianceScaling", "config": {"scale": 2.0, "mode": "fan_in", "distribution": "normal", "seed": null}}, "bias_initializer": {"class_name": "Zeros", "config": {}}, "kernel_regularizer": {"class_name": "L1L2", "config": {"l1": 0.0, "l2": 0.0002500000118743628}}, "bias_regularizer": null, "activity_regularizer": null, "kernel_constraint": null, "bias_constraint": null}, "inbound_nodes": [[["BP_0x8f14e4_7_S_0xc4ca42_1_M_1_L_0", 0, 0, {}]]]}, {"name": "BP_0xc81e72_2_S_0xc81e72_2_M_9_L_2", "class_name": "Activation", "config": {"name": "BP_0xc81e72_2_S_0xc81e72_2_M_9_L_2", "trainable": true, "dtype": "float32", "activation": "relu"}, "inbound_nodes": [[["BP_0xc81e72_2_S_0xc81e72_2_M_9_L_1", 0, 0, {}]]]}, {"name": "BP_0x8f14e4_7_S_0xc4ca42_1_M_1_L_2", "class_name": "Activation", "config": {"name": "BP_0x8f14e4_7_S_0xc4ca42_1_M_1_L_2", "trainable": true, "dtype": "float32", "activation": "relu"}, "inbound_nodes": [[["BP_0x8f14e4_7_S_0xc4ca42_1_M_1_L_1", 0, 0, {}]]]}, {"name": "BP_0xc81e72_2_S_0xc81e72_2_M_14_L_0", "class_name": "Dense", "config": {"name": "BP_0xc81e72_2_S_0xc81e72_2_M_14_L_0", "trainable": true, "dtype": "float32", "units": 64, "activation": "linear", "use_bias": true, "kernel_initializer": {"class_name": "VarianceScaling", "config": {"scale": 2.0, "mode": "fan_in", "distribution": "normal", "seed": null}}, "bias_initializer": {"class_name": "Zeros", "config": {}}, "kernel_regularizer": {"class_name": "L1L2", "config": {"l1": 0.0, "l2": 0.0002500000118743628}}, "bias_regularizer": null, "activity_regularizer": null, "kernel_constraint": null, "bias_constraint": null}, "inbound_nodes": [[["BP_0xc81e72_2_S_0xc81e72_2_M_9_L_2", 0, 0, {}]]]}, {"name": "BP_0x8f14e4_7_S_0xc4ca42_1_M_7_L_0", "class_name": "BatchNormalization", "config": {"name": "BP_0x8f14e4_7_S_0xc4ca42_1_M_7_L_0", "trainable": true, "dtype": "float32", "axis": -1, "momentum": 0.9, "epsilon": 1e-05, "center": true, "scale": true, "beta_initializer": {"class_name": "Zeros", "config": {}}, "gamma_initializer": {"class_name": "Ones", "config": {}}, "moving_mean_initializer": {"class_name": "Zeros", "config": {}}, "moving_variance_initializer": {"class_name": "Ones", "config": {}}, "beta_regularizer": null, "gamma_regularizer": null, "beta_constraint": null, "gamma_constraint": null}, "inbound_nodes": [[["BP_0x8f14e4_7_S_0xc4ca42_1_M_1_L_2", 0, 0, {}]]]}, {"name": "BP_0xc81e72_2_S_0xc81e72_2_M_14_L_1", "class_name": "Activation", "config": {"name": "BP_0xc81e72_2_S_0xc81e72_2_M_14_L_1", "trainable": true, "dtype": "float32", "activation": "relu"}, "inbound_nodes": [[["BP_0xc81e72_2_S_0xc81e72_2_M_14_L_0", 0, 0, {}]]]}, {"name": "BP_0x8f14e4_7_S_0xc4ca42_1_M_7_L_1", "class_name": "Dense", "config": {"name": "BP_0x8f14e4_7_S_0xc4ca42_1_M_7_L_1", "trainable": true, "dtype": "float32", "units": 64, "activation": "linear", "use_bias": true, "kernel_initializer": {"class_name": "VarianceScaling", "config": {"scale": 2.0, "mode": "fan_in", "distribution": "normal", "seed": null}}, "bias_initializer": {"class_name": "Zeros", "config": {}}, "kernel_regularizer": {"class_name": "L1L2", "config": {"l1": 0.0, "l2": 0.0002500000118743628}}, "bias_regularizer": null, "activity_regularizer": null, "kernel_constraint": null, "bias_constraint": null}, "inbound_nodes": [[["BP_0x8f14e4_7_S_0xc4ca42_1_M_7_L_0", 0, 0, {}]]]}, {"name": "BP_0xc81e72_2_S_0xc81e72_2_M_14_L_2", "class_name": "Dropout", "config": {"name": "BP_0xc81e72_2_S_0xc81e72_2_M_14_L_2", "trainable": true, "dtype": "float32", "rate": 0.25, "noise_shape": null, "seed": null}, "inbound_nodes": [[["BP_0xc81e72_2_S_0xc81e72_2_M_14_L_1", 0, 0, {}]]]}, {"name": "BP_0x8f14e4_7_S_0xc4ca42_1_M_7_L_2", "class_name": "Activation", "config": {"name": "BP_0x8f14e4_7_S_0xc4ca42_1_M_7_L_2", "trainable": true, "dtype": "float32", "activation": "relu"}, "inbound_nodes": [[["BP_0x8f14e4_7_S_0xc4ca42_1_M_7_L_1", 0, 0, {}]]]}, {"name": "concatenate_907", "class_name": "Concatenate", "config": {"name": "concatenate_907", "trainable": true, "dtype": "float32", "axis": -1}, "inbound_nodes": [[["BP_0xc81e72_2_S_0xc81e72_2_M_9_L_2", 0, 0, {}], ["BP_0xc81e72_2_S_0xc81e72_2_M_14_L_2", 0, 0, {}]]]}, {"name": "concatenate_916", "class_name": "Concatenate", "config": {"name": "concatenate_916", "trainable": true, "dtype": "float32", "axis": -1}, "inbound_nodes": [[["BP_0x8f14e4_7_S_0xc4ca42_1_M_1_L_2", 0, 0, {}], ["BP_0x8f14e4_7_S_0xc4ca42_1_M_7_L_2", 0, 0, {}]]]}, {"name": "BP_0xc81e72_2_S_0xc81e72_2_M_6_L_0", "class_name": "BatchNormalization", "config": {"name": "BP_0xc81e72_2_S_0xc81e72_2_M_6_L_0", "trainable": true, "dtype": "float32", "axis": -1, "momentum": 0.9, "epsilon": 1e-05, "center": true, "scale": true, "beta_initializer": {"class_name": "Zeros", "config": {}}, "gamma_initializer": {"class_name": "Ones", "config": {}}, "moving_mean_initializer": {"class_name": "Zeros", "config": {}}, "moving_variance_initializer": {"class_name": "Ones", "config": {}}, "beta_regularizer": null, "gamma_regularizer": null, "beta_constraint": null, "gamma_constraint": null}, "inbound_nodes": [[["concatenate_907", 0, 0, {}]]]}, {"name": "BP_0xc81e72_2_S_0xc81e72_2_M_10_L_0", "class_name": "BatchNormalization", "config": {"name": "BP_0xc81e72_2_S_0xc81e72_2_M_10_L_0", "trainable": true, "dtype": "float32", "axis": -1, "momentum": 0.9, "epsilon": 1e-05, "center": true, "scale": true, "beta_initializer": {"class_name": "Zeros", "config": {}}, "gamma_initializer": {"class_name": "Ones", "config": {}}, "moving_mean_initializer": {"class_name": "Zeros", "config": {}}, "moving_variance_initializer": {"class_name": "Ones", "config": {}}, "beta_regularizer": null, "gamma_regularizer": null, "beta_constraint": null, "gamma_constraint": null}, "inbound_nodes": [[["concatenate_906", 0, 0, {}]]]}, {"name": "BP_0x8f14e4_7_S_0xc4ca42_1_M_2_L_0", "class_name": "Dense", "config": {"name": "BP_0x8f14e4_7_S_0xc4ca42_1_M_2_L_0", "trainable": true, "dtype": "float32", "units": 64, "activation": "linear", "use_bias": true, "kernel_initializer": {"class_name": "VarianceScaling", "config": {"scale": 2.0, "mode": "fan_in", "distribution": "normal", "seed": null}}, "bias_initializer": {"class_name": "Zeros", "config": {}}, "kernel_regularizer": {"class_name": "L1L2", "config": {"l1": 0.0, "l2": 0.0002500000118743628}}, "bias_regularizer": null, "activity_regularizer": null, "kernel_constraint": null, "bias_constraint": null}, "inbound_nodes": [[["concatenate_916", 0, 0, {}]]]}, {"name": "BP_0xc81e72_2_S_0xc81e72_2_M_6_L_1", "class_name": "Dense", "config": {"name": "BP_0xc81e72_2_S_0xc81e72_2_M_6_L_1", "trainable": true, "dtype": "float32", "units": 64, "activation": "linear", "use_bias": true, "kernel_initializer": {"class_name": "VarianceScaling", "config": {"scale": 2.0, "mode": "fan_in", "distribution": "normal", "seed": null}}, "bias_initializer": {"class_name": "Zeros", "config": {}}, "kernel_regularizer": {"class_name": "L1L2", "config": {"l1": 0.0, "l2": 0.0002500000118743628}}, "bias_regularizer": null, "activity_regularizer": null, "kernel_constraint": null, "bias_constraint": null}, "inbound_nodes": [[["BP_0xc81e72_2_S_0xc81e72_2_M_6_L_0", 0, 0, {}]]]}, {"name": "BP_0xc81e72_2_S_0xc81e72_2_M_10_L_1", "class_name": "Dense", "config": {"name": "BP_0xc81e72_2_S_0xc81e72_2_M_10_L_1", "trainable": true, "dtype": "float32", "units": 64, "activation": "linear", "use_bias": true, "kernel_initializer": {"class_name": "VarianceScaling", "config": {"scale": 2.0, "mode": "fan_in", "distribution": "normal", "seed": null}}, "bias_initializer": {"class_name": "Zeros", "config": {}}, "kernel_regularizer": {"class_name": "L1L2", "config": {"l1": 0.0, "l2": 0.0002500000118743628}}, "bias_regularizer": null, "activity_regularizer": null, "kernel_constraint": null, "bias_constraint": null}, "inbound_nodes": [[["BP_0xc81e72_2_S_0xc81e72_2_M_10_L_0", 0, 0, {}]]]}, {"name": "BP_0x8f14e4_7_S_0xc4ca42_1_M_2_L_1", "class_name": "Activation", "config": {"name": "BP_0x8f14e4_7_S_0xc4ca42_1_M_2_L_1", "trainable": true, "dtype": "float32", "activation": "relu"}, "inbound_nodes": [[["BP_0x8f14e4_7_S_0xc4ca42_1_M_2_L_0", 0, 0, {}]]]}, {"name": "BP_0xc81e72_2_S_0xc81e72_2_M_6_L_2", "class_name": "Activation", "config": {"name": "BP_0xc81e72_2_S_0xc81e72_2_M_6_L_2", "trainable": true, "dtype": "float32", "activation": "relu"}, "inbound_nodes": [[["BP_0xc81e72_2_S_0xc81e72_2_M_6_L_1", 0, 0, {}]]]}, {"name": "BP_0xc81e72_2_S_0xc81e72_2_M_10_L_2", "class_name": "Activation", "config": {"name": "BP_0xc81e72_2_S_0xc81e72_2_M_10_L_2", "trainable": true, "dtype": "float32", "activation": "relu"}, "inbound_nodes": [[["BP_0xc81e72_2_S_0xc81e72_2_M_10_L_1", 0, 0, {}]]]}, {"name": "BP_0x8f14e4_7_S_0xc4ca42_1_M_2_L_2", "class_name": "Dropout", "config": {"name": "BP_0x8f14e4_7_S_0xc4ca42_1_M_2_L_2", "trainable": true, "dtype": "float32", "rate": 0.25, "noise_shape": null, "seed": null}, "inbound_nodes": [[["BP_0x8f14e4_7_S_0xc4ca42_1_M_2_L_1", 0, 0, {}]]]}, {"name": "concatenate_908", "class_name": "Concatenate", "config": {"name": "concatenate_908", "trainable": true, "dtype": "float32", "axis": -1}, "inbound_nodes": [[["BP_0xc81e72_2_S_0xc81e72_2_M_6_L_2", 0, 0, {}], ["BP_0xc81e72_2_S_0xc81e72_2_M_10_L_2", 0, 0, {}], ["concatenate_906", 0, 0, {}]]]}, {"name": "concatenate_917", "class_name": "Concatenate", "config": {"name": "concatenate_917", "trainable": true, "dtype": "float32", "axis": -1}, "inbound_nodes": [[["BP_0x8f14e4_7_S_0xc4ca42_1_M_1_L_2", 0, 0, {}], ["BP_0x8f14e4_7_S_0xc4ca42_1_M_2_L_2", 0, 0, {}], ["concatenate_914", 0, 0, {}]]]}, {"name": "concatenate_918", "class_name": "Concatenate", "config": {"name": "concatenate_918", "trainable": true, "dtype": "float32", "axis": -1}, "inbound_nodes": [[["input_45", 0, 0, {}], ["concatenate_908", 0, 0, {}], ["concatenate_917", 0, 0, {}]]]}, {"name": "dense_45", "class_name": "Dense", "config": {"name": "dense_45", "trainable": true, "dtype": "float32", "units": 2, "activation": "linear", "use_bias": true, "kernel_initializer": {"class_name": "VarianceScaling", "config": {"scale": 1.0, "mode": "fan_avg", "distribution": "uniform", "seed": null}}, "bias_initializer": {"class_name": "Zeros", "config": {}}, "kernel_regularizer": null, "bias_regularizer": null, "activity_regularizer": null, "kernel_constraint": null, "bias_constraint": null}, "inbound_nodes": [[["concatenate_918", 0, 0, {}]]]}, {"name": "activation_45", "class_name": "Activation", "config": {"name": "activation_45", "trainable": true, "dtype": "float32", "activation": "softmax"}, "inbound_nodes": [[["dense_45", 0, 0, {}]]]}], "input_layers": [["input_45", 0, 0]], "output_layers": [["activation_45", 0, 0]]}, "keras_version": "2.2.5", "backend": "tensorflow"}