{"class_name": "Model", "config": {"name": "model_5", "layers": [{"name": "input_5", "class_name": "InputLayer", "config": {"batch_input_shape": [null, 143], "dtype": "float32", "sparse": false, "name": "input_5"}, "inbound_nodes": []}, {"name": "BP_0xa87ff6_4_S_0xc81e72_2_M_4_L_0", "class_name": "Dense", "config": {"name": "BP_0xa87ff6_4_S_0xc81e72_2_M_4_L_0", "trainable": true, "dtype": "float32", "units": 64, "activation": "linear", "use_bias": true, "kernel_initializer": {"class_name": "VarianceScaling", "config": {"scale": 2.0, "mode": "fan_in", "distribution": "normal", "seed": null}}, "bias_initializer": {"class_name": "Zeros", "config": {}}, "kernel_regularizer": {"class_name": "L1L2", "config": {"l1": 0.0, "l2": 0.0002500000118743628}}, "bias_regularizer": null, "activity_regularizer": null, "kernel_constraint": null, "bias_constraint": null}, "inbound_nodes": [[["input_5", 0, 0, {}]]]}, {"name": "BP_0xa87ff6_4_S_0xc81e72_2_M_4_L_1", "class_name": "Activation", "config": {"name": "BP_0xa87ff6_4_S_0xc81e72_2_M_4_L_1", "trainable": true, "dtype": "float32", "activation": "relu"}, "inbound_nodes": [[["BP_0xa87ff6_4_S_0xc81e72_2_M_4_L_0", 0, 0, {}]]]}, {"name": "BP_0xa87ff6_4_S_0xc81e72_2_M_4_L_2", "class_name": "Dropout", "config": {"name": "BP_0xa87ff6_4_S_0xc81e72_2_M_4_L_2", "trainable": true, "dtype": "float32", "rate": 0.25, "noise_shape": null, "seed": null}, "inbound_nodes": [[["BP_0xa87ff6_4_S_0xc81e72_2_M_4_L_1", 0, 0, {}]]]}, {"name": "BP_0xa87ff6_4_S_0xc81e72_2_M_9_L_0", "class_name": "Dense", "config": {"name": "BP_0xa87ff6_4_S_0xc81e72_2_M_9_L_0", "trainable": true, "dtype": "float32", "units": 64, "activation": "linear", "use_bias": true, "kernel_initializer": {"class_name": "VarianceScaling", "config": {"scale": 2.0, "mode": "fan_in", "distribution": "normal", "seed": null}}, "bias_initializer": {"class_name": "Zeros", "config": {}}, "kernel_regularizer": {"class_name": "L1L2", "config": {"l1": 0.0, "l2": 0.0002500000118743628}}, "bias_regularizer": null, "activity_regularizer": null, "kernel_constraint": null, "bias_constraint": null}, "inbound_nodes": [[["BP_0xa87ff6_4_S_0xc81e72_2_M_4_L_2", 0, 0, {}]]]}, {"name": "BP_0xa87ff6_4_S_0xc81e72_2_M_9_L_1", "class_name": "Activation", "config": {"name": "BP_0xa87ff6_4_S_0xc81e72_2_M_9_L_1", "trainable": true, "dtype": "float32", "activation": "relu"}, "inbound_nodes": [[["BP_0xa87ff6_4_S_0xc81e72_2_M_9_L_0", 0, 0, {}]]]}, {"name": "BP_0xa87ff6_4_S_0xc81e72_2_M_9_L_2", "class_name": "Dropout", "config": {"name": "BP_0xa87ff6_4_S_0xc81e72_2_M_9_L_2", "trainable": true, "dtype": "float32", "rate": 0.25, "noise_shape": null, "seed": null}, "inbound_nodes": [[["BP_0xa87ff6_4_S_0xc81e72_2_M_9_L_1", 0, 0, {}]]]}, {"name": "BP_0xa87ff6_4_S_0xc81e72_2_M_14_L_0", "class_name": "Dense", "config": {"name": "BP_0xa87ff6_4_S_0xc81e72_2_M_14_L_0", "trainable": true, "dtype": "float32", "units": 64, "activation": "linear", "use_bias": true, "kernel_initializer": {"class_name": "VarianceScaling", "config": {"scale": 2.0, "mode": "fan_in", "distribution": "normal", "seed": null}}, "bias_initializer": {"class_name": "Zeros", "config": {}}, "kernel_regularizer": {"class_name": "L1L2", "config": {"l1": 0.0, "l2": 0.0002500000118743628}}, "bias_regularizer": null, "activity_regularizer": null, "kernel_constraint": null, "bias_constraint": null}, "inbound_nodes": [[["BP_0xa87ff6_4_S_0xc81e72_2_M_9_L_2", 0, 0, {}]]]}, {"name": "BP_0xa87ff6_4_S_0xc81e72_2_M_14_L_1", "class_name": "Activation", "config": {"name": "BP_0xa87ff6_4_S_0xc81e72_2_M_14_L_1", "trainable": true, "dtype": "float32", "activation": "relu"}, "inbound_nodes": [[["BP_0xa87ff6_4_S_0xc81e72_2_M_14_L_0", 0, 0, {}]]]}, {"name": "BP_0xa87ff6_4_S_0xc81e72_2_M_14_L_2", "class_name": "Dropout", "config": {"name": "BP_0xa87ff6_4_S_0xc81e72_2_M_14_L_2", "trainable": true, "dtype": "float32", "rate": 0.25, "noise_shape": null, "seed": null}, "inbound_nodes": [[["BP_0xa87ff6_4_S_0xc81e72_2_M_14_L_1", 0, 0, {}]]]}, {"name": "concatenate_81", "class_name": "Concatenate", "config": {"name": "concatenate_81", "trainable": true, "dtype": "float32", "axis": -1}, "inbound_nodes": [[["BP_0xa87ff6_4_S_0xc81e72_2_M_9_L_2", 0, 0, {}], ["BP_0xa87ff6_4_S_0xc81e72_2_M_14_L_2", 0, 0, {}]]]}, {"name": "BP_0xa87ff6_4_S_0xc81e72_2_M_6_L_0", "class_name": "BatchNormalization", "config": {"name": "BP_0xa87ff6_4_S_0xc81e72_2_M_6_L_0", "trainable": true, "dtype": "float32", "axis": -1, "momentum": 0.9, "epsilon": 1e-05, "center": true, "scale": true, "beta_initializer": {"class_name": "Zeros", "config": {}}, "gamma_initializer": {"class_name": "Ones", "config": {}}, "moving_mean_initializer": {"class_name": "Zeros", "config": {}}, "moving_variance_initializer": {"class_name": "Ones", "config": {}}, "beta_regularizer": null, "gamma_regularizer": null, "beta_constraint": null, "gamma_constraint": null}, "inbound_nodes": [[["concatenate_81", 0, 0, {}]]]}, {"name": "BP_0xa87ff6_4_S_0xc81e72_2_M_10_L_0", "class_name": "BatchNormalization", "config": {"name": "BP_0xa87ff6_4_S_0xc81e72_2_M_10_L_0", "trainable": true, "dtype": "float32", "axis": -1, "momentum": 0.9, "epsilon": 1e-05, "center": true, "scale": true, "beta_initializer": {"class_name": "Zeros", "config": {}}, "gamma_initializer": {"class_name": "Ones", "config": {}}, "moving_mean_initializer": {"class_name": "Zeros", "config": {}}, "moving_variance_initializer": {"class_name": "Ones", "config": {}}, "beta_regularizer": null, "gamma_regularizer": null, "beta_constraint": null, "gamma_constraint": null}, "inbound_nodes": [[["input_5", 0, 0, {}]]]}, {"name": "BP_0xa87ff6_4_S_0xc81e72_2_M_6_L_1", "class_name": "Dense", "config": {"name": "BP_0xa87ff6_4_S_0xc81e72_2_M_6_L_1", "trainable": true, "dtype": "float32", "units": 64, "activation": "linear", "use_bias": true, "kernel_initializer": {"class_name": "VarianceScaling", "config": {"scale": 2.0, "mode": "fan_in", "distribution": "normal", "seed": null}}, "bias_initializer": {"class_name": "Zeros", "config": {}}, "kernel_regularizer": {"class_name": "L1L2", "config": {"l1": 0.0, "l2": 0.0002500000118743628}}, "bias_regularizer": null, "activity_regularizer": null, "kernel_constraint": null, "bias_constraint": null}, "inbound_nodes": [[["BP_0xa87ff6_4_S_0xc81e72_2_M_6_L_0", 0, 0, {}]]]}, {"name": "BP_0xa87ff6_4_S_0xc81e72_2_M_10_L_1", "class_name": "Dense", "config": {"name": "BP_0xa87ff6_4_S_0xc81e72_2_M_10_L_1", "trainable": true, "dtype": "float32", "units": 64, "activation": "linear", "use_bias": true, "kernel_initializer": {"class_name": "VarianceScaling", "config": {"scale": 2.0, "mode": "fan_in", "distribution": "normal", "seed": null}}, "bias_initializer": {"class_name": "Zeros", "config": {}}, "kernel_regularizer": {"class_name": "L1L2", "config": {"l1": 0.0, "l2": 0.0002500000118743628}}, "bias_regularizer": null, "activity_regularizer": null, "kernel_constraint": null, "bias_constraint": null}, "inbound_nodes": [[["BP_0xa87ff6_4_S_0xc81e72_2_M_10_L_0", 0, 0, {}]]]}, {"name": "BP_0xa87ff6_4_S_0xc81e72_2_M_6_L_2", "class_name": "Activation", "config": {"name": "BP_0xa87ff6_4_S_0xc81e72_2_M_6_L_2", "trainable": true, "dtype": "float32", "activation": "relu"}, "inbound_nodes": [[["BP_0xa87ff6_4_S_0xc81e72_2_M_6_L_1", 0, 0, {}]]]}, {"name": "BP_0xa87ff6_4_S_0xc81e72_2_M_10_L_2", "class_name": "Activation", "config": {"name": "BP_0xa87ff6_4_S_0xc81e72_2_M_10_L_2", "trainable": true, "dtype": "float32", "activation": "relu"}, "inbound_nodes": [[["BP_0xa87ff6_4_S_0xc81e72_2_M_10_L_1", 0, 0, {}]]]}, {"name": "concatenate_82", "class_name": "Concatenate", "config": {"name": "concatenate_82", "trainable": true, "dtype": "float32", "axis": -1}, "inbound_nodes": [[["BP_0xa87ff6_4_S_0xc81e72_2_M_6_L_2", 0, 0, {}], ["BP_0xa87ff6_4_S_0xc81e72_2_M_10_L_2", 0, 0, {}], ["input_5", 0, 0, {}]]]}, {"name": "concatenate_83", "class_name": "Concatenate", "config": {"name": "concatenate_83", "trainable": true, "dtype": "float32", "axis": -1}, "inbound_nodes": [[["input_5", 0, 0, {}], ["concatenate_82", 0, 0, {}]]]}, {"name": "BP_0xc4ca42_1_S_0xc4ca42_1_M_8_L_0", "class_name": "BatchNormalization", "config": {"name": "BP_0xc4ca42_1_S_0xc4ca42_1_M_8_L_0", "trainable": true, "dtype": "float32", "axis": -1, "momentum": 0.9, "epsilon": 1e-05, "center": true, "scale": true, "beta_initializer": {"class_name": "Zeros", "config": {}}, "gamma_initializer": {"class_name": "Ones", "config": {}}, "moving_mean_initializer": {"class_name": "Zeros", "config": {}}, "moving_variance_initializer": {"class_name": "Ones", "config": {}}, "beta_regularizer": null, "gamma_regularizer": null, "beta_constraint": null, "gamma_constraint": null}, "inbound_nodes": [[["concatenate_83", 0, 0, {}]]]}, {"name": "BP_0xc4ca42_1_S_0xc4ca42_1_M_8_L_1", "class_name": "Dense", "config": {"name": "BP_0xc4ca42_1_S_0xc4ca42_1_M_8_L_1", "trainable": true, "dtype": "float32", "units": 64, "activation": "linear", "use_bias": true, "kernel_initializer": {"class_name": "VarianceScaling", "config": {"scale": 2.0, "mode": "fan_in", "distribution": "normal", "seed": null}}, "bias_initializer": {"class_name": "Zeros", "config": {}}, "kernel_regularizer": {"class_name": "L1L2", "config": {"l1": 0.0, "l2": 0.0002500000118743628}}, "bias_regularizer": null, "activity_regularizer": null, "kernel_constraint": null, "bias_constraint": null}, "inbound_nodes": [[["BP_0xc4ca42_1_S_0xc4ca42_1_M_8_L_0", 0, 0, {}]]]}, {"name": "BP_0xc4ca42_1_S_0xc4ca42_1_M_8_L_2", "class_name": "Activation", "config": {"name": "BP_0xc4ca42_1_S_0xc4ca42_1_M_8_L_2", "trainable": true, "dtype": "float32", "activation": "relu"}, "inbound_nodes": [[["BP_0xc4ca42_1_S_0xc4ca42_1_M_8_L_1", 0, 0, {}]]]}, {"name": "concatenate_84", "class_name": "Concatenate", "config": {"name": "concatenate_84", "trainable": true, "dtype": "float32", "axis": -1}, "inbound_nodes": [[["BP_0xc4ca42_1_S_0xc4ca42_1_M_8_L_2", 0, 0, {}], ["concatenate_83", 0, 0, {}]]]}, {"name": "BP_0xc4ca42_1_S_0xc4ca42_1_M_1_L_0", "class_name": "BatchNormalization", "config": {"name": "BP_0xc4ca42_1_S_0xc4ca42_1_M_1_L_0", "trainable": true, "dtype": "float32", "axis": -1, "momentum": 0.9, "epsilon": 1e-05, "center": true, "scale": true, "beta_initializer": {"class_name": "Zeros", "config": {}}, "gamma_initializer": {"class_name": "Ones", "config": {}}, "moving_mean_initializer": {"class_name": "Zeros", "config": {}}, "moving_variance_initializer": {"class_name": "Ones", "config": {}}, "beta_regularizer": null, "gamma_regularizer": null, "beta_constraint": null, "gamma_constraint": null}, "inbound_nodes": [[["concatenate_84", 0, 0, {}]]]}, {"name": "BP_0xc4ca42_1_S_0xc4ca42_1_M_1_L_1", "class_name": "Dense", "config": {"name": "BP_0xc4ca42_1_S_0xc4ca42_1_M_1_L_1", "trainable": true, "dtype": "float32", "units": 64, "activation": "linear", "use_bias": true, "kernel_initializer": {"class_name": "VarianceScaling", "config": {"scale": 2.0, "mode": "fan_in", "distribution": "normal", "seed": null}}, "bias_initializer": {"class_name": "Zeros", "config": {}}, "kernel_regularizer": {"class_name": "L1L2", "config": {"l1": 0.0, "l2": 0.0002500000118743628}}, "bias_regularizer": null, "activity_regularizer": null, "kernel_constraint": null, "bias_constraint": null}, "inbound_nodes": [[["BP_0xc4ca42_1_S_0xc4ca42_1_M_1_L_0", 0, 0, {}]]]}, {"name": "BP_0xc4ca42_1_S_0xc4ca42_1_M_1_L_2", "class_name": "Activation", "config": {"name": "BP_0xc4ca42_1_S_0xc4ca42_1_M_1_L_2", "trainable": true, "dtype": "float32", "activation": "relu"}, "inbound_nodes": [[["BP_0xc4ca42_1_S_0xc4ca42_1_M_1_L_1", 0, 0, {}]]]}, {"name": "BP_0xc4ca42_1_S_0xc4ca42_1_M_7_L_0", "class_name": "Dense", "config": {"name": "BP_0xc4ca42_1_S_0xc4ca42_1_M_7_L_0", "trainable": true, "dtype": "float32", "units": 64, "activation": "linear", "use_bias": true, "kernel_initializer": {"class_name": "VarianceScaling", "config": {"scale": 2.0, "mode": "fan_in", "distribution": "normal", "seed": null}}, "bias_initializer": {"class_name": "Zeros", "config": {}}, "kernel_regularizer": {"class_name": "L1L2", "config": {"l1": 0.0, "l2": 0.0002500000118743628}}, "bias_regularizer": null, "activity_regularizer": null, "kernel_constraint": null, "bias_constraint": null}, "inbound_nodes": [[["BP_0xc4ca42_1_S_0xc4ca42_1_M_1_L_2", 0, 0, {}]]]}, {"name": "BP_0xc4ca42_1_S_0xc4ca42_1_M_7_L_1", "class_name": "Activation", "config": {"name": "BP_0xc4ca42_1_S_0xc4ca42_1_M_7_L_1", "trainable": true, "dtype": "float32", "activation": "relu"}, "inbound_nodes": [[["BP_0xc4ca42_1_S_0xc4ca42_1_M_7_L_0", 0, 0, {}]]]}, {"name": "BP_0xc4ca42_1_S_0xc4ca42_1_M_7_L_2", "class_name": "Dropout", "config": {"name": "BP_0xc4ca42_1_S_0xc4ca42_1_M_7_L_2", "trainable": true, "dtype": "float32", "rate": 0.25, "noise_shape": null, "seed": null}, "inbound_nodes": [[["BP_0xc4ca42_1_S_0xc4ca42_1_M_7_L_1", 0, 0, {}]]]}, {"name": "concatenate_85", "class_name": "Concatenate", "config": {"name": "concatenate_85", "trainable": true, "dtype": "float32", "axis": -1}, "inbound_nodes": [[["BP_0xc4ca42_1_S_0xc4ca42_1_M_1_L_2", 0, 0, {}], ["BP_0xc4ca42_1_S_0xc4ca42_1_M_7_L_2", 0, 0, {}]]]}, {"name": "BP_0xc4ca42_1_S_0xc4ca42_1_M_2_L_0", "class_name": "BatchNormalization", "config": {"name": "BP_0xc4ca42_1_S_0xc4ca42_1_M_2_L_0", "trainable": true, "dtype": "float32", "axis": -1, "momentum": 0.9, "epsilon": 1e-05, "center": true, "scale": true, "beta_initializer": {"class_name": "Zeros", "config": {}}, "gamma_initializer": {"class_name": "Ones", "config": {}}, "moving_mean_initializer": {"class_name": "Zeros", "config": {}}, "moving_variance_initializer": {"class_name": "Ones", "config": {}}, "beta_regularizer": null, "gamma_regularizer": null, "beta_constraint": null, "gamma_constraint": null}, "inbound_nodes": [[["concatenate_85", 0, 0, {}]]]}, {"name": "BP_0xc4ca42_1_S_0xc4ca42_1_M_2_L_1", "class_name": "Dense", "config": {"name": "BP_0xc4ca42_1_S_0xc4ca42_1_M_2_L_1", "trainable": true, "dtype": "float32", "units": 64, "activation": "linear", "use_bias": true, "kernel_initializer": {"class_name": "VarianceScaling", "config": {"scale": 2.0, "mode": "fan_in", "distribution": "normal", "seed": null}}, "bias_initializer": {"class_name": "Zeros", "config": {}}, "kernel_regularizer": {"class_name": "L1L2", "config": {"l1": 0.0, "l2": 0.0002500000118743628}}, "bias_regularizer": null, "activity_regularizer": null, "kernel_constraint": null, "bias_constraint": null}, "inbound_nodes": [[["BP_0xc4ca42_1_S_0xc4ca42_1_M_2_L_0", 0, 0, {}]]]}, {"name": "BP_0xc4ca42_1_S_0xc4ca42_1_M_2_L_2", "class_name": "Activation", "config": {"name": "BP_0xc4ca42_1_S_0xc4ca42_1_M_2_L_2", "trainable": true, "dtype": "float32", "activation": "relu"}, "inbound_nodes": [[["BP_0xc4ca42_1_S_0xc4ca42_1_M_2_L_1", 0, 0, {}]]]}, {"name": "concatenate_86", "class_name": "Concatenate", "config": {"name": "concatenate_86", "trainable": true, "dtype": "float32", "axis": -1}, "inbound_nodes": [[["BP_0xc4ca42_1_S_0xc4ca42_1_M_1_L_2", 0, 0, {}], ["BP_0xc4ca42_1_S_0xc4ca42_1_M_2_L_2", 0, 0, {}], ["concatenate_83", 0, 0, {}]]]}, {"name": "BP_0xc9f0f8_8_S_0xc81e72_2_M_4_L_0", "class_name": "Dense", "config": {"name": "BP_0xc9f0f8_8_S_0xc81e72_2_M_4_L_0", "trainable": true, "dtype": "float32", "units": 64, "activation": "linear", "use_bias": true, "kernel_initializer": {"class_name": "VarianceScaling", "config": {"scale": 2.0, "mode": "fan_in", "distribution": "normal", "seed": null}}, "bias_initializer": {"class_name": "Zeros", "config": {}}, "kernel_regularizer": {"class_name": "L1L2", "config": {"l1": 0.0, "l2": 0.0002500000118743628}}, "bias_regularizer": null, "activity_regularizer": null, "kernel_constraint": null, "bias_constraint": null}, "inbound_nodes": [[["concatenate_86", 0, 0, {}]]]}, {"name": "BP_0xc9f0f8_8_S_0xc81e72_2_M_4_L_1", "class_name": "Activation", "config": {"name": "BP_0xc9f0f8_8_S_0xc81e72_2_M_4_L_1", "trainable": true, "dtype": "float32", "activation": "relu"}, "inbound_nodes": [[["BP_0xc9f0f8_8_S_0xc81e72_2_M_4_L_0", 0, 0, {}]]]}, {"name": "BP_0xc9f0f8_8_S_0xc81e72_2_M_4_L_2", "class_name": "Dropout", "config": {"name": "BP_0xc9f0f8_8_S_0xc81e72_2_M_4_L_2", "trainable": true, "dtype": "float32", "rate": 0.25, "noise_shape": null, "seed": null}, "inbound_nodes": [[["BP_0xc9f0f8_8_S_0xc81e72_2_M_4_L_1", 0, 0, {}]]]}, {"name": "BP_0xc9f0f8_8_S_0xc81e72_2_M_9_L_0", "class_name": "Dense", "config": {"name": "BP_0xc9f0f8_8_S_0xc81e72_2_M_9_L_0", "trainable": true, "dtype": "float32", "units": 64, "activation": "linear", "use_bias": true, "kernel_initializer": {"class_name": "VarianceScaling", "config": {"scale": 2.0, "mode": "fan_in", "distribution": "normal", "seed": null}}, "bias_initializer": {"class_name": "Zeros", "config": {}}, "kernel_regularizer": {"class_name": "L1L2", "config": {"l1": 0.0, "l2": 0.0002500000118743628}}, "bias_regularizer": null, "activity_regularizer": null, "kernel_constraint": null, "bias_constraint": null}, "inbound_nodes": [[["BP_0xc9f0f8_8_S_0xc81e72_2_M_4_L_2", 0, 0, {}]]]}, {"name": "BP_0xc9f0f8_8_S_0xc81e72_2_M_9_L_1", "class_name": "Activation", "config": {"name": "BP_0xc9f0f8_8_S_0xc81e72_2_M_9_L_1", "trainable": true, "dtype": "float32", "activation": "relu"}, "inbound_nodes": [[["BP_0xc9f0f8_8_S_0xc81e72_2_M_9_L_0", 0, 0, {}]]]}, {"name": "BP_0xc9f0f8_8_S_0xc81e72_2_M_9_L_2", "class_name": "Dropout", "config": {"name": "BP_0xc9f0f8_8_S_0xc81e72_2_M_9_L_2", "trainable": true, "dtype": "float32", "rate": 0.25, "noise_shape": null, "seed": null}, "inbound_nodes": [[["BP_0xc9f0f8_8_S_0xc81e72_2_M_9_L_1", 0, 0, {}]]]}, {"name": "BP_0xc9f0f8_8_S_0xc81e72_2_M_14_L_0", "class_name": "Dense", "config": {"name": "BP_0xc9f0f8_8_S_0xc81e72_2_M_14_L_0", "trainable": true, "dtype": "float32", "units": 64, "activation": "linear", "use_bias": true, "kernel_initializer": {"class_name": "VarianceScaling", "config": {"scale": 2.0, "mode": "fan_in", "distribution": "normal", "seed": null}}, "bias_initializer": {"class_name": "Zeros", "config": {}}, "kernel_regularizer": {"class_name": "L1L2", "config": {"l1": 0.0, "l2": 0.0002500000118743628}}, "bias_regularizer": null, "activity_regularizer": null, "kernel_constraint": null, "bias_constraint": null}, "inbound_nodes": [[["BP_0xc9f0f8_8_S_0xc81e72_2_M_9_L_2", 0, 0, {}]]]}, {"name": "BP_0xc9f0f8_8_S_0xc81e72_2_M_14_L_1", "class_name": "Activation", "config": {"name": "BP_0xc9f0f8_8_S_0xc81e72_2_M_14_L_1", "trainable": true, "dtype": "float32", "activation": "relu"}, "inbound_nodes": [[["BP_0xc9f0f8_8_S_0xc81e72_2_M_14_L_0", 0, 0, {}]]]}, {"name": "BP_0xc9f0f8_8_S_0xc81e72_2_M_14_L_2", "class_name": "Dropout", "config": {"name": "BP_0xc9f0f8_8_S_0xc81e72_2_M_14_L_2", "trainable": true, "dtype": "float32", "rate": 0.25, "noise_shape": null, "seed": null}, "inbound_nodes": [[["BP_0xc9f0f8_8_S_0xc81e72_2_M_14_L_1", 0, 0, {}]]]}, {"name": "concatenate_92", "class_name": "Concatenate", "config": {"name": "concatenate_92", "trainable": true, "dtype": "float32", "axis": -1}, "inbound_nodes": [[["BP_0xc9f0f8_8_S_0xc81e72_2_M_9_L_2", 0, 0, {}], ["BP_0xc9f0f8_8_S_0xc81e72_2_M_14_L_2", 0, 0, {}]]]}, {"name": "BP_0xc9f0f8_8_S_0xc81e72_2_M_6_L_0", "class_name": "BatchNormalization", "config": {"name": "BP_0xc9f0f8_8_S_0xc81e72_2_M_6_L_0", "trainable": true, "dtype": "float32", "axis": -1, "momentum": 0.9, "epsilon": 1e-05, "center": true, "scale": true, "beta_initializer": {"class_name": "Zeros", "config": {}}, "gamma_initializer": {"class_name": "Ones", "config": {}}, "moving_mean_initializer": {"class_name": "Zeros", "config": {}}, "moving_variance_initializer": {"class_name": "Ones", "config": {}}, "beta_regularizer": null, "gamma_regularizer": null, "beta_constraint": null, "gamma_constraint": null}, "inbound_nodes": [[["concatenate_92", 0, 0, {}]]]}, {"name": "BP_0xc9f0f8_8_S_0xc81e72_2_M_10_L_0", "class_name": "BatchNormalization", "config": {"name": "BP_0xc9f0f8_8_S_0xc81e72_2_M_10_L_0", "trainable": true, "dtype": "float32", "axis": -1, "momentum": 0.9, "epsilon": 1e-05, "center": true, "scale": true, "beta_initializer": {"class_name": "Zeros", "config": {}}, "gamma_initializer": {"class_name": "Ones", "config": {}}, "moving_mean_initializer": {"class_name": "Zeros", "config": {}}, "moving_variance_initializer": {"class_name": "Ones", "config": {}}, "beta_regularizer": null, "gamma_regularizer": null, "beta_constraint": null, "gamma_constraint": null}, "inbound_nodes": [[["concatenate_86", 0, 0, {}]]]}, {"name": "BP_0xc9f0f8_8_S_0xc81e72_2_M_6_L_1", "class_name": "Dense", "config": {"name": "BP_0xc9f0f8_8_S_0xc81e72_2_M_6_L_1", "trainable": true, "dtype": "float32", "units": 64, "activation": "linear", "use_bias": true, "kernel_initializer": {"class_name": "VarianceScaling", "config": {"scale": 2.0, "mode": "fan_in", "distribution": "normal", "seed": null}}, "bias_initializer": {"class_name": "Zeros", "config": {}}, "kernel_regularizer": {"class_name": "L1L2", "config": {"l1": 0.0, "l2": 0.0002500000118743628}}, "bias_regularizer": null, "activity_regularizer": null, "kernel_constraint": null, "bias_constraint": null}, "inbound_nodes": [[["BP_0xc9f0f8_8_S_0xc81e72_2_M_6_L_0", 0, 0, {}]]]}, {"name": "BP_0xc9f0f8_8_S_0xc81e72_2_M_10_L_1", "class_name": "Dense", "config": {"name": "BP_0xc9f0f8_8_S_0xc81e72_2_M_10_L_1", "trainable": true, "dtype": "float32", "units": 64, "activation": "linear", "use_bias": true, "kernel_initializer": {"class_name": "VarianceScaling", "config": {"scale": 2.0, "mode": "fan_in", "distribution": "normal", "seed": null}}, "bias_initializer": {"class_name": "Zeros", "config": {}}, "kernel_regularizer": {"class_name": "L1L2", "config": {"l1": 0.0, "l2": 0.0002500000118743628}}, "bias_regularizer": null, "activity_regularizer": null, "kernel_constraint": null, "bias_constraint": null}, "inbound_nodes": [[["BP_0xc9f0f8_8_S_0xc81e72_2_M_10_L_0", 0, 0, {}]]]}, {"name": "BP_0xc9f0f8_8_S_0xc81e72_2_M_6_L_2", "class_name": "Activation", "config": {"name": "BP_0xc9f0f8_8_S_0xc81e72_2_M_6_L_2", "trainable": true, "dtype": "float32", "activation": "relu"}, "inbound_nodes": [[["BP_0xc9f0f8_8_S_0xc81e72_2_M_6_L_1", 0, 0, {}]]]}, {"name": "BP_0xc9f0f8_8_S_0xc81e72_2_M_10_L_2", "class_name": "Activation", "config": {"name": "BP_0xc9f0f8_8_S_0xc81e72_2_M_10_L_2", "trainable": true, "dtype": "float32", "activation": "relu"}, "inbound_nodes": [[["BP_0xc9f0f8_8_S_0xc81e72_2_M_10_L_1", 0, 0, {}]]]}, {"name": "concatenate_93", "class_name": "Concatenate", "config": {"name": "concatenate_93", "trainable": true, "dtype": "float32", "axis": -1}, "inbound_nodes": [[["BP_0xc9f0f8_8_S_0xc81e72_2_M_6_L_2", 0, 0, {}], ["BP_0xc9f0f8_8_S_0xc81e72_2_M_10_L_2", 0, 0, {}], ["concatenate_86", 0, 0, {}]]]}, {"name": "BP_0xc20ad4_12_S_0xc4ca42_1_M_8_L_0", "class_name": "BatchNormalization", "config": {"name": "BP_0xc20ad4_12_S_0xc4ca42_1_M_8_L_0", "trainable": true, "dtype": "float32", "axis": -1, "momentum": 0.9, "epsilon": 1e-05, "center": true, "scale": true, "beta_initializer": {"class_name": "Zeros", "config": {}}, "gamma_initializer": {"class_name": "Ones", "config": {}}, "moving_mean_initializer": {"class_name": "Zeros", "config": {}}, "moving_variance_initializer": {"class_name": "Ones", "config": {}}, "beta_regularizer": null, "gamma_regularizer": null, "beta_constraint": null, "gamma_constraint": null}, "inbound_nodes": [[["concatenate_93", 0, 0, {}]]]}, {"name": "BP_0xc20ad4_12_S_0xc4ca42_1_M_8_L_1", "class_name": "Dense", "config": {"name": "BP_0xc20ad4_12_S_0xc4ca42_1_M_8_L_1", "trainable": true, "dtype": "float32", "units": 64, "activation": "linear", "use_bias": true, "kernel_initializer": {"class_name": "VarianceScaling", "config": {"scale": 2.0, "mode": "fan_in", "distribution": "normal", "seed": null}}, "bias_initializer": {"class_name": "Zeros", "config": {}}, "kernel_regularizer": {"class_name": "L1L2", "config": {"l1": 0.0, "l2": 0.0002500000118743628}}, "bias_regularizer": null, "activity_regularizer": null, "kernel_constraint": null, "bias_constraint": null}, "inbound_nodes": [[["BP_0xc20ad4_12_S_0xc4ca42_1_M_8_L_0", 0, 0, {}]]]}, {"name": "BP_0x45c48c_9_S_0xc4ca42_1_M_8_L_0", "class_name": "BatchNormalization", "config": {"name": "BP_0x45c48c_9_S_0xc4ca42_1_M_8_L_0", "trainable": true, "dtype": "float32", "axis": -1, "momentum": 0.9, "epsilon": 1e-05, "center": true, "scale": true, "beta_initializer": {"class_name": "Zeros", "config": {}}, "gamma_initializer": {"class_name": "Ones", "config": {}}, "moving_mean_initializer": {"class_name": "Zeros", "config": {}}, "moving_variance_initializer": {"class_name": "Ones", "config": {}}, "beta_regularizer": null, "gamma_regularizer": null, "beta_constraint": null, "gamma_constraint": null}, "inbound_nodes": [[["concatenate_86", 0, 0, {}]]]}, {"name": "BP_0xc20ad4_12_S_0xc4ca42_1_M_8_L_2", "class_name": "Activation", "config": {"name": "BP_0xc20ad4_12_S_0xc4ca42_1_M_8_L_2", "trainable": true, "dtype": "float32", "activation": "relu"}, "inbound_nodes": [[["BP_0xc20ad4_12_S_0xc4ca42_1_M_8_L_1", 0, 0, {}]]]}, {"name": "BP_0x45c48c_9_S_0xc4ca42_1_M_8_L_1", "class_name": "Dense", "config": {"name": "BP_0x45c48c_9_S_0xc4ca42_1_M_8_L_1", "trainable": true, "dtype": "float32", "units": 64, "activation": "linear", "use_bias": true, "kernel_initializer": {"class_name": "VarianceScaling", "config": {"scale": 2.0, "mode": "fan_in", "distribution": "normal", "seed": null}}, "bias_initializer": {"class_name": "Zeros", "config": {}}, "kernel_regularizer": {"class_name": "L1L2", "config": {"l1": 0.0, "l2": 0.0002500000118743628}}, "bias_regularizer": null, "activity_regularizer": null, "kernel_constraint": null, "bias_constraint": null}, "inbound_nodes": [[["BP_0x45c48c_9_S_0xc4ca42_1_M_8_L_0", 0, 0, {}]]]}, {"name": "concatenate_94", "class_name": "Concatenate", "config": {"name": "concatenate_94", "trainable": true, "dtype": "float32", "axis": -1}, "inbound_nodes": [[["BP_0xc20ad4_12_S_0xc4ca42_1_M_8_L_2", 0, 0, {}], ["concatenate_93", 0, 0, {}]]]}, {"name": "BP_0x45c48c_9_S_0xc4ca42_1_M_8_L_2", "class_name": "Activation", "config": {"name": "BP_0x45c48c_9_S_0xc4ca42_1_M_8_L_2", "trainable": true, "dtype": "float32", "activation": "relu"}, "inbound_nodes": [[["BP_0x45c48c_9_S_0xc4ca42_1_M_8_L_1", 0, 0, {}]]]}, {"name": "BP_0xc20ad4_12_S_0xc4ca42_1_M_1_L_0", "class_name": "BatchNormalization", "config": {"name": "BP_0xc20ad4_12_S_0xc4ca42_1_M_1_L_0", "trainable": true, "dtype": "float32", "axis": -1, "momentum": 0.9, "epsilon": 1e-05, "center": true, "scale": true, "beta_initializer": {"class_name": "Zeros", "config": {}}, "gamma_initializer": {"class_name": "Ones", "config": {}}, "moving_mean_initializer": {"class_name": "Zeros", "config": {}}, "moving_variance_initializer": {"class_name": "Ones", "config": {}}, "beta_regularizer": null, "gamma_regularizer": null, "beta_constraint": null, "gamma_constraint": null}, "inbound_nodes": [[["concatenate_94", 0, 0, {}]]]}, {"name": "concatenate_87", "class_name": "Concatenate", "config": {"name": "concatenate_87", "trainable": true, "dtype": "float32", "axis": -1}, "inbound_nodes": [[["BP_0x45c48c_9_S_0xc4ca42_1_M_8_L_2", 0, 0, {}], ["concatenate_86", 0, 0, {}]]]}, {"name": "BP_0xc20ad4_12_S_0xc4ca42_1_M_1_L_1", "class_name": "Dense", "config": {"name": "BP_0xc20ad4_12_S_0xc4ca42_1_M_1_L_1", "trainable": true, "dtype": "float32", "units": 64, "activation": "linear", "use_bias": true, "kernel_initializer": {"class_name": "VarianceScaling", "config": {"scale": 2.0, "mode": "fan_in", "distribution": "normal", "seed": null}}, "bias_initializer": {"class_name": "Zeros", "config": {}}, "kernel_regularizer": {"class_name": "L1L2", "config": {"l1": 0.0, "l2": 0.0002500000118743628}}, "bias_regularizer": null, "activity_regularizer": null, "kernel_constraint": null, "bias_constraint": null}, "inbound_nodes": [[["BP_0xc20ad4_12_S_0xc4ca42_1_M_1_L_0", 0, 0, {}]]]}, {"name": "BP_0x45c48c_9_S_0xc4ca42_1_M_1_L_0", "class_name": "BatchNormalization", "config": {"name": "BP_0x45c48c_9_S_0xc4ca42_1_M_1_L_0", "trainable": true, "dtype": "float32", "axis": -1, "momentum": 0.9, "epsilon": 1e-05, "center": true, "scale": true, "beta_initializer": {"class_name": "Zeros", "config": {}}, "gamma_initializer": {"class_name": "Ones", "config": {}}, "moving_mean_initializer": {"class_name": "Zeros", "config": {}}, "moving_variance_initializer": {"class_name": "Ones", "config": {}}, "beta_regularizer": null, "gamma_regularizer": null, "beta_constraint": null, "gamma_constraint": null}, "inbound_nodes": [[["concatenate_87", 0, 0, {}]]]}, {"name": "BP_0xc20ad4_12_S_0xc4ca42_1_M_1_L_2", "class_name": "Activation", "config": {"name": "BP_0xc20ad4_12_S_0xc4ca42_1_M_1_L_2", "trainable": true, "dtype": "float32", "activation": "relu"}, "inbound_nodes": [[["BP_0xc20ad4_12_S_0xc4ca42_1_M_1_L_1", 0, 0, {}]]]}, {"name": "BP_0x45c48c_9_S_0xc4ca42_1_M_1_L_1", "class_name": "Dense", "config": {"name": "BP_0x45c48c_9_S_0xc4ca42_1_M_1_L_1", "trainable": true, "dtype": "float32", "units": 64, "activation": "linear", "use_bias": true, "kernel_initializer": {"class_name": "VarianceScaling", "config": {"scale": 2.0, "mode": "fan_in", "distribution": "normal", "seed": null}}, "bias_initializer": {"class_name": "Zeros", "config": {}}, "kernel_regularizer": {"class_name": "L1L2", "config": {"l1": 0.0, "l2": 0.0002500000118743628}}, "bias_regularizer": null, "activity_regularizer": null, "kernel_constraint": null, "bias_constraint": null}, "inbound_nodes": [[["BP_0x45c48c_9_S_0xc4ca42_1_M_1_L_0", 0, 0, {}]]]}, {"name": "BP_0xc20ad4_12_S_0xc4ca42_1_M_7_L_0", "class_name": "Dense", "config": {"name": "BP_0xc20ad4_12_S_0xc4ca42_1_M_7_L_0", "trainable": true, "dtype": "float32", "units": 64, "activation": "linear", "use_bias": true, "kernel_initializer": {"class_name": "VarianceScaling", "config": {"scale": 2.0, "mode": "fan_in", "distribution": "normal", "seed": null}}, "bias_initializer": {"class_name": "Zeros", "config": {}}, "kernel_regularizer": {"class_name": "L1L2", "config": {"l1": 0.0, "l2": 0.0002500000118743628}}, "bias_regularizer": null, "activity_regularizer": null, "kernel_constraint": null, "bias_constraint": null}, "inbound_nodes": [[["BP_0xc20ad4_12_S_0xc4ca42_1_M_1_L_2", 0, 0, {}]]]}, {"name": "BP_0x45c48c_9_S_0xc4ca42_1_M_1_L_2", "class_name": "Activation", "config": {"name": "BP_0x45c48c_9_S_0xc4ca42_1_M_1_L_2", "trainable": true, "dtype": "float32", "activation": "relu"}, "inbound_nodes": [[["BP_0x45c48c_9_S_0xc4ca42_1_M_1_L_1", 0, 0, {}]]]}, {"name": "BP_0xc20ad4_12_S_0xc4ca42_1_M_7_L_1", "class_name": "Activation", "config": {"name": "BP_0xc20ad4_12_S_0xc4ca42_1_M_7_L_1", "trainable": true, "dtype": "float32", "activation": "relu"}, "inbound_nodes": [[["BP_0xc20ad4_12_S_0xc4ca42_1_M_7_L_0", 0, 0, {}]]]}, {"name": "BP_0x45c48c_9_S_0xc4ca42_1_M_7_L_0", "class_name": "Dense", "config": {"name": "BP_0x45c48c_9_S_0xc4ca42_1_M_7_L_0", "trainable": true, "dtype": "float32", "units": 64, "activation": "linear", "use_bias": true, "kernel_initializer": {"class_name": "VarianceScaling", "config": {"scale": 2.0, "mode": "fan_in", "distribution": "normal", "seed": null}}, "bias_initializer": {"class_name": "Zeros", "config": {}}, "kernel_regularizer": {"class_name": "L1L2", "config": {"l1": 0.0, "l2": 0.0002500000118743628}}, "bias_regularizer": null, "activity_regularizer": null, "kernel_constraint": null, "bias_constraint": null}, "inbound_nodes": [[["BP_0x45c48c_9_S_0xc4ca42_1_M_1_L_2", 0, 0, {}]]]}, {"name": "BP_0xc20ad4_12_S_0xc4ca42_1_M_7_L_2", "class_name": "Dropout", "config": {"name": "BP_0xc20ad4_12_S_0xc4ca42_1_M_7_L_2", "trainable": true, "dtype": "float32", "rate": 0.25, "noise_shape": null, "seed": null}, "inbound_nodes": [[["BP_0xc20ad4_12_S_0xc4ca42_1_M_7_L_1", 0, 0, {}]]]}, {"name": "BP_0x45c48c_9_S_0xc4ca42_1_M_7_L_1", "class_name": "Activation", "config": {"name": "BP_0x45c48c_9_S_0xc4ca42_1_M_7_L_1", "trainable": true, "dtype": "float32", "activation": "relu"}, "inbound_nodes": [[["BP_0x45c48c_9_S_0xc4ca42_1_M_7_L_0", 0, 0, {}]]]}, {"name": "concatenate_95", "class_name": "Concatenate", "config": {"name": "concatenate_95", "trainable": true, "dtype": "float32", "axis": -1}, "inbound_nodes": [[["BP_0xc20ad4_12_S_0xc4ca42_1_M_1_L_2", 0, 0, {}], ["BP_0xc20ad4_12_S_0xc4ca42_1_M_7_L_2", 0, 0, {}]]]}, {"name": "BP_0x45c48c_9_S_0xc4ca42_1_M_7_L_2", "class_name": "Dropout", "config": {"name": "BP_0x45c48c_9_S_0xc4ca42_1_M_7_L_2", "trainable": true, "dtype": "float32", "rate": 0.25, "noise_shape": null, "seed": null}, "inbound_nodes": [[["BP_0x45c48c_9_S_0xc4ca42_1_M_7_L_1", 0, 0, {}]]]}, {"name": "BP_0xc20ad4_12_S_0xc4ca42_1_M_2_L_0", "class_name": "BatchNormalization", "config": {"name": "BP_0xc20ad4_12_S_0xc4ca42_1_M_2_L_0", "trainable": true, "dtype": "float32", "axis": -1, "momentum": 0.9, "epsilon": 1e-05, "center": true, "scale": true, "beta_initializer": {"class_name": "Zeros", "config": {}}, "gamma_initializer": {"class_name": "Ones", "config": {}}, "moving_mean_initializer": {"class_name": "Zeros", "config": {}}, "moving_variance_initializer": {"class_name": "Ones", "config": {}}, "beta_regularizer": null, "gamma_regularizer": null, "beta_constraint": null, "gamma_constraint": null}, "inbound_nodes": [[["concatenate_95", 0, 0, {}]]]}, {"name": "concatenate_88", "class_name": "Concatenate", "config": {"name": "concatenate_88", "trainable": true, "dtype": "float32", "axis": -1}, "inbound_nodes": [[["BP_0x45c48c_9_S_0xc4ca42_1_M_1_L_2", 0, 0, {}], ["BP_0x45c48c_9_S_0xc4ca42_1_M_7_L_2", 0, 0, {}]]]}, {"name": "BP_0xc20ad4_12_S_0xc4ca42_1_M_2_L_1", "class_name": "Dense", "config": {"name": "BP_0xc20ad4_12_S_0xc4ca42_1_M_2_L_1", "trainable": true, "dtype": "float32", "units": 64, "activation": "linear", "use_bias": true, "kernel_initializer": {"class_name": "VarianceScaling", "config": {"scale": 2.0, "mode": "fan_in", "distribution": "normal", "seed": null}}, "bias_initializer": {"class_name": "Zeros", "config": {}}, "kernel_regularizer": {"class_name": "L1L2", "config": {"l1": 0.0, "l2": 0.0002500000118743628}}, "bias_regularizer": null, "activity_regularizer": null, "kernel_constraint": null, "bias_constraint": null}, "inbound_nodes": [[["BP_0xc20ad4_12_S_0xc4ca42_1_M_2_L_0", 0, 0, {}]]]}, {"name": "BP_0x45c48c_9_S_0xc4ca42_1_M_2_L_0", "class_name": "BatchNormalization", "config": {"name": "BP_0x45c48c_9_S_0xc4ca42_1_M_2_L_0", "trainable": true, "dtype": "float32", "axis": -1, "momentum": 0.9, "epsilon": 1e-05, "center": true, "scale": true, "beta_initializer": {"class_name": "Zeros", "config": {}}, "gamma_initializer": {"class_name": "Ones", "config": {}}, "moving_mean_initializer": {"class_name": "Zeros", "config": {}}, "moving_variance_initializer": {"class_name": "Ones", "config": {}}, "beta_regularizer": null, "gamma_regularizer": null, "beta_constraint": null, "gamma_constraint": null}, "inbound_nodes": [[["concatenate_88", 0, 0, {}]]]}, {"name": "BP_0xc20ad4_12_S_0xc4ca42_1_M_2_L_2", "class_name": "Activation", "config": {"name": "BP_0xc20ad4_12_S_0xc4ca42_1_M_2_L_2", "trainable": true, "dtype": "float32", "activation": "relu"}, "inbound_nodes": [[["BP_0xc20ad4_12_S_0xc4ca42_1_M_2_L_1", 0, 0, {}]]]}, {"name": "BP_0x45c48c_9_S_0xc4ca42_1_M_2_L_1", "class_name": "Dense", "config": {"name": "BP_0x45c48c_9_S_0xc4ca42_1_M_2_L_1", "trainable": true, "dtype": "float32", "units": 64, "activation": "linear", "use_bias": true, "kernel_initializer": {"class_name": "VarianceScaling", "config": {"scale": 2.0, "mode": "fan_in", "distribution": "normal", "seed": null}}, "bias_initializer": {"class_name": "Zeros", "config": {}}, "kernel_regularizer": {"class_name": "L1L2", "config": {"l1": 0.0, "l2": 0.0002500000118743628}}, "bias_regularizer": null, "activity_regularizer": null, "kernel_constraint": null, "bias_constraint": null}, "inbound_nodes": [[["BP_0x45c48c_9_S_0xc4ca42_1_M_2_L_0", 0, 0, {}]]]}, {"name": "concatenate_96", "class_name": "Concatenate", "config": {"name": "concatenate_96", "trainable": true, "dtype": "float32", "axis": -1}, "inbound_nodes": [[["BP_0xc20ad4_12_S_0xc4ca42_1_M_1_L_2", 0, 0, {}], ["BP_0xc20ad4_12_S_0xc4ca42_1_M_2_L_2", 0, 0, {}], ["concatenate_93", 0, 0, {}]]]}, {"name": "BP_0x45c48c_9_S_0xc4ca42_1_M_2_L_2", "class_name": "Activation", "config": {"name": "BP_0x45c48c_9_S_0xc4ca42_1_M_2_L_2", "trainable": true, "dtype": "float32", "activation": "relu"}, "inbound_nodes": [[["BP_0x45c48c_9_S_0xc4ca42_1_M_2_L_1", 0, 0, {}]]]}, {"name": "concatenate_97", "class_name": "Concatenate", "config": {"name": "concatenate_97", "trainable": true, "dtype": "float32", "axis": -1}, "inbound_nodes": [[["concatenate_86", 0, 0, {}], ["concatenate_96", 0, 0, {}]]]}, {"name": "concatenate_89", "class_name": "Concatenate", "config": {"name": "concatenate_89", "trainable": true, "dtype": "float32", "axis": -1}, "inbound_nodes": [[["BP_0x45c48c_9_S_0xc4ca42_1_M_1_L_2", 0, 0, {}], ["BP_0x45c48c_9_S_0xc4ca42_1_M_2_L_2", 0, 0, {}], ["concatenate_86", 0, 0, {}]]]}, {"name": "BP_0x8f14e4_7_S_0xc4ca42_1_M_8_L_0", "class_name": "BatchNormalization", "config": {"name": "BP_0x8f14e4_7_S_0xc4ca42_1_M_8_L_0", "trainable": true, "dtype": "float32", "axis": -1, "momentum": 0.9, "epsilon": 1e-05, "center": true, "scale": true, "beta_initializer": {"class_name": "Zeros", "config": {}}, "gamma_initializer": {"class_name": "Ones", "config": {}}, "moving_mean_initializer": {"class_name": "Zeros", "config": {}}, "moving_variance_initializer": {"class_name": "Ones", "config": {}}, "beta_regularizer": null, "gamma_regularizer": null, "beta_constraint": null, "gamma_constraint": null}, "inbound_nodes": [[["concatenate_97", 0, 0, {}]]]}, {"name": "BP_0xc81e72_2_S_0xc81e72_2_M_4_L_0", "class_name": "Dense", "config": {"name": "BP_0xc81e72_2_S_0xc81e72_2_M_4_L_0", "trainable": true, "dtype": "float32", "units": 64, "activation": "linear", "use_bias": true, "kernel_initializer": {"class_name": "VarianceScaling", "config": {"scale": 2.0, "mode": "fan_in", "distribution": "normal", "seed": null}}, "bias_initializer": {"class_name": "Zeros", "config": {}}, "kernel_regularizer": {"class_name": "L1L2", "config": {"l1": 0.0, "l2": 0.0002500000118743628}}, "bias_regularizer": null, "activity_regularizer": null, "kernel_constraint": null, "bias_constraint": null}, "inbound_nodes": [[["concatenate_89", 0, 0, {}]]]}, {"name": "BP_0x8f14e4_7_S_0xc4ca42_1_M_8_L_1", "class_name": "Dense", "config": {"name": "BP_0x8f14e4_7_S_0xc4ca42_1_M_8_L_1", "trainable": true, "dtype": "float32", "units": 64, "activation": "linear", "use_bias": true, "kernel_initializer": {"class_name": "VarianceScaling", "config": {"scale": 2.0, "mode": "fan_in", "distribution": "normal", "seed": null}}, "bias_initializer": {"class_name": "Zeros", "config": {}}, "kernel_regularizer": {"class_name": "L1L2", "config": {"l1": 0.0, "l2": 0.0002500000118743628}}, "bias_regularizer": null, "activity_regularizer": null, "kernel_constraint": null, "bias_constraint": null}, "inbound_nodes": [[["BP_0x8f14e4_7_S_0xc4ca42_1_M_8_L_0", 0, 0, {}]]]}, {"name": "BP_0xc81e72_2_S_0xc81e72_2_M_4_L_1", "class_name": "Activation", "config": {"name": "BP_0xc81e72_2_S_0xc81e72_2_M_4_L_1", "trainable": true, "dtype": "float32", "activation": "relu"}, "inbound_nodes": [[["BP_0xc81e72_2_S_0xc81e72_2_M_4_L_0", 0, 0, {}]]]}, {"name": "BP_0x8f14e4_7_S_0xc4ca42_1_M_8_L_2", "class_name": "Activation", "config": {"name": "BP_0x8f14e4_7_S_0xc4ca42_1_M_8_L_2", "trainable": true, "dtype": "float32", "activation": "relu"}, "inbound_nodes": [[["BP_0x8f14e4_7_S_0xc4ca42_1_M_8_L_1", 0, 0, {}]]]}, {"name": "BP_0xc81e72_2_S_0xc81e72_2_M_4_L_2", "class_name": "Dropout", "config": {"name": "BP_0xc81e72_2_S_0xc81e72_2_M_4_L_2", "trainable": true, "dtype": "float32", "rate": 0.25, "noise_shape": null, "seed": null}, "inbound_nodes": [[["BP_0xc81e72_2_S_0xc81e72_2_M_4_L_1", 0, 0, {}]]]}, {"name": "concatenate_98", "class_name": "Concatenate", "config": {"name": "concatenate_98", "trainable": true, "dtype": "float32", "axis": -1}, "inbound_nodes": [[["BP_0x8f14e4_7_S_0xc4ca42_1_M_8_L_2", 0, 0, {}], ["concatenate_97", 0, 0, {}]]]}, {"name": "BP_0xc81e72_2_S_0xc81e72_2_M_9_L_0", "class_name": "Dense", "config": {"name": "BP_0xc81e72_2_S_0xc81e72_2_M_9_L_0", "trainable": true, "dtype": "float32", "units": 64, "activation": "linear", "use_bias": true, "kernel_initializer": {"class_name": "VarianceScaling", "config": {"scale": 2.0, "mode": "fan_in", "distribution": "normal", "seed": null}}, "bias_initializer": {"class_name": "Zeros", "config": {}}, "kernel_regularizer": {"class_name": "L1L2", "config": {"l1": 0.0, "l2": 0.0002500000118743628}}, "bias_regularizer": null, "activity_regularizer": null, "kernel_constraint": null, "bias_constraint": null}, "inbound_nodes": [[["BP_0xc81e72_2_S_0xc81e72_2_M_4_L_2", 0, 0, {}]]]}, {"name": "BP_0x8f14e4_7_S_0xc4ca42_1_M_1_L_0", "class_name": "BatchNormalization", "config": {"name": "BP_0x8f14e4_7_S_0xc4ca42_1_M_1_L_0", "trainable": true, "dtype": "float32", "axis": -1, "momentum": 0.9, "epsilon": 1e-05, "center": true, "scale": true, "beta_initializer": {"class_name": "Zeros", "config": {}}, "gamma_initializer": {"class_name": "Ones", "config": {}}, "moving_mean_initializer": {"class_name": "Zeros", "config": {}}, "moving_variance_initializer": {"class_name": "Ones", "config": {}}, "beta_regularizer": null, "gamma_regularizer": null, "beta_constraint": null, "gamma_constraint": null}, "inbound_nodes": [[["concatenate_98", 0, 0, {}]]]}, {"name": "BP_0xc81e72_2_S_0xc81e72_2_M_9_L_1", "class_name": "Activation", "config": {"name": "BP_0xc81e72_2_S_0xc81e72_2_M_9_L_1", "trainable": true, "dtype": "float32", "activation": "relu"}, "inbound_nodes": [[["BP_0xc81e72_2_S_0xc81e72_2_M_9_L_0", 0, 0, {}]]]}, {"name": "BP_0x8f14e4_7_S_0xc4ca42_1_M_1_L_1", "class_name": "Dense", "config": {"name": "BP_0x8f14e4_7_S_0xc4ca42_1_M_1_L_1", "trainable": true, "dtype": "float32", "units": 64, "activation": "linear", "use_bias": true, "kernel_initializer": {"class_name": "VarianceScaling", "config": {"scale": 2.0, "mode": "fan_in", "distribution": "normal", "seed": null}}, "bias_initializer": {"class_name": "Zeros", "config": {}}, "kernel_regularizer": {"class_name": "L1L2", "config": {"l1": 0.0, "l2": 0.0002500000118743628}}, "bias_regularizer": null, "activity_regularizer": null, "kernel_constraint": null, "bias_constraint": null}, "inbound_nodes": [[["BP_0x8f14e4_7_S_0xc4ca42_1_M_1_L_0", 0, 0, {}]]]}, {"name": "BP_0xc81e72_2_S_0xc81e72_2_M_9_L_2", "class_name": "Dropout", "config": {"name": "BP_0xc81e72_2_S_0xc81e72_2_M_9_L_2", "trainable": true, "dtype": "float32", "rate": 0.25, "noise_shape": null, "seed": null}, "inbound_nodes": [[["BP_0xc81e72_2_S_0xc81e72_2_M_9_L_1", 0, 0, {}]]]}, {"name": "BP_0x8f14e4_7_S_0xc4ca42_1_M_1_L_2", "class_name": "Activation", "config": {"name": "BP_0x8f14e4_7_S_0xc4ca42_1_M_1_L_2", "trainable": true, "dtype": "float32", "activation": "relu"}, "inbound_nodes": [[["BP_0x8f14e4_7_S_0xc4ca42_1_M_1_L_1", 0, 0, {}]]]}, {"name": "BP_0xc81e72_2_S_0xc81e72_2_M_14_L_0", "class_name": "Dense", "config": {"name": "BP_0xc81e72_2_S_0xc81e72_2_M_14_L_0", "trainable": true, "dtype": "float32", "units": 64, "activation": "linear", "use_bias": true, "kernel_initializer": {"class_name": "VarianceScaling", "config": {"scale": 2.0, "mode": "fan_in", "distribution": "normal", "seed": null}}, "bias_initializer": {"class_name": "Zeros", "config": {}}, "kernel_regularizer": {"class_name": "L1L2", "config": {"l1": 0.0, "l2": 0.0002500000118743628}}, "bias_regularizer": null, "activity_regularizer": null, "kernel_constraint": null, "bias_constraint": null}, "inbound_nodes": [[["BP_0xc81e72_2_S_0xc81e72_2_M_9_L_2", 0, 0, {}]]]}, {"name": "BP_0x8f14e4_7_S_0xc4ca42_1_M_7_L_0", "class_name": "Dense", "config": {"name": "BP_0x8f14e4_7_S_0xc4ca42_1_M_7_L_0", "trainable": true, "dtype": "float32", "units": 64, "activation": "linear", "use_bias": true, "kernel_initializer": {"class_name": "VarianceScaling", "config": {"scale": 2.0, "mode": "fan_in", "distribution": "normal", "seed": null}}, "bias_initializer": {"class_name": "Zeros", "config": {}}, "kernel_regularizer": {"class_name": "L1L2", "config": {"l1": 0.0, "l2": 0.0002500000118743628}}, "bias_regularizer": null, "activity_regularizer": null, "kernel_constraint": null, "bias_constraint": null}, "inbound_nodes": [[["BP_0x8f14e4_7_S_0xc4ca42_1_M_1_L_2", 0, 0, {}]]]}, {"name": "BP_0xc81e72_2_S_0xc81e72_2_M_14_L_1", "class_name": "Activation", "config": {"name": "BP_0xc81e72_2_S_0xc81e72_2_M_14_L_1", "trainable": true, "dtype": "float32", "activation": "relu"}, "inbound_nodes": [[["BP_0xc81e72_2_S_0xc81e72_2_M_14_L_0", 0, 0, {}]]]}, {"name": "BP_0x8f14e4_7_S_0xc4ca42_1_M_7_L_1", "class_name": "Activation", "config": {"name": "BP_0x8f14e4_7_S_0xc4ca42_1_M_7_L_1", "trainable": true, "dtype": "float32", "activation": "relu"}, "inbound_nodes": [[["BP_0x8f14e4_7_S_0xc4ca42_1_M_7_L_0", 0, 0, {}]]]}, {"name": "BP_0xc81e72_2_S_0xc81e72_2_M_14_L_2", "class_name": "Dropout", "config": {"name": "BP_0xc81e72_2_S_0xc81e72_2_M_14_L_2", "trainable": true, "dtype": "float32", "rate": 0.25, "noise_shape": null, "seed": null}, "inbound_nodes": [[["BP_0xc81e72_2_S_0xc81e72_2_M_14_L_1", 0, 0, {}]]]}, {"name": "BP_0x8f14e4_7_S_0xc4ca42_1_M_7_L_2", "class_name": "Dropout", "config": {"name": "BP_0x8f14e4_7_S_0xc4ca42_1_M_7_L_2", "trainable": true, "dtype": "float32", "rate": 0.25, "noise_shape": null, "seed": null}, "inbound_nodes": [[["BP_0x8f14e4_7_S_0xc4ca42_1_M_7_L_1", 0, 0, {}]]]}, {"name": "concatenate_90", "class_name": "Concatenate", "config": {"name": "concatenate_90", "trainable": true, "dtype": "float32", "axis": -1}, "inbound_nodes": [[["BP_0xc81e72_2_S_0xc81e72_2_M_9_L_2", 0, 0, {}], ["BP_0xc81e72_2_S_0xc81e72_2_M_14_L_2", 0, 0, {}]]]}, {"name": "concatenate_99", "class_name": "Concatenate", "config": {"name": "concatenate_99", "trainable": true, "dtype": "float32", "axis": -1}, "inbound_nodes": [[["BP_0x8f14e4_7_S_0xc4ca42_1_M_1_L_2", 0, 0, {}], ["BP_0x8f14e4_7_S_0xc4ca42_1_M_7_L_2", 0, 0, {}]]]}, {"name": "BP_0xc81e72_2_S_0xc81e72_2_M_6_L_0", "class_name": "BatchNormalization", "config": {"name": "BP_0xc81e72_2_S_0xc81e72_2_M_6_L_0", "trainable": true, "dtype": "float32", "axis": -1, "momentum": 0.9, "epsilon": 1e-05, "center": true, "scale": true, "beta_initializer": {"class_name": "Zeros", "config": {}}, "gamma_initializer": {"class_name": "Ones", "config": {}}, "moving_mean_initializer": {"class_name": "Zeros", "config": {}}, "moving_variance_initializer": {"class_name": "Ones", "config": {}}, "beta_regularizer": null, "gamma_regularizer": null, "beta_constraint": null, "gamma_constraint": null}, "inbound_nodes": [[["concatenate_90", 0, 0, {}]]]}, {"name": "BP_0xc81e72_2_S_0xc81e72_2_M_10_L_0", "class_name": "BatchNormalization", "config": {"name": "BP_0xc81e72_2_S_0xc81e72_2_M_10_L_0", "trainable": true, "dtype": "float32", "axis": -1, "momentum": 0.9, "epsilon": 1e-05, "center": true, "scale": true, "beta_initializer": {"class_name": "Zeros", "config": {}}, "gamma_initializer": {"class_name": "Ones", "config": {}}, "moving_mean_initializer": {"class_name": "Zeros", "config": {}}, "moving_variance_initializer": {"class_name": "Ones", "config": {}}, "beta_regularizer": null, "gamma_regularizer": null, "beta_constraint": null, "gamma_constraint": null}, "inbound_nodes": [[["concatenate_89", 0, 0, {}]]]}, {"name": "BP_0x8f14e4_7_S_0xc4ca42_1_M_2_L_0", "class_name": "BatchNormalization", "config": {"name": "BP_0x8f14e4_7_S_0xc4ca42_1_M_2_L_0", "trainable": true, "dtype": "float32", "axis": -1, "momentum": 0.9, "epsilon": 1e-05, "center": true, "scale": true, "beta_initializer": {"class_name": "Zeros", "config": {}}, "gamma_initializer": {"class_name": "Ones", "config": {}}, "moving_mean_initializer": {"class_name": "Zeros", "config": {}}, "moving_variance_initializer": {"class_name": "Ones", "config": {}}, "beta_regularizer": null, "gamma_regularizer": null, "beta_constraint": null, "gamma_constraint": null}, "inbound_nodes": [[["concatenate_99", 0, 0, {}]]]}, {"name": "BP_0xc81e72_2_S_0xc81e72_2_M_6_L_1", "class_name": "Dense", "config": {"name": "BP_0xc81e72_2_S_0xc81e72_2_M_6_L_1", "trainable": true, "dtype": "float32", "units": 64, "activation": "linear", "use_bias": true, "kernel_initializer": {"class_name": "VarianceScaling", "config": {"scale": 2.0, "mode": "fan_in", "distribution": "normal", "seed": null}}, "bias_initializer": {"class_name": "Zeros", "config": {}}, "kernel_regularizer": {"class_name": "L1L2", "config": {"l1": 0.0, "l2": 0.0002500000118743628}}, "bias_regularizer": null, "activity_regularizer": null, "kernel_constraint": null, "bias_constraint": null}, "inbound_nodes": [[["BP_0xc81e72_2_S_0xc81e72_2_M_6_L_0", 0, 0, {}]]]}, {"name": "BP_0xc81e72_2_S_0xc81e72_2_M_10_L_1", "class_name": "Dense", "config": {"name": "BP_0xc81e72_2_S_0xc81e72_2_M_10_L_1", "trainable": true, "dtype": "float32", "units": 64, "activation": "linear", "use_bias": true, "kernel_initializer": {"class_name": "VarianceScaling", "config": {"scale": 2.0, "mode": "fan_in", "distribution": "normal", "seed": null}}, "bias_initializer": {"class_name": "Zeros", "config": {}}, "kernel_regularizer": {"class_name": "L1L2", "config": {"l1": 0.0, "l2": 0.0002500000118743628}}, "bias_regularizer": null, "activity_regularizer": null, "kernel_constraint": null, "bias_constraint": null}, "inbound_nodes": [[["BP_0xc81e72_2_S_0xc81e72_2_M_10_L_0", 0, 0, {}]]]}, {"name": "BP_0x8f14e4_7_S_0xc4ca42_1_M_2_L_1", "class_name": "Dense", "config": {"name": "BP_0x8f14e4_7_S_0xc4ca42_1_M_2_L_1", "trainable": true, "dtype": "float32", "units": 64, "activation": "linear", "use_bias": true, "kernel_initializer": {"class_name": "VarianceScaling", "config": {"scale": 2.0, "mode": "fan_in", "distribution": "normal", "seed": null}}, "bias_initializer": {"class_name": "Zeros", "config": {}}, "kernel_regularizer": {"class_name": "L1L2", "config": {"l1": 0.0, "l2": 0.0002500000118743628}}, "bias_regularizer": null, "activity_regularizer": null, "kernel_constraint": null, "bias_constraint": null}, "inbound_nodes": [[["BP_0x8f14e4_7_S_0xc4ca42_1_M_2_L_0", 0, 0, {}]]]}, {"name": "BP_0xc81e72_2_S_0xc81e72_2_M_6_L_2", "class_name": "Activation", "config": {"name": "BP_0xc81e72_2_S_0xc81e72_2_M_6_L_2", "trainable": true, "dtype": "float32", "activation": "relu"}, "inbound_nodes": [[["BP_0xc81e72_2_S_0xc81e72_2_M_6_L_1", 0, 0, {}]]]}, {"name": "BP_0xc81e72_2_S_0xc81e72_2_M_10_L_2", "class_name": "Activation", "config": {"name": "BP_0xc81e72_2_S_0xc81e72_2_M_10_L_2", "trainable": true, "dtype": "float32", "activation": "relu"}, "inbound_nodes": [[["BP_0xc81e72_2_S_0xc81e72_2_M_10_L_1", 0, 0, {}]]]}, {"name": "BP_0x8f14e4_7_S_0xc4ca42_1_M_2_L_2", "class_name": "Activation", "config": {"name": "BP_0x8f14e4_7_S_0xc4ca42_1_M_2_L_2", "trainable": true, "dtype": "float32", "activation": "relu"}, "inbound_nodes": [[["BP_0x8f14e4_7_S_0xc4ca42_1_M_2_L_1", 0, 0, {}]]]}, {"name": "concatenate_91", "class_name": "Concatenate", "config": {"name": "concatenate_91", "trainable": true, "dtype": "float32", "axis": -1}, "inbound_nodes": [[["BP_0xc81e72_2_S_0xc81e72_2_M_6_L_2", 0, 0, {}], ["BP_0xc81e72_2_S_0xc81e72_2_M_10_L_2", 0, 0, {}], ["concatenate_89", 0, 0, {}]]]}, {"name": "concatenate_100", "class_name": "Concatenate", "config": {"name": "concatenate_100", "trainable": true, "dtype": "float32", "axis": -1}, "inbound_nodes": [[["BP_0x8f14e4_7_S_0xc4ca42_1_M_1_L_2", 0, 0, {}], ["BP_0x8f14e4_7_S_0xc4ca42_1_M_2_L_2", 0, 0, {}], ["concatenate_97", 0, 0, {}]]]}, {"name": "concatenate_101", "class_name": "Concatenate", "config": {"name": "concatenate_101", "trainable": true, "dtype": "float32", "axis": -1}, "inbound_nodes": [[["input_5", 0, 0, {}], ["concatenate_91", 0, 0, {}], ["concatenate_100", 0, 0, {}]]]}, {"name": "dense_5", "class_name": "Dense", "config": {"name": "dense_5", "trainable": true, "dtype": "float32", "units": 2, "activation": "linear", "use_bias": true, "kernel_initializer": {"class_name": "VarianceScaling", "config": {"scale": 1.0, "mode": "fan_avg", "distribution": "uniform", "seed": null}}, "bias_initializer": {"class_name": "Zeros", "config": {}}, "kernel_regularizer": null, "bias_regularizer": null, "activity_regularizer": null, "kernel_constraint": null, "bias_constraint": null}, "inbound_nodes": [[["concatenate_101", 0, 0, {}]]]}, {"name": "activation_5", "class_name": "Activation", "config": {"name": "activation_5", "trainable": true, "dtype": "float32", "activation": "softmax"}, "inbound_nodes": [[["dense_5", 0, 0, {}]]]}], "input_layers": [["input_5", 0, 0]], "output_layers": [["activation_5", 0, 0]]}, "keras_version": "2.2.5", "backend": "tensorflow"}