{"class_name": "Model", "config": {"name": "model_31", "layers": [{"name": "input_31", "class_name": "InputLayer", "config": {"batch_input_shape": [null, 143], "dtype": "float32", "sparse": false, "name": "input_31"}, "inbound_nodes": []}, {"name": "BP_0xa87ff6_4_S_0xc81e72_2_M_4_L_0", "class_name": "Dense", "config": {"name": "BP_0xa87ff6_4_S_0xc81e72_2_M_4_L_0", "trainable": true, "dtype": "float32", "units": 64, "activation": "linear", "use_bias": true, "kernel_initializer": {"class_name": "VarianceScaling", "config": {"scale": 2.0, "mode": "fan_in", "distribution": "normal", "seed": null}}, "bias_initializer": {"class_name": "Zeros", "config": {}}, "kernel_regularizer": {"class_name": "L1L2", "config": {"l1": 0.0, "l2": 0.0002500000118743628}}, "bias_regularizer": null, "activity_regularizer": null, "kernel_constraint": null, "bias_constraint": null}, "inbound_nodes": [[["input_31", 0, 0, {}]]]}, {"name": "BP_0xa87ff6_4_S_0xc81e72_2_M_4_L_1", "class_name": "Activation", "config": {"name": "BP_0xa87ff6_4_S_0xc81e72_2_M_4_L_1", "trainable": true, "dtype": "float32", "activation": "relu"}, "inbound_nodes": [[["BP_0xa87ff6_4_S_0xc81e72_2_M_4_L_0", 0, 0, {}]]]}, {"name": "BP_0xa87ff6_4_S_0xc81e72_2_M_4_L_2", "class_name": "Dropout", "config": {"name": "BP_0xa87ff6_4_S_0xc81e72_2_M_4_L_2", "trainable": true, "dtype": "float32", "rate": 0.25, "noise_shape": null, "seed": null}, "inbound_nodes": [[["BP_0xa87ff6_4_S_0xc81e72_2_M_4_L_1", 0, 0, {}]]]}, {"name": "BP_0xa87ff6_4_S_0xc81e72_2_M_9_L_0", "class_name": "BatchNormalization", "config": {"name": "BP_0xa87ff6_4_S_0xc81e72_2_M_9_L_0", "trainable": true, "dtype": "float32", "axis": -1, "momentum": 0.9, "epsilon": 1e-05, "center": true, "scale": true, "beta_initializer": {"class_name": "Zeros", "config": {}}, "gamma_initializer": {"class_name": "Ones", "config": {}}, "moving_mean_initializer": {"class_name": "Zeros", "config": {}}, "moving_variance_initializer": {"class_name": "Ones", "config": {}}, "beta_regularizer": null, "gamma_regularizer": null, "beta_constraint": null, "gamma_constraint": null}, "inbound_nodes": [[["BP_0xa87ff6_4_S_0xc81e72_2_M_4_L_2", 0, 0, {}]]]}, {"name": "BP_0xa87ff6_4_S_0xc81e72_2_M_9_L_1", "class_name": "Dense", "config": {"name": "BP_0xa87ff6_4_S_0xc81e72_2_M_9_L_1", "trainable": true, "dtype": "float32", "units": 64, "activation": "linear", "use_bias": true, "kernel_initializer": {"class_name": "VarianceScaling", "config": {"scale": 2.0, "mode": "fan_in", "distribution": "normal", "seed": null}}, "bias_initializer": {"class_name": "Zeros", "config": {}}, "kernel_regularizer": {"class_name": "L1L2", "config": {"l1": 0.0, "l2": 0.0002500000118743628}}, "bias_regularizer": null, "activity_regularizer": null, "kernel_constraint": null, "bias_constraint": null}, "inbound_nodes": [[["BP_0xa87ff6_4_S_0xc81e72_2_M_9_L_0", 0, 0, {}]]]}, {"name": "BP_0xa87ff6_4_S_0xc81e72_2_M_9_L_2", "class_name": "Activation", "config": {"name": "BP_0xa87ff6_4_S_0xc81e72_2_M_9_L_2", "trainable": true, "dtype": "float32", "activation": "relu"}, "inbound_nodes": [[["BP_0xa87ff6_4_S_0xc81e72_2_M_9_L_1", 0, 0, {}]]]}, {"name": "BP_0xa87ff6_4_S_0xc81e72_2_M_14_L_0", "class_name": "Dense", "config": {"name": "BP_0xa87ff6_4_S_0xc81e72_2_M_14_L_0", "trainable": true, "dtype": "float32", "units": 64, "activation": "linear", "use_bias": true, "kernel_initializer": {"class_name": "VarianceScaling", "config": {"scale": 2.0, "mode": "fan_in", "distribution": "normal", "seed": null}}, "bias_initializer": {"class_name": "Zeros", "config": {}}, "kernel_regularizer": {"class_name": "L1L2", "config": {"l1": 0.0, "l2": 0.0002500000118743628}}, "bias_regularizer": null, "activity_regularizer": null, "kernel_constraint": null, "bias_constraint": null}, "inbound_nodes": [[["BP_0xa87ff6_4_S_0xc81e72_2_M_9_L_2", 0, 0, {}]]]}, {"name": "BP_0xa87ff6_4_S_0xc81e72_2_M_14_L_1", "class_name": "Activation", "config": {"name": "BP_0xa87ff6_4_S_0xc81e72_2_M_14_L_1", "trainable": true, "dtype": "float32", "activation": "relu"}, "inbound_nodes": [[["BP_0xa87ff6_4_S_0xc81e72_2_M_14_L_0", 0, 0, {}]]]}, {"name": "BP_0xa87ff6_4_S_0xc81e72_2_M_14_L_2", "class_name": "Dropout", "config": {"name": "BP_0xa87ff6_4_S_0xc81e72_2_M_14_L_2", "trainable": true, "dtype": "float32", "rate": 0.25, "noise_shape": null, "seed": null}, "inbound_nodes": [[["BP_0xa87ff6_4_S_0xc81e72_2_M_14_L_1", 0, 0, {}]]]}, {"name": "concatenate_622", "class_name": "Concatenate", "config": {"name": "concatenate_622", "trainable": true, "dtype": "float32", "axis": -1}, "inbound_nodes": [[["BP_0xa87ff6_4_S_0xc81e72_2_M_9_L_2", 0, 0, {}], ["BP_0xa87ff6_4_S_0xc81e72_2_M_14_L_2", 0, 0, {}]]]}, {"name": "BP_0xa87ff6_4_S_0xc81e72_2_M_6_L_0", "class_name": "BatchNormalization", "config": {"name": "BP_0xa87ff6_4_S_0xc81e72_2_M_6_L_0", "trainable": true, "dtype": "float32", "axis": -1, "momentum": 0.9, "epsilon": 1e-05, "center": true, "scale": true, "beta_initializer": {"class_name": "Zeros", "config": {}}, "gamma_initializer": {"class_name": "Ones", "config": {}}, "moving_mean_initializer": {"class_name": "Zeros", "config": {}}, "moving_variance_initializer": {"class_name": "Ones", "config": {}}, "beta_regularizer": null, "gamma_regularizer": null, "beta_constraint": null, "gamma_constraint": null}, "inbound_nodes": [[["concatenate_622", 0, 0, {}]]]}, {"name": "BP_0xa87ff6_4_S_0xc81e72_2_M_10_L_0", "class_name": "BatchNormalization", "config": {"name": "BP_0xa87ff6_4_S_0xc81e72_2_M_10_L_0", "trainable": true, "dtype": "float32", "axis": -1, "momentum": 0.9, "epsilon": 1e-05, "center": true, "scale": true, "beta_initializer": {"class_name": "Zeros", "config": {}}, "gamma_initializer": {"class_name": "Ones", "config": {}}, "moving_mean_initializer": {"class_name": "Zeros", "config": {}}, "moving_variance_initializer": {"class_name": "Ones", "config": {}}, "beta_regularizer": null, "gamma_regularizer": null, "beta_constraint": null, "gamma_constraint": null}, "inbound_nodes": [[["input_31", 0, 0, {}]]]}, {"name": "BP_0xa87ff6_4_S_0xc81e72_2_M_6_L_1", "class_name": "Dense", "config": {"name": "BP_0xa87ff6_4_S_0xc81e72_2_M_6_L_1", "trainable": true, "dtype": "float32", "units": 64, "activation": "linear", "use_bias": true, "kernel_initializer": {"class_name": "VarianceScaling", "config": {"scale": 2.0, "mode": "fan_in", "distribution": "normal", "seed": null}}, "bias_initializer": {"class_name": "Zeros", "config": {}}, "kernel_regularizer": {"class_name": "L1L2", "config": {"l1": 0.0, "l2": 0.0002500000118743628}}, "bias_regularizer": null, "activity_regularizer": null, "kernel_constraint": null, "bias_constraint": null}, "inbound_nodes": [[["BP_0xa87ff6_4_S_0xc81e72_2_M_6_L_0", 0, 0, {}]]]}, {"name": "BP_0xa87ff6_4_S_0xc81e72_2_M_10_L_1", "class_name": "Dense", "config": {"name": "BP_0xa87ff6_4_S_0xc81e72_2_M_10_L_1", "trainable": true, "dtype": "float32", "units": 64, "activation": "linear", "use_bias": true, "kernel_initializer": {"class_name": "VarianceScaling", "config": {"scale": 2.0, "mode": "fan_in", "distribution": "normal", "seed": null}}, "bias_initializer": {"class_name": "Zeros", "config": {}}, "kernel_regularizer": {"class_name": "L1L2", "config": {"l1": 0.0, "l2": 0.0002500000118743628}}, "bias_regularizer": null, "activity_regularizer": null, "kernel_constraint": null, "bias_constraint": null}, "inbound_nodes": [[["BP_0xa87ff6_4_S_0xc81e72_2_M_10_L_0", 0, 0, {}]]]}, {"name": "BP_0xa87ff6_4_S_0xc81e72_2_M_6_L_2", "class_name": "Activation", "config": {"name": "BP_0xa87ff6_4_S_0xc81e72_2_M_6_L_2", "trainable": true, "dtype": "float32", "activation": "relu"}, "inbound_nodes": [[["BP_0xa87ff6_4_S_0xc81e72_2_M_6_L_1", 0, 0, {}]]]}, {"name": "BP_0xa87ff6_4_S_0xc81e72_2_M_10_L_2", "class_name": "Activation", "config": {"name": "BP_0xa87ff6_4_S_0xc81e72_2_M_10_L_2", "trainable": true, "dtype": "float32", "activation": "relu"}, "inbound_nodes": [[["BP_0xa87ff6_4_S_0xc81e72_2_M_10_L_1", 0, 0, {}]]]}, {"name": "concatenate_623", "class_name": "Concatenate", "config": {"name": "concatenate_623", "trainable": true, "dtype": "float32", "axis": -1}, "inbound_nodes": [[["BP_0xa87ff6_4_S_0xc81e72_2_M_6_L_2", 0, 0, {}], ["BP_0xa87ff6_4_S_0xc81e72_2_M_10_L_2", 0, 0, {}], ["input_31", 0, 0, {}]]]}, {"name": "concatenate_624", "class_name": "Concatenate", "config": {"name": "concatenate_624", "trainable": true, "dtype": "float32", "axis": -1}, "inbound_nodes": [[["input_31", 0, 0, {}], ["concatenate_623", 0, 0, {}]]]}, {"name": "BP_0xc4ca42_1_S_0xc81e72_2_M_4_L_0", "class_name": "Dense", "config": {"name": "BP_0xc4ca42_1_S_0xc81e72_2_M_4_L_0", "trainable": true, "dtype": "float32", "units": 64, "activation": "linear", "use_bias": true, "kernel_initializer": {"class_name": "VarianceScaling", "config": {"scale": 2.0, "mode": "fan_in", "distribution": "normal", "seed": null}}, "bias_initializer": {"class_name": "Zeros", "config": {}}, "kernel_regularizer": {"class_name": "L1L2", "config": {"l1": 0.0, "l2": 0.0002500000118743628}}, "bias_regularizer": null, "activity_regularizer": null, "kernel_constraint": null, "bias_constraint": null}, "inbound_nodes": [[["concatenate_624", 0, 0, {}]]]}, {"name": "BP_0xc4ca42_1_S_0xc81e72_2_M_4_L_1", "class_name": "Activation", "config": {"name": "BP_0xc4ca42_1_S_0xc81e72_2_M_4_L_1", "trainable": true, "dtype": "float32", "activation": "relu"}, "inbound_nodes": [[["BP_0xc4ca42_1_S_0xc81e72_2_M_4_L_0", 0, 0, {}]]]}, {"name": "BP_0xc4ca42_1_S_0xc81e72_2_M_4_L_2", "class_name": "Dropout", "config": {"name": "BP_0xc4ca42_1_S_0xc81e72_2_M_4_L_2", "trainable": true, "dtype": "float32", "rate": 0.25, "noise_shape": null, "seed": null}, "inbound_nodes": [[["BP_0xc4ca42_1_S_0xc81e72_2_M_4_L_1", 0, 0, {}]]]}, {"name": "BP_0xc4ca42_1_S_0xc81e72_2_M_9_L_0", "class_name": "BatchNormalization", "config": {"name": "BP_0xc4ca42_1_S_0xc81e72_2_M_9_L_0", "trainable": true, "dtype": "float32", "axis": -1, "momentum": 0.9, "epsilon": 1e-05, "center": true, "scale": true, "beta_initializer": {"class_name": "Zeros", "config": {}}, "gamma_initializer": {"class_name": "Ones", "config": {}}, "moving_mean_initializer": {"class_name": "Zeros", "config": {}}, "moving_variance_initializer": {"class_name": "Ones", "config": {}}, "beta_regularizer": null, "gamma_regularizer": null, "beta_constraint": null, "gamma_constraint": null}, "inbound_nodes": [[["BP_0xc4ca42_1_S_0xc81e72_2_M_4_L_2", 0, 0, {}]]]}, {"name": "BP_0xc4ca42_1_S_0xc81e72_2_M_9_L_1", "class_name": "Dense", "config": {"name": "BP_0xc4ca42_1_S_0xc81e72_2_M_9_L_1", "trainable": true, "dtype": "float32", "units": 64, "activation": "linear", "use_bias": true, "kernel_initializer": {"class_name": "VarianceScaling", "config": {"scale": 2.0, "mode": "fan_in", "distribution": "normal", "seed": null}}, "bias_initializer": {"class_name": "Zeros", "config": {}}, "kernel_regularizer": {"class_name": "L1L2", "config": {"l1": 0.0, "l2": 0.0002500000118743628}}, "bias_regularizer": null, "activity_regularizer": null, "kernel_constraint": null, "bias_constraint": null}, "inbound_nodes": [[["BP_0xc4ca42_1_S_0xc81e72_2_M_9_L_0", 0, 0, {}]]]}, {"name": "BP_0xc4ca42_1_S_0xc81e72_2_M_9_L_2", "class_name": "Activation", "config": {"name": "BP_0xc4ca42_1_S_0xc81e72_2_M_9_L_2", "trainable": true, "dtype": "float32", "activation": "relu"}, "inbound_nodes": [[["BP_0xc4ca42_1_S_0xc81e72_2_M_9_L_1", 0, 0, {}]]]}, {"name": "BP_0xc4ca42_1_S_0xc81e72_2_M_14_L_0", "class_name": "Dense", "config": {"name": "BP_0xc4ca42_1_S_0xc81e72_2_M_14_L_0", "trainable": true, "dtype": "float32", "units": 64, "activation": "linear", "use_bias": true, "kernel_initializer": {"class_name": "VarianceScaling", "config": {"scale": 2.0, "mode": "fan_in", "distribution": "normal", "seed": null}}, "bias_initializer": {"class_name": "Zeros", "config": {}}, "kernel_regularizer": {"class_name": "L1L2", "config": {"l1": 0.0, "l2": 0.0002500000118743628}}, "bias_regularizer": null, "activity_regularizer": null, "kernel_constraint": null, "bias_constraint": null}, "inbound_nodes": [[["BP_0xc4ca42_1_S_0xc81e72_2_M_9_L_2", 0, 0, {}]]]}, {"name": "BP_0xc4ca42_1_S_0xc81e72_2_M_14_L_1", "class_name": "Activation", "config": {"name": "BP_0xc4ca42_1_S_0xc81e72_2_M_14_L_1", "trainable": true, "dtype": "float32", "activation": "relu"}, "inbound_nodes": [[["BP_0xc4ca42_1_S_0xc81e72_2_M_14_L_0", 0, 0, {}]]]}, {"name": "BP_0xc4ca42_1_S_0xc81e72_2_M_14_L_2", "class_name": "Dropout", "config": {"name": "BP_0xc4ca42_1_S_0xc81e72_2_M_14_L_2", "trainable": true, "dtype": "float32", "rate": 0.25, "noise_shape": null, "seed": null}, "inbound_nodes": [[["BP_0xc4ca42_1_S_0xc81e72_2_M_14_L_1", 0, 0, {}]]]}, {"name": "concatenate_625", "class_name": "Concatenate", "config": {"name": "concatenate_625", "trainable": true, "dtype": "float32", "axis": -1}, "inbound_nodes": [[["BP_0xc4ca42_1_S_0xc81e72_2_M_9_L_2", 0, 0, {}], ["BP_0xc4ca42_1_S_0xc81e72_2_M_14_L_2", 0, 0, {}]]]}, {"name": "BP_0xc4ca42_1_S_0xc81e72_2_M_6_L_0", "class_name": "BatchNormalization", "config": {"name": "BP_0xc4ca42_1_S_0xc81e72_2_M_6_L_0", "trainable": true, "dtype": "float32", "axis": -1, "momentum": 0.9, "epsilon": 1e-05, "center": true, "scale": true, "beta_initializer": {"class_name": "Zeros", "config": {}}, "gamma_initializer": {"class_name": "Ones", "config": {}}, "moving_mean_initializer": {"class_name": "Zeros", "config": {}}, "moving_variance_initializer": {"class_name": "Ones", "config": {}}, "beta_regularizer": null, "gamma_regularizer": null, "beta_constraint": null, "gamma_constraint": null}, "inbound_nodes": [[["concatenate_625", 0, 0, {}]]]}, {"name": "BP_0xc4ca42_1_S_0xc81e72_2_M_10_L_0", "class_name": "BatchNormalization", "config": {"name": "BP_0xc4ca42_1_S_0xc81e72_2_M_10_L_0", "trainable": true, "dtype": "float32", "axis": -1, "momentum": 0.9, "epsilon": 1e-05, "center": true, "scale": true, "beta_initializer": {"class_name": "Zeros", "config": {}}, "gamma_initializer": {"class_name": "Ones", "config": {}}, "moving_mean_initializer": {"class_name": "Zeros", "config": {}}, "moving_variance_initializer": {"class_name": "Ones", "config": {}}, "beta_regularizer": null, "gamma_regularizer": null, "beta_constraint": null, "gamma_constraint": null}, "inbound_nodes": [[["concatenate_624", 0, 0, {}]]]}, {"name": "BP_0xc4ca42_1_S_0xc81e72_2_M_6_L_1", "class_name": "Dense", "config": {"name": "BP_0xc4ca42_1_S_0xc81e72_2_M_6_L_1", "trainable": true, "dtype": "float32", "units": 64, "activation": "linear", "use_bias": true, "kernel_initializer": {"class_name": "VarianceScaling", "config": {"scale": 2.0, "mode": "fan_in", "distribution": "normal", "seed": null}}, "bias_initializer": {"class_name": "Zeros", "config": {}}, "kernel_regularizer": {"class_name": "L1L2", "config": {"l1": 0.0, "l2": 0.0002500000118743628}}, "bias_regularizer": null, "activity_regularizer": null, "kernel_constraint": null, "bias_constraint": null}, "inbound_nodes": [[["BP_0xc4ca42_1_S_0xc81e72_2_M_6_L_0", 0, 0, {}]]]}, {"name": "BP_0xc4ca42_1_S_0xc81e72_2_M_10_L_1", "class_name": "Dense", "config": {"name": "BP_0xc4ca42_1_S_0xc81e72_2_M_10_L_1", "trainable": true, "dtype": "float32", "units": 64, "activation": "linear", "use_bias": true, "kernel_initializer": {"class_name": "VarianceScaling", "config": {"scale": 2.0, "mode": "fan_in", "distribution": "normal", "seed": null}}, "bias_initializer": {"class_name": "Zeros", "config": {}}, "kernel_regularizer": {"class_name": "L1L2", "config": {"l1": 0.0, "l2": 0.0002500000118743628}}, "bias_regularizer": null, "activity_regularizer": null, "kernel_constraint": null, "bias_constraint": null}, "inbound_nodes": [[["BP_0xc4ca42_1_S_0xc81e72_2_M_10_L_0", 0, 0, {}]]]}, {"name": "BP_0xc4ca42_1_S_0xc81e72_2_M_6_L_2", "class_name": "Activation", "config": {"name": "BP_0xc4ca42_1_S_0xc81e72_2_M_6_L_2", "trainable": true, "dtype": "float32", "activation": "relu"}, "inbound_nodes": [[["BP_0xc4ca42_1_S_0xc81e72_2_M_6_L_1", 0, 0, {}]]]}, {"name": "BP_0xc4ca42_1_S_0xc81e72_2_M_10_L_2", "class_name": "Activation", "config": {"name": "BP_0xc4ca42_1_S_0xc81e72_2_M_10_L_2", "trainable": true, "dtype": "float32", "activation": "relu"}, "inbound_nodes": [[["BP_0xc4ca42_1_S_0xc81e72_2_M_10_L_1", 0, 0, {}]]]}, {"name": "concatenate_626", "class_name": "Concatenate", "config": {"name": "concatenate_626", "trainable": true, "dtype": "float32", "axis": -1}, "inbound_nodes": [[["BP_0xc4ca42_1_S_0xc81e72_2_M_6_L_2", 0, 0, {}], ["BP_0xc4ca42_1_S_0xc81e72_2_M_10_L_2", 0, 0, {}], ["concatenate_624", 0, 0, {}]]]}, {"name": "BP_0xc9f0f8_8_S_0xc81e72_2_M_4_L_0", "class_name": "Dense", "config": {"name": "BP_0xc9f0f8_8_S_0xc81e72_2_M_4_L_0", "trainable": true, "dtype": "float32", "units": 64, "activation": "linear", "use_bias": true, "kernel_initializer": {"class_name": "VarianceScaling", "config": {"scale": 2.0, "mode": "fan_in", "distribution": "normal", "seed": null}}, "bias_initializer": {"class_name": "Zeros", "config": {}}, "kernel_regularizer": {"class_name": "L1L2", "config": {"l1": 0.0, "l2": 0.0002500000118743628}}, "bias_regularizer": null, "activity_regularizer": null, "kernel_constraint": null, "bias_constraint": null}, "inbound_nodes": [[["concatenate_626", 0, 0, {}]]]}, {"name": "BP_0xc9f0f8_8_S_0xc81e72_2_M_4_L_1", "class_name": "Activation", "config": {"name": "BP_0xc9f0f8_8_S_0xc81e72_2_M_4_L_1", "trainable": true, "dtype": "float32", "activation": "relu"}, "inbound_nodes": [[["BP_0xc9f0f8_8_S_0xc81e72_2_M_4_L_0", 0, 0, {}]]]}, {"name": "BP_0xc9f0f8_8_S_0xc81e72_2_M_4_L_2", "class_name": "Dropout", "config": {"name": "BP_0xc9f0f8_8_S_0xc81e72_2_M_4_L_2", "trainable": true, "dtype": "float32", "rate": 0.25, "noise_shape": null, "seed": null}, "inbound_nodes": [[["BP_0xc9f0f8_8_S_0xc81e72_2_M_4_L_1", 0, 0, {}]]]}, {"name": "BP_0xc9f0f8_8_S_0xc81e72_2_M_9_L_0", "class_name": "BatchNormalization", "config": {"name": "BP_0xc9f0f8_8_S_0xc81e72_2_M_9_L_0", "trainable": true, "dtype": "float32", "axis": -1, "momentum": 0.9, "epsilon": 1e-05, "center": true, "scale": true, "beta_initializer": {"class_name": "Zeros", "config": {}}, "gamma_initializer": {"class_name": "Ones", "config": {}}, "moving_mean_initializer": {"class_name": "Zeros", "config": {}}, "moving_variance_initializer": {"class_name": "Ones", "config": {}}, "beta_regularizer": null, "gamma_regularizer": null, "beta_constraint": null, "gamma_constraint": null}, "inbound_nodes": [[["BP_0xc9f0f8_8_S_0xc81e72_2_M_4_L_2", 0, 0, {}]]]}, {"name": "BP_0xc9f0f8_8_S_0xc81e72_2_M_9_L_1", "class_name": "Dense", "config": {"name": "BP_0xc9f0f8_8_S_0xc81e72_2_M_9_L_1", "trainable": true, "dtype": "float32", "units": 64, "activation": "linear", "use_bias": true, "kernel_initializer": {"class_name": "VarianceScaling", "config": {"scale": 2.0, "mode": "fan_in", "distribution": "normal", "seed": null}}, "bias_initializer": {"class_name": "Zeros", "config": {}}, "kernel_regularizer": {"class_name": "L1L2", "config": {"l1": 0.0, "l2": 0.0002500000118743628}}, "bias_regularizer": null, "activity_regularizer": null, "kernel_constraint": null, "bias_constraint": null}, "inbound_nodes": [[["BP_0xc9f0f8_8_S_0xc81e72_2_M_9_L_0", 0, 0, {}]]]}, {"name": "BP_0xc9f0f8_8_S_0xc81e72_2_M_9_L_2", "class_name": "Activation", "config": {"name": "BP_0xc9f0f8_8_S_0xc81e72_2_M_9_L_2", "trainable": true, "dtype": "float32", "activation": "relu"}, "inbound_nodes": [[["BP_0xc9f0f8_8_S_0xc81e72_2_M_9_L_1", 0, 0, {}]]]}, {"name": "BP_0xc9f0f8_8_S_0xc81e72_2_M_14_L_0", "class_name": "Dense", "config": {"name": "BP_0xc9f0f8_8_S_0xc81e72_2_M_14_L_0", "trainable": true, "dtype": "float32", "units": 64, "activation": "linear", "use_bias": true, "kernel_initializer": {"class_name": "VarianceScaling", "config": {"scale": 2.0, "mode": "fan_in", "distribution": "normal", "seed": null}}, "bias_initializer": {"class_name": "Zeros", "config": {}}, "kernel_regularizer": {"class_name": "L1L2", "config": {"l1": 0.0, "l2": 0.0002500000118743628}}, "bias_regularizer": null, "activity_regularizer": null, "kernel_constraint": null, "bias_constraint": null}, "inbound_nodes": [[["BP_0xc9f0f8_8_S_0xc81e72_2_M_9_L_2", 0, 0, {}]]]}, {"name": "BP_0xc9f0f8_8_S_0xc81e72_2_M_14_L_1", "class_name": "Activation", "config": {"name": "BP_0xc9f0f8_8_S_0xc81e72_2_M_14_L_1", "trainable": true, "dtype": "float32", "activation": "relu"}, "inbound_nodes": [[["BP_0xc9f0f8_8_S_0xc81e72_2_M_14_L_0", 0, 0, {}]]]}, {"name": "BP_0xc9f0f8_8_S_0xc81e72_2_M_14_L_2", "class_name": "Dropout", "config": {"name": "BP_0xc9f0f8_8_S_0xc81e72_2_M_14_L_2", "trainable": true, "dtype": "float32", "rate": 0.25, "noise_shape": null, "seed": null}, "inbound_nodes": [[["BP_0xc9f0f8_8_S_0xc81e72_2_M_14_L_1", 0, 0, {}]]]}, {"name": "concatenate_631", "class_name": "Concatenate", "config": {"name": "concatenate_631", "trainable": true, "dtype": "float32", "axis": -1}, "inbound_nodes": [[["BP_0xc9f0f8_8_S_0xc81e72_2_M_9_L_2", 0, 0, {}], ["BP_0xc9f0f8_8_S_0xc81e72_2_M_14_L_2", 0, 0, {}]]]}, {"name": "BP_0xc9f0f8_8_S_0xc81e72_2_M_6_L_0", "class_name": "BatchNormalization", "config": {"name": "BP_0xc9f0f8_8_S_0xc81e72_2_M_6_L_0", "trainable": true, "dtype": "float32", "axis": -1, "momentum": 0.9, "epsilon": 1e-05, "center": true, "scale": true, "beta_initializer": {"class_name": "Zeros", "config": {}}, "gamma_initializer": {"class_name": "Ones", "config": {}}, "moving_mean_initializer": {"class_name": "Zeros", "config": {}}, "moving_variance_initializer": {"class_name": "Ones", "config": {}}, "beta_regularizer": null, "gamma_regularizer": null, "beta_constraint": null, "gamma_constraint": null}, "inbound_nodes": [[["concatenate_631", 0, 0, {}]]]}, {"name": "BP_0xc9f0f8_8_S_0xc81e72_2_M_10_L_0", "class_name": "BatchNormalization", "config": {"name": "BP_0xc9f0f8_8_S_0xc81e72_2_M_10_L_0", "trainable": true, "dtype": "float32", "axis": -1, "momentum": 0.9, "epsilon": 1e-05, "center": true, "scale": true, "beta_initializer": {"class_name": "Zeros", "config": {}}, "gamma_initializer": {"class_name": "Ones", "config": {}}, "moving_mean_initializer": {"class_name": "Zeros", "config": {}}, "moving_variance_initializer": {"class_name": "Ones", "config": {}}, "beta_regularizer": null, "gamma_regularizer": null, "beta_constraint": null, "gamma_constraint": null}, "inbound_nodes": [[["concatenate_626", 0, 0, {}]]]}, {"name": "BP_0xc9f0f8_8_S_0xc81e72_2_M_6_L_1", "class_name": "Dense", "config": {"name": "BP_0xc9f0f8_8_S_0xc81e72_2_M_6_L_1", "trainable": true, "dtype": "float32", "units": 64, "activation": "linear", "use_bias": true, "kernel_initializer": {"class_name": "VarianceScaling", "config": {"scale": 2.0, "mode": "fan_in", "distribution": "normal", "seed": null}}, "bias_initializer": {"class_name": "Zeros", "config": {}}, "kernel_regularizer": {"class_name": "L1L2", "config": {"l1": 0.0, "l2": 0.0002500000118743628}}, "bias_regularizer": null, "activity_regularizer": null, "kernel_constraint": null, "bias_constraint": null}, "inbound_nodes": [[["BP_0xc9f0f8_8_S_0xc81e72_2_M_6_L_0", 0, 0, {}]]]}, {"name": "BP_0xc9f0f8_8_S_0xc81e72_2_M_10_L_1", "class_name": "Dense", "config": {"name": "BP_0xc9f0f8_8_S_0xc81e72_2_M_10_L_1", "trainable": true, "dtype": "float32", "units": 64, "activation": "linear", "use_bias": true, "kernel_initializer": {"class_name": "VarianceScaling", "config": {"scale": 2.0, "mode": "fan_in", "distribution": "normal", "seed": null}}, "bias_initializer": {"class_name": "Zeros", "config": {}}, "kernel_regularizer": {"class_name": "L1L2", "config": {"l1": 0.0, "l2": 0.0002500000118743628}}, "bias_regularizer": null, "activity_regularizer": null, "kernel_constraint": null, "bias_constraint": null}, "inbound_nodes": [[["BP_0xc9f0f8_8_S_0xc81e72_2_M_10_L_0", 0, 0, {}]]]}, {"name": "BP_0xc9f0f8_8_S_0xc81e72_2_M_6_L_2", "class_name": "Activation", "config": {"name": "BP_0xc9f0f8_8_S_0xc81e72_2_M_6_L_2", "trainable": true, "dtype": "float32", "activation": "relu"}, "inbound_nodes": [[["BP_0xc9f0f8_8_S_0xc81e72_2_M_6_L_1", 0, 0, {}]]]}, {"name": "BP_0xc9f0f8_8_S_0xc81e72_2_M_10_L_2", "class_name": "Activation", "config": {"name": "BP_0xc9f0f8_8_S_0xc81e72_2_M_10_L_2", "trainable": true, "dtype": "float32", "activation": "relu"}, "inbound_nodes": [[["BP_0xc9f0f8_8_S_0xc81e72_2_M_10_L_1", 0, 0, {}]]]}, {"name": "concatenate_632", "class_name": "Concatenate", "config": {"name": "concatenate_632", "trainable": true, "dtype": "float32", "axis": -1}, "inbound_nodes": [[["BP_0xc9f0f8_8_S_0xc81e72_2_M_6_L_2", 0, 0, {}], ["BP_0xc9f0f8_8_S_0xc81e72_2_M_10_L_2", 0, 0, {}], ["concatenate_626", 0, 0, {}]]]}, {"name": "BP_0xc20ad4_12_S_0xc4ca42_1_M_8_L_0", "class_name": "Dense", "config": {"name": "BP_0xc20ad4_12_S_0xc4ca42_1_M_8_L_0", "trainable": true, "dtype": "float32", "units": 64, "activation": "linear", "use_bias": true, "kernel_initializer": {"class_name": "VarianceScaling", "config": {"scale": 2.0, "mode": "fan_in", "distribution": "normal", "seed": null}}, "bias_initializer": {"class_name": "Zeros", "config": {}}, "kernel_regularizer": {"class_name": "L1L2", "config": {"l1": 0.0, "l2": 0.0002500000118743628}}, "bias_regularizer": null, "activity_regularizer": null, "kernel_constraint": null, "bias_constraint": null}, "inbound_nodes": [[["concatenate_632", 0, 0, {}]]]}, {"name": "BP_0xc20ad4_12_S_0xc4ca42_1_M_8_L_1", "class_name": "Activation", "config": {"name": "BP_0xc20ad4_12_S_0xc4ca42_1_M_8_L_1", "trainable": true, "dtype": "float32", "activation": "relu"}, "inbound_nodes": [[["BP_0xc20ad4_12_S_0xc4ca42_1_M_8_L_0", 0, 0, {}]]]}, {"name": "BP_0x45c48c_9_S_0xc81e72_2_M_4_L_0", "class_name": "Dense", "config": {"name": "BP_0x45c48c_9_S_0xc81e72_2_M_4_L_0", "trainable": true, "dtype": "float32", "units": 64, "activation": "linear", "use_bias": true, "kernel_initializer": {"class_name": "VarianceScaling", "config": {"scale": 2.0, "mode": "fan_in", "distribution": "normal", "seed": null}}, "bias_initializer": {"class_name": "Zeros", "config": {}}, "kernel_regularizer": {"class_name": "L1L2", "config": {"l1": 0.0, "l2": 0.0002500000118743628}}, "bias_regularizer": null, "activity_regularizer": null, "kernel_constraint": null, "bias_constraint": null}, "inbound_nodes": [[["concatenate_626", 0, 0, {}]]]}, {"name": "BP_0xc20ad4_12_S_0xc4ca42_1_M_8_L_2", "class_name": "Dropout", "config": {"name": "BP_0xc20ad4_12_S_0xc4ca42_1_M_8_L_2", "trainable": true, "dtype": "float32", "rate": 0.25, "noise_shape": null, "seed": null}, "inbound_nodes": [[["BP_0xc20ad4_12_S_0xc4ca42_1_M_8_L_1", 0, 0, {}]]]}, {"name": "BP_0x45c48c_9_S_0xc81e72_2_M_4_L_1", "class_name": "Activation", "config": {"name": "BP_0x45c48c_9_S_0xc81e72_2_M_4_L_1", "trainable": true, "dtype": "float32", "activation": "relu"}, "inbound_nodes": [[["BP_0x45c48c_9_S_0xc81e72_2_M_4_L_0", 0, 0, {}]]]}, {"name": "concatenate_633", "class_name": "Concatenate", "config": {"name": "concatenate_633", "trainable": true, "dtype": "float32", "axis": -1}, "inbound_nodes": [[["BP_0xc20ad4_12_S_0xc4ca42_1_M_8_L_2", 0, 0, {}], ["concatenate_632", 0, 0, {}]]]}, {"name": "BP_0x45c48c_9_S_0xc81e72_2_M_4_L_2", "class_name": "Dropout", "config": {"name": "BP_0x45c48c_9_S_0xc81e72_2_M_4_L_2", "trainable": true, "dtype": "float32", "rate": 0.25, "noise_shape": null, "seed": null}, "inbound_nodes": [[["BP_0x45c48c_9_S_0xc81e72_2_M_4_L_1", 0, 0, {}]]]}, {"name": "BP_0xc20ad4_12_S_0xc4ca42_1_M_1_L_0", "class_name": "BatchNormalization", "config": {"name": "BP_0xc20ad4_12_S_0xc4ca42_1_M_1_L_0", "trainable": true, "dtype": "float32", "axis": -1, "momentum": 0.9, "epsilon": 1e-05, "center": true, "scale": true, "beta_initializer": {"class_name": "Zeros", "config": {}}, "gamma_initializer": {"class_name": "Ones", "config": {}}, "moving_mean_initializer": {"class_name": "Zeros", "config": {}}, "moving_variance_initializer": {"class_name": "Ones", "config": {}}, "beta_regularizer": null, "gamma_regularizer": null, "beta_constraint": null, "gamma_constraint": null}, "inbound_nodes": [[["concatenate_633", 0, 0, {}]]]}, {"name": "BP_0x45c48c_9_S_0xc81e72_2_M_9_L_0", "class_name": "BatchNormalization", "config": {"name": "BP_0x45c48c_9_S_0xc81e72_2_M_9_L_0", "trainable": true, "dtype": "float32", "axis": -1, "momentum": 0.9, "epsilon": 1e-05, "center": true, "scale": true, "beta_initializer": {"class_name": "Zeros", "config": {}}, "gamma_initializer": {"class_name": "Ones", "config": {}}, "moving_mean_initializer": {"class_name": "Zeros", "config": {}}, "moving_variance_initializer": {"class_name": "Ones", "config": {}}, "beta_regularizer": null, "gamma_regularizer": null, "beta_constraint": null, "gamma_constraint": null}, "inbound_nodes": [[["BP_0x45c48c_9_S_0xc81e72_2_M_4_L_2", 0, 0, {}]]]}, {"name": "BP_0xc20ad4_12_S_0xc4ca42_1_M_1_L_1", "class_name": "Dense", "config": {"name": "BP_0xc20ad4_12_S_0xc4ca42_1_M_1_L_1", "trainable": true, "dtype": "float32", "units": 64, "activation": "linear", "use_bias": true, "kernel_initializer": {"class_name": "VarianceScaling", "config": {"scale": 2.0, "mode": "fan_in", "distribution": "normal", "seed": null}}, "bias_initializer": {"class_name": "Zeros", "config": {}}, "kernel_regularizer": {"class_name": "L1L2", "config": {"l1": 0.0, "l2": 0.0002500000118743628}}, "bias_regularizer": null, "activity_regularizer": null, "kernel_constraint": null, "bias_constraint": null}, "inbound_nodes": [[["BP_0xc20ad4_12_S_0xc4ca42_1_M_1_L_0", 0, 0, {}]]]}, {"name": "BP_0x45c48c_9_S_0xc81e72_2_M_9_L_1", "class_name": "Dense", "config": {"name": "BP_0x45c48c_9_S_0xc81e72_2_M_9_L_1", "trainable": true, "dtype": "float32", "units": 64, "activation": "linear", "use_bias": true, "kernel_initializer": {"class_name": "VarianceScaling", "config": {"scale": 2.0, "mode": "fan_in", "distribution": "normal", "seed": null}}, "bias_initializer": {"class_name": "Zeros", "config": {}}, "kernel_regularizer": {"class_name": "L1L2", "config": {"l1": 0.0, "l2": 0.0002500000118743628}}, "bias_regularizer": null, "activity_regularizer": null, "kernel_constraint": null, "bias_constraint": null}, "inbound_nodes": [[["BP_0x45c48c_9_S_0xc81e72_2_M_9_L_0", 0, 0, {}]]]}, {"name": "BP_0xc20ad4_12_S_0xc4ca42_1_M_1_L_2", "class_name": "Activation", "config": {"name": "BP_0xc20ad4_12_S_0xc4ca42_1_M_1_L_2", "trainable": true, "dtype": "float32", "activation": "relu"}, "inbound_nodes": [[["BP_0xc20ad4_12_S_0xc4ca42_1_M_1_L_1", 0, 0, {}]]]}, {"name": "BP_0x45c48c_9_S_0xc81e72_2_M_9_L_2", "class_name": "Activation", "config": {"name": "BP_0x45c48c_9_S_0xc81e72_2_M_9_L_2", "trainable": true, "dtype": "float32", "activation": "relu"}, "inbound_nodes": [[["BP_0x45c48c_9_S_0xc81e72_2_M_9_L_1", 0, 0, {}]]]}, {"name": "BP_0xc20ad4_12_S_0xc4ca42_1_M_7_L_0", "class_name": "Dense", "config": {"name": "BP_0xc20ad4_12_S_0xc4ca42_1_M_7_L_0", "trainable": true, "dtype": "float32", "units": 64, "activation": "linear", "use_bias": true, "kernel_initializer": {"class_name": "VarianceScaling", "config": {"scale": 2.0, "mode": "fan_in", "distribution": "normal", "seed": null}}, "bias_initializer": {"class_name": "Zeros", "config": {}}, "kernel_regularizer": {"class_name": "L1L2", "config": {"l1": 0.0, "l2": 0.0002500000118743628}}, "bias_regularizer": null, "activity_regularizer": null, "kernel_constraint": null, "bias_constraint": null}, "inbound_nodes": [[["BP_0xc20ad4_12_S_0xc4ca42_1_M_1_L_2", 0, 0, {}]]]}, {"name": "BP_0x45c48c_9_S_0xc81e72_2_M_14_L_0", "class_name": "Dense", "config": {"name": "BP_0x45c48c_9_S_0xc81e72_2_M_14_L_0", "trainable": true, "dtype": "float32", "units": 64, "activation": "linear", "use_bias": true, "kernel_initializer": {"class_name": "VarianceScaling", "config": {"scale": 2.0, "mode": "fan_in", "distribution": "normal", "seed": null}}, "bias_initializer": {"class_name": "Zeros", "config": {}}, "kernel_regularizer": {"class_name": "L1L2", "config": {"l1": 0.0, "l2": 0.0002500000118743628}}, "bias_regularizer": null, "activity_regularizer": null, "kernel_constraint": null, "bias_constraint": null}, "inbound_nodes": [[["BP_0x45c48c_9_S_0xc81e72_2_M_9_L_2", 0, 0, {}]]]}, {"name": "BP_0xc20ad4_12_S_0xc4ca42_1_M_7_L_1", "class_name": "Activation", "config": {"name": "BP_0xc20ad4_12_S_0xc4ca42_1_M_7_L_1", "trainable": true, "dtype": "float32", "activation": "relu"}, "inbound_nodes": [[["BP_0xc20ad4_12_S_0xc4ca42_1_M_7_L_0", 0, 0, {}]]]}, {"name": "BP_0x45c48c_9_S_0xc81e72_2_M_14_L_1", "class_name": "Activation", "config": {"name": "BP_0x45c48c_9_S_0xc81e72_2_M_14_L_1", "trainable": true, "dtype": "float32", "activation": "relu"}, "inbound_nodes": [[["BP_0x45c48c_9_S_0xc81e72_2_M_14_L_0", 0, 0, {}]]]}, {"name": "BP_0xc20ad4_12_S_0xc4ca42_1_M_7_L_2", "class_name": "Dropout", "config": {"name": "BP_0xc20ad4_12_S_0xc4ca42_1_M_7_L_2", "trainable": true, "dtype": "float32", "rate": 0.25, "noise_shape": null, "seed": null}, "inbound_nodes": [[["BP_0xc20ad4_12_S_0xc4ca42_1_M_7_L_1", 0, 0, {}]]]}, {"name": "BP_0x45c48c_9_S_0xc81e72_2_M_14_L_2", "class_name": "Dropout", "config": {"name": "BP_0x45c48c_9_S_0xc81e72_2_M_14_L_2", "trainable": true, "dtype": "float32", "rate": 0.25, "noise_shape": null, "seed": null}, "inbound_nodes": [[["BP_0x45c48c_9_S_0xc81e72_2_M_14_L_1", 0, 0, {}]]]}, {"name": "concatenate_634", "class_name": "Concatenate", "config": {"name": "concatenate_634", "trainable": true, "dtype": "float32", "axis": -1}, "inbound_nodes": [[["BP_0xc20ad4_12_S_0xc4ca42_1_M_1_L_2", 0, 0, {}], ["BP_0xc20ad4_12_S_0xc4ca42_1_M_7_L_2", 0, 0, {}]]]}, {"name": "concatenate_627", "class_name": "Concatenate", "config": {"name": "concatenate_627", "trainable": true, "dtype": "float32", "axis": -1}, "inbound_nodes": [[["BP_0x45c48c_9_S_0xc81e72_2_M_9_L_2", 0, 0, {}], ["BP_0x45c48c_9_S_0xc81e72_2_M_14_L_2", 0, 0, {}]]]}, {"name": "BP_0xc20ad4_12_S_0xc4ca42_1_M_2_L_0", "class_name": "BatchNormalization", "config": {"name": "BP_0xc20ad4_12_S_0xc4ca42_1_M_2_L_0", "trainable": true, "dtype": "float32", "axis": -1, "momentum": 0.9, "epsilon": 1e-05, "center": true, "scale": true, "beta_initializer": {"class_name": "Zeros", "config": {}}, "gamma_initializer": {"class_name": "Ones", "config": {}}, "moving_mean_initializer": {"class_name": "Zeros", "config": {}}, "moving_variance_initializer": {"class_name": "Ones", "config": {}}, "beta_regularizer": null, "gamma_regularizer": null, "beta_constraint": null, "gamma_constraint": null}, "inbound_nodes": [[["concatenate_634", 0, 0, {}]]]}, {"name": "BP_0x45c48c_9_S_0xc81e72_2_M_6_L_0", "class_name": "BatchNormalization", "config": {"name": "BP_0x45c48c_9_S_0xc81e72_2_M_6_L_0", "trainable": true, "dtype": "float32", "axis": -1, "momentum": 0.9, "epsilon": 1e-05, "center": true, "scale": true, "beta_initializer": {"class_name": "Zeros", "config": {}}, "gamma_initializer": {"class_name": "Ones", "config": {}}, "moving_mean_initializer": {"class_name": "Zeros", "config": {}}, "moving_variance_initializer": {"class_name": "Ones", "config": {}}, "beta_regularizer": null, "gamma_regularizer": null, "beta_constraint": null, "gamma_constraint": null}, "inbound_nodes": [[["concatenate_627", 0, 0, {}]]]}, {"name": "BP_0x45c48c_9_S_0xc81e72_2_M_10_L_0", "class_name": "BatchNormalization", "config": {"name": "BP_0x45c48c_9_S_0xc81e72_2_M_10_L_0", "trainable": true, "dtype": "float32", "axis": -1, "momentum": 0.9, "epsilon": 1e-05, "center": true, "scale": true, "beta_initializer": {"class_name": "Zeros", "config": {}}, "gamma_initializer": {"class_name": "Ones", "config": {}}, "moving_mean_initializer": {"class_name": "Zeros", "config": {}}, "moving_variance_initializer": {"class_name": "Ones", "config": {}}, "beta_regularizer": null, "gamma_regularizer": null, "beta_constraint": null, "gamma_constraint": null}, "inbound_nodes": [[["concatenate_626", 0, 0, {}]]]}, {"name": "BP_0xc20ad4_12_S_0xc4ca42_1_M_2_L_1", "class_name": "Dense", "config": {"name": "BP_0xc20ad4_12_S_0xc4ca42_1_M_2_L_1", "trainable": true, "dtype": "float32", "units": 64, "activation": "linear", "use_bias": true, "kernel_initializer": {"class_name": "VarianceScaling", "config": {"scale": 2.0, "mode": "fan_in", "distribution": "normal", "seed": null}}, "bias_initializer": {"class_name": "Zeros", "config": {}}, "kernel_regularizer": {"class_name": "L1L2", "config": {"l1": 0.0, "l2": 0.0002500000118743628}}, "bias_regularizer": null, "activity_regularizer": null, "kernel_constraint": null, "bias_constraint": null}, "inbound_nodes": [[["BP_0xc20ad4_12_S_0xc4ca42_1_M_2_L_0", 0, 0, {}]]]}, {"name": "BP_0x45c48c_9_S_0xc81e72_2_M_6_L_1", "class_name": "Dense", "config": {"name": "BP_0x45c48c_9_S_0xc81e72_2_M_6_L_1", "trainable": true, "dtype": "float32", "units": 64, "activation": "linear", "use_bias": true, "kernel_initializer": {"class_name": "VarianceScaling", "config": {"scale": 2.0, "mode": "fan_in", "distribution": "normal", "seed": null}}, "bias_initializer": {"class_name": "Zeros", "config": {}}, "kernel_regularizer": {"class_name": "L1L2", "config": {"l1": 0.0, "l2": 0.0002500000118743628}}, "bias_regularizer": null, "activity_regularizer": null, "kernel_constraint": null, "bias_constraint": null}, "inbound_nodes": [[["BP_0x45c48c_9_S_0xc81e72_2_M_6_L_0", 0, 0, {}]]]}, {"name": "BP_0x45c48c_9_S_0xc81e72_2_M_10_L_1", "class_name": "Dense", "config": {"name": "BP_0x45c48c_9_S_0xc81e72_2_M_10_L_1", "trainable": true, "dtype": "float32", "units": 64, "activation": "linear", "use_bias": true, "kernel_initializer": {"class_name": "VarianceScaling", "config": {"scale": 2.0, "mode": "fan_in", "distribution": "normal", "seed": null}}, "bias_initializer": {"class_name": "Zeros", "config": {}}, "kernel_regularizer": {"class_name": "L1L2", "config": {"l1": 0.0, "l2": 0.0002500000118743628}}, "bias_regularizer": null, "activity_regularizer": null, "kernel_constraint": null, "bias_constraint": null}, "inbound_nodes": [[["BP_0x45c48c_9_S_0xc81e72_2_M_10_L_0", 0, 0, {}]]]}, {"name": "BP_0xc20ad4_12_S_0xc4ca42_1_M_2_L_2", "class_name": "Activation", "config": {"name": "BP_0xc20ad4_12_S_0xc4ca42_1_M_2_L_2", "trainable": true, "dtype": "float32", "activation": "relu"}, "inbound_nodes": [[["BP_0xc20ad4_12_S_0xc4ca42_1_M_2_L_1", 0, 0, {}]]]}, {"name": "BP_0x45c48c_9_S_0xc81e72_2_M_6_L_2", "class_name": "Activation", "config": {"name": "BP_0x45c48c_9_S_0xc81e72_2_M_6_L_2", "trainable": true, "dtype": "float32", "activation": "relu"}, "inbound_nodes": [[["BP_0x45c48c_9_S_0xc81e72_2_M_6_L_1", 0, 0, {}]]]}, {"name": "BP_0x45c48c_9_S_0xc81e72_2_M_10_L_2", "class_name": "Activation", "config": {"name": "BP_0x45c48c_9_S_0xc81e72_2_M_10_L_2", "trainable": true, "dtype": "float32", "activation": "relu"}, "inbound_nodes": [[["BP_0x45c48c_9_S_0xc81e72_2_M_10_L_1", 0, 0, {}]]]}, {"name": "concatenate_635", "class_name": "Concatenate", "config": {"name": "concatenate_635", "trainable": true, "dtype": "float32", "axis": -1}, "inbound_nodes": [[["BP_0xc20ad4_12_S_0xc4ca42_1_M_1_L_2", 0, 0, {}], ["BP_0xc20ad4_12_S_0xc4ca42_1_M_2_L_2", 0, 0, {}], ["concatenate_632", 0, 0, {}]]]}, {"name": "concatenate_628", "class_name": "Concatenate", "config": {"name": "concatenate_628", "trainable": true, "dtype": "float32", "axis": -1}, "inbound_nodes": [[["BP_0x45c48c_9_S_0xc81e72_2_M_6_L_2", 0, 0, {}], ["BP_0x45c48c_9_S_0xc81e72_2_M_10_L_2", 0, 0, {}], ["concatenate_626", 0, 0, {}]]]}, {"name": "concatenate_636", "class_name": "Concatenate", "config": {"name": "concatenate_636", "trainable": true, "dtype": "float32", "axis": -1}, "inbound_nodes": [[["concatenate_626", 0, 0, {}], ["concatenate_632", 0, 0, {}], ["concatenate_635", 0, 0, {}]]]}, {"name": "BP_0xc81e72_2_S_0xc81e72_2_M_4_L_0", "class_name": "Dense", "config": {"name": "BP_0xc81e72_2_S_0xc81e72_2_M_4_L_0", "trainable": true, "dtype": "float32", "units": 64, "activation": "linear", "use_bias": true, "kernel_initializer": {"class_name": "VarianceScaling", "config": {"scale": 2.0, "mode": "fan_in", "distribution": "normal", "seed": null}}, "bias_initializer": {"class_name": "Zeros", "config": {}}, "kernel_regularizer": {"class_name": "L1L2", "config": {"l1": 0.0, "l2": 0.0002500000118743628}}, "bias_regularizer": null, "activity_regularizer": null, "kernel_constraint": null, "bias_constraint": null}, "inbound_nodes": [[["concatenate_628", 0, 0, {}]]]}, {"name": "BP_0x8f14e4_7_S_0xc81e72_2_M_4_L_0", "class_name": "Dense", "config": {"name": "BP_0x8f14e4_7_S_0xc81e72_2_M_4_L_0", "trainable": true, "dtype": "float32", "units": 64, "activation": "linear", "use_bias": true, "kernel_initializer": {"class_name": "VarianceScaling", "config": {"scale": 2.0, "mode": "fan_in", "distribution": "normal", "seed": null}}, "bias_initializer": {"class_name": "Zeros", "config": {}}, "kernel_regularizer": {"class_name": "L1L2", "config": {"l1": 0.0, "l2": 0.0002500000118743628}}, "bias_regularizer": null, "activity_regularizer": null, "kernel_constraint": null, "bias_constraint": null}, "inbound_nodes": [[["concatenate_636", 0, 0, {}]]]}, {"name": "BP_0xc81e72_2_S_0xc81e72_2_M_4_L_1", "class_name": "Activation", "config": {"name": "BP_0xc81e72_2_S_0xc81e72_2_M_4_L_1", "trainable": true, "dtype": "float32", "activation": "relu"}, "inbound_nodes": [[["BP_0xc81e72_2_S_0xc81e72_2_M_4_L_0", 0, 0, {}]]]}, {"name": "BP_0x8f14e4_7_S_0xc81e72_2_M_4_L_1", "class_name": "Activation", "config": {"name": "BP_0x8f14e4_7_S_0xc81e72_2_M_4_L_1", "trainable": true, "dtype": "float32", "activation": "relu"}, "inbound_nodes": [[["BP_0x8f14e4_7_S_0xc81e72_2_M_4_L_0", 0, 0, {}]]]}, {"name": "BP_0xc81e72_2_S_0xc81e72_2_M_4_L_2", "class_name": "Dropout", "config": {"name": "BP_0xc81e72_2_S_0xc81e72_2_M_4_L_2", "trainable": true, "dtype": "float32", "rate": 0.25, "noise_shape": null, "seed": null}, "inbound_nodes": [[["BP_0xc81e72_2_S_0xc81e72_2_M_4_L_1", 0, 0, {}]]]}, {"name": "BP_0x8f14e4_7_S_0xc81e72_2_M_4_L_2", "class_name": "Dropout", "config": {"name": "BP_0x8f14e4_7_S_0xc81e72_2_M_4_L_2", "trainable": true, "dtype": "float32", "rate": 0.25, "noise_shape": null, "seed": null}, "inbound_nodes": [[["BP_0x8f14e4_7_S_0xc81e72_2_M_4_L_1", 0, 0, {}]]]}, {"name": "BP_0xc81e72_2_S_0xc81e72_2_M_9_L_0", "class_name": "BatchNormalization", "config": {"name": "BP_0xc81e72_2_S_0xc81e72_2_M_9_L_0", "trainable": true, "dtype": "float32", "axis": -1, "momentum": 0.9, "epsilon": 1e-05, "center": true, "scale": true, "beta_initializer": {"class_name": "Zeros", "config": {}}, "gamma_initializer": {"class_name": "Ones", "config": {}}, "moving_mean_initializer": {"class_name": "Zeros", "config": {}}, "moving_variance_initializer": {"class_name": "Ones", "config": {}}, "beta_regularizer": null, "gamma_regularizer": null, "beta_constraint": null, "gamma_constraint": null}, "inbound_nodes": [[["BP_0xc81e72_2_S_0xc81e72_2_M_4_L_2", 0, 0, {}]]]}, {"name": "BP_0x8f14e4_7_S_0xc81e72_2_M_9_L_0", "class_name": "BatchNormalization", "config": {"name": "BP_0x8f14e4_7_S_0xc81e72_2_M_9_L_0", "trainable": true, "dtype": "float32", "axis": -1, "momentum": 0.9, "epsilon": 1e-05, "center": true, "scale": true, "beta_initializer": {"class_name": "Zeros", "config": {}}, "gamma_initializer": {"class_name": "Ones", "config": {}}, "moving_mean_initializer": {"class_name": "Zeros", "config": {}}, "moving_variance_initializer": {"class_name": "Ones", "config": {}}, "beta_regularizer": null, "gamma_regularizer": null, "beta_constraint": null, "gamma_constraint": null}, "inbound_nodes": [[["BP_0x8f14e4_7_S_0xc81e72_2_M_4_L_2", 0, 0, {}]]]}, {"name": "BP_0xc81e72_2_S_0xc81e72_2_M_9_L_1", "class_name": "Dense", "config": {"name": "BP_0xc81e72_2_S_0xc81e72_2_M_9_L_1", "trainable": true, "dtype": "float32", "units": 64, "activation": "linear", "use_bias": true, "kernel_initializer": {"class_name": "VarianceScaling", "config": {"scale": 2.0, "mode": "fan_in", "distribution": "normal", "seed": null}}, "bias_initializer": {"class_name": "Zeros", "config": {}}, "kernel_regularizer": {"class_name": "L1L2", "config": {"l1": 0.0, "l2": 0.0002500000118743628}}, "bias_regularizer": null, "activity_regularizer": null, "kernel_constraint": null, "bias_constraint": null}, "inbound_nodes": [[["BP_0xc81e72_2_S_0xc81e72_2_M_9_L_0", 0, 0, {}]]]}, {"name": "BP_0x8f14e4_7_S_0xc81e72_2_M_9_L_1", "class_name": "Dense", "config": {"name": "BP_0x8f14e4_7_S_0xc81e72_2_M_9_L_1", "trainable": true, "dtype": "float32", "units": 64, "activation": "linear", "use_bias": true, "kernel_initializer": {"class_name": "VarianceScaling", "config": {"scale": 2.0, "mode": "fan_in", "distribution": "normal", "seed": null}}, "bias_initializer": {"class_name": "Zeros", "config": {}}, "kernel_regularizer": {"class_name": "L1L2", "config": {"l1": 0.0, "l2": 0.0002500000118743628}}, "bias_regularizer": null, "activity_regularizer": null, "kernel_constraint": null, "bias_constraint": null}, "inbound_nodes": [[["BP_0x8f14e4_7_S_0xc81e72_2_M_9_L_0", 0, 0, {}]]]}, {"name": "BP_0xc81e72_2_S_0xc81e72_2_M_9_L_2", "class_name": "Activation", "config": {"name": "BP_0xc81e72_2_S_0xc81e72_2_M_9_L_2", "trainable": true, "dtype": "float32", "activation": "relu"}, "inbound_nodes": [[["BP_0xc81e72_2_S_0xc81e72_2_M_9_L_1", 0, 0, {}]]]}, {"name": "BP_0x8f14e4_7_S_0xc81e72_2_M_9_L_2", "class_name": "Activation", "config": {"name": "BP_0x8f14e4_7_S_0xc81e72_2_M_9_L_2", "trainable": true, "dtype": "float32", "activation": "relu"}, "inbound_nodes": [[["BP_0x8f14e4_7_S_0xc81e72_2_M_9_L_1", 0, 0, {}]]]}, {"name": "BP_0xc81e72_2_S_0xc81e72_2_M_14_L_0", "class_name": "Dense", "config": {"name": "BP_0xc81e72_2_S_0xc81e72_2_M_14_L_0", "trainable": true, "dtype": "float32", "units": 64, "activation": "linear", "use_bias": true, "kernel_initializer": {"class_name": "VarianceScaling", "config": {"scale": 2.0, "mode": "fan_in", "distribution": "normal", "seed": null}}, "bias_initializer": {"class_name": "Zeros", "config": {}}, "kernel_regularizer": {"class_name": "L1L2", "config": {"l1": 0.0, "l2": 0.0002500000118743628}}, "bias_regularizer": null, "activity_regularizer": null, "kernel_constraint": null, "bias_constraint": null}, "inbound_nodes": [[["BP_0xc81e72_2_S_0xc81e72_2_M_9_L_2", 0, 0, {}]]]}, {"name": "BP_0x8f14e4_7_S_0xc81e72_2_M_14_L_0", "class_name": "Dense", "config": {"name": "BP_0x8f14e4_7_S_0xc81e72_2_M_14_L_0", "trainable": true, "dtype": "float32", "units": 64, "activation": "linear", "use_bias": true, "kernel_initializer": {"class_name": "VarianceScaling", "config": {"scale": 2.0, "mode": "fan_in", "distribution": "normal", "seed": null}}, "bias_initializer": {"class_name": "Zeros", "config": {}}, "kernel_regularizer": {"class_name": "L1L2", "config": {"l1": 0.0, "l2": 0.0002500000118743628}}, "bias_regularizer": null, "activity_regularizer": null, "kernel_constraint": null, "bias_constraint": null}, "inbound_nodes": [[["BP_0x8f14e4_7_S_0xc81e72_2_M_9_L_2", 0, 0, {}]]]}, {"name": "BP_0xc81e72_2_S_0xc81e72_2_M_14_L_1", "class_name": "Activation", "config": {"name": "BP_0xc81e72_2_S_0xc81e72_2_M_14_L_1", "trainable": true, "dtype": "float32", "activation": "relu"}, "inbound_nodes": [[["BP_0xc81e72_2_S_0xc81e72_2_M_14_L_0", 0, 0, {}]]]}, {"name": "BP_0x8f14e4_7_S_0xc81e72_2_M_14_L_1", "class_name": "Activation", "config": {"name": "BP_0x8f14e4_7_S_0xc81e72_2_M_14_L_1", "trainable": true, "dtype": "float32", "activation": "relu"}, "inbound_nodes": [[["BP_0x8f14e4_7_S_0xc81e72_2_M_14_L_0", 0, 0, {}]]]}, {"name": "BP_0xc81e72_2_S_0xc81e72_2_M_14_L_2", "class_name": "Dropout", "config": {"name": "BP_0xc81e72_2_S_0xc81e72_2_M_14_L_2", "trainable": true, "dtype": "float32", "rate": 0.25, "noise_shape": null, "seed": null}, "inbound_nodes": [[["BP_0xc81e72_2_S_0xc81e72_2_M_14_L_1", 0, 0, {}]]]}, {"name": "BP_0x8f14e4_7_S_0xc81e72_2_M_14_L_2", "class_name": "Dropout", "config": {"name": "BP_0x8f14e4_7_S_0xc81e72_2_M_14_L_2", "trainable": true, "dtype": "float32", "rate": 0.25, "noise_shape": null, "seed": null}, "inbound_nodes": [[["BP_0x8f14e4_7_S_0xc81e72_2_M_14_L_1", 0, 0, {}]]]}, {"name": "concatenate_629", "class_name": "Concatenate", "config": {"name": "concatenate_629", "trainable": true, "dtype": "float32", "axis": -1}, "inbound_nodes": [[["BP_0xc81e72_2_S_0xc81e72_2_M_9_L_2", 0, 0, {}], ["BP_0xc81e72_2_S_0xc81e72_2_M_14_L_2", 0, 0, {}]]]}, {"name": "concatenate_637", "class_name": "Concatenate", "config": {"name": "concatenate_637", "trainable": true, "dtype": "float32", "axis": -1}, "inbound_nodes": [[["BP_0x8f14e4_7_S_0xc81e72_2_M_9_L_2", 0, 0, {}], ["BP_0x8f14e4_7_S_0xc81e72_2_M_14_L_2", 0, 0, {}]]]}, {"name": "BP_0xc81e72_2_S_0xc81e72_2_M_6_L_0", "class_name": "BatchNormalization", "config": {"name": "BP_0xc81e72_2_S_0xc81e72_2_M_6_L_0", "trainable": true, "dtype": "float32", "axis": -1, "momentum": 0.9, "epsilon": 1e-05, "center": true, "scale": true, "beta_initializer": {"class_name": "Zeros", "config": {}}, "gamma_initializer": {"class_name": "Ones", "config": {}}, "moving_mean_initializer": {"class_name": "Zeros", "config": {}}, "moving_variance_initializer": {"class_name": "Ones", "config": {}}, "beta_regularizer": null, "gamma_regularizer": null, "beta_constraint": null, "gamma_constraint": null}, "inbound_nodes": [[["concatenate_629", 0, 0, {}]]]}, {"name": "BP_0xc81e72_2_S_0xc81e72_2_M_10_L_0", "class_name": "BatchNormalization", "config": {"name": "BP_0xc81e72_2_S_0xc81e72_2_M_10_L_0", "trainable": true, "dtype": "float32", "axis": -1, "momentum": 0.9, "epsilon": 1e-05, "center": true, "scale": true, "beta_initializer": {"class_name": "Zeros", "config": {}}, "gamma_initializer": {"class_name": "Ones", "config": {}}, "moving_mean_initializer": {"class_name": "Zeros", "config": {}}, "moving_variance_initializer": {"class_name": "Ones", "config": {}}, "beta_regularizer": null, "gamma_regularizer": null, "beta_constraint": null, "gamma_constraint": null}, "inbound_nodes": [[["concatenate_628", 0, 0, {}]]]}, {"name": "BP_0x8f14e4_7_S_0xc81e72_2_M_6_L_0", "class_name": "BatchNormalization", "config": {"name": "BP_0x8f14e4_7_S_0xc81e72_2_M_6_L_0", "trainable": true, "dtype": "float32", "axis": -1, "momentum": 0.9, "epsilon": 1e-05, "center": true, "scale": true, "beta_initializer": {"class_name": "Zeros", "config": {}}, "gamma_initializer": {"class_name": "Ones", "config": {}}, "moving_mean_initializer": {"class_name": "Zeros", "config": {}}, "moving_variance_initializer": {"class_name": "Ones", "config": {}}, "beta_regularizer": null, "gamma_regularizer": null, "beta_constraint": null, "gamma_constraint": null}, "inbound_nodes": [[["concatenate_637", 0, 0, {}]]]}, {"name": "BP_0x8f14e4_7_S_0xc81e72_2_M_10_L_0", "class_name": "BatchNormalization", "config": {"name": "BP_0x8f14e4_7_S_0xc81e72_2_M_10_L_0", "trainable": true, "dtype": "float32", "axis": -1, "momentum": 0.9, "epsilon": 1e-05, "center": true, "scale": true, "beta_initializer": {"class_name": "Zeros", "config": {}}, "gamma_initializer": {"class_name": "Ones", "config": {}}, "moving_mean_initializer": {"class_name": "Zeros", "config": {}}, "moving_variance_initializer": {"class_name": "Ones", "config": {}}, "beta_regularizer": null, "gamma_regularizer": null, "beta_constraint": null, "gamma_constraint": null}, "inbound_nodes": [[["concatenate_636", 0, 0, {}]]]}, {"name": "BP_0xc81e72_2_S_0xc81e72_2_M_6_L_1", "class_name": "Dense", "config": {"name": "BP_0xc81e72_2_S_0xc81e72_2_M_6_L_1", "trainable": true, "dtype": "float32", "units": 64, "activation": "linear", "use_bias": true, "kernel_initializer": {"class_name": "VarianceScaling", "config": {"scale": 2.0, "mode": "fan_in", "distribution": "normal", "seed": null}}, "bias_initializer": {"class_name": "Zeros", "config": {}}, "kernel_regularizer": {"class_name": "L1L2", "config": {"l1": 0.0, "l2": 0.0002500000118743628}}, "bias_regularizer": null, "activity_regularizer": null, "kernel_constraint": null, "bias_constraint": null}, "inbound_nodes": [[["BP_0xc81e72_2_S_0xc81e72_2_M_6_L_0", 0, 0, {}]]]}, {"name": "BP_0xc81e72_2_S_0xc81e72_2_M_10_L_1", "class_name": "Dense", "config": {"name": "BP_0xc81e72_2_S_0xc81e72_2_M_10_L_1", "trainable": true, "dtype": "float32", "units": 64, "activation": "linear", "use_bias": true, "kernel_initializer": {"class_name": "VarianceScaling", "config": {"scale": 2.0, "mode": "fan_in", "distribution": "normal", "seed": null}}, "bias_initializer": {"class_name": "Zeros", "config": {}}, "kernel_regularizer": {"class_name": "L1L2", "config": {"l1": 0.0, "l2": 0.0002500000118743628}}, "bias_regularizer": null, "activity_regularizer": null, "kernel_constraint": null, "bias_constraint": null}, "inbound_nodes": [[["BP_0xc81e72_2_S_0xc81e72_2_M_10_L_0", 0, 0, {}]]]}, {"name": "BP_0x8f14e4_7_S_0xc81e72_2_M_6_L_1", "class_name": "Dense", "config": {"name": "BP_0x8f14e4_7_S_0xc81e72_2_M_6_L_1", "trainable": true, "dtype": "float32", "units": 64, "activation": "linear", "use_bias": true, "kernel_initializer": {"class_name": "VarianceScaling", "config": {"scale": 2.0, "mode": "fan_in", "distribution": "normal", "seed": null}}, "bias_initializer": {"class_name": "Zeros", "config": {}}, "kernel_regularizer": {"class_name": "L1L2", "config": {"l1": 0.0, "l2": 0.0002500000118743628}}, "bias_regularizer": null, "activity_regularizer": null, "kernel_constraint": null, "bias_constraint": null}, "inbound_nodes": [[["BP_0x8f14e4_7_S_0xc81e72_2_M_6_L_0", 0, 0, {}]]]}, {"name": "BP_0x8f14e4_7_S_0xc81e72_2_M_10_L_1", "class_name": "Dense", "config": {"name": "BP_0x8f14e4_7_S_0xc81e72_2_M_10_L_1", "trainable": true, "dtype": "float32", "units": 64, "activation": "linear", "use_bias": true, "kernel_initializer": {"class_name": "VarianceScaling", "config": {"scale": 2.0, "mode": "fan_in", "distribution": "normal", "seed": null}}, "bias_initializer": {"class_name": "Zeros", "config": {}}, "kernel_regularizer": {"class_name": "L1L2", "config": {"l1": 0.0, "l2": 0.0002500000118743628}}, "bias_regularizer": null, "activity_regularizer": null, "kernel_constraint": null, "bias_constraint": null}, "inbound_nodes": [[["BP_0x8f14e4_7_S_0xc81e72_2_M_10_L_0", 0, 0, {}]]]}, {"name": "BP_0xc81e72_2_S_0xc81e72_2_M_6_L_2", "class_name": "Activation", "config": {"name": "BP_0xc81e72_2_S_0xc81e72_2_M_6_L_2", "trainable": true, "dtype": "float32", "activation": "relu"}, "inbound_nodes": [[["BP_0xc81e72_2_S_0xc81e72_2_M_6_L_1", 0, 0, {}]]]}, {"name": "BP_0xc81e72_2_S_0xc81e72_2_M_10_L_2", "class_name": "Activation", "config": {"name": "BP_0xc81e72_2_S_0xc81e72_2_M_10_L_2", "trainable": true, "dtype": "float32", "activation": "relu"}, "inbound_nodes": [[["BP_0xc81e72_2_S_0xc81e72_2_M_10_L_1", 0, 0, {}]]]}, {"name": "BP_0x8f14e4_7_S_0xc81e72_2_M_6_L_2", "class_name": "Activation", "config": {"name": "BP_0x8f14e4_7_S_0xc81e72_2_M_6_L_2", "trainable": true, "dtype": "float32", "activation": "relu"}, "inbound_nodes": [[["BP_0x8f14e4_7_S_0xc81e72_2_M_6_L_1", 0, 0, {}]]]}, {"name": "BP_0x8f14e4_7_S_0xc81e72_2_M_10_L_2", "class_name": "Activation", "config": {"name": "BP_0x8f14e4_7_S_0xc81e72_2_M_10_L_2", "trainable": true, "dtype": "float32", "activation": "relu"}, "inbound_nodes": [[["BP_0x8f14e4_7_S_0xc81e72_2_M_10_L_1", 0, 0, {}]]]}, {"name": "concatenate_630", "class_name": "Concatenate", "config": {"name": "concatenate_630", "trainable": true, "dtype": "float32", "axis": -1}, "inbound_nodes": [[["BP_0xc81e72_2_S_0xc81e72_2_M_6_L_2", 0, 0, {}], ["BP_0xc81e72_2_S_0xc81e72_2_M_10_L_2", 0, 0, {}], ["concatenate_628", 0, 0, {}]]]}, {"name": "concatenate_638", "class_name": "Concatenate", "config": {"name": "concatenate_638", "trainable": true, "dtype": "float32", "axis": -1}, "inbound_nodes": [[["BP_0x8f14e4_7_S_0xc81e72_2_M_6_L_2", 0, 0, {}], ["BP_0x8f14e4_7_S_0xc81e72_2_M_10_L_2", 0, 0, {}], ["concatenate_636", 0, 0, {}]]]}, {"name": "concatenate_639", "class_name": "Concatenate", "config": {"name": "concatenate_639", "trainable": true, "dtype": "float32", "axis": -1}, "inbound_nodes": [[["input_31", 0, 0, {}], ["concatenate_630", 0, 0, {}], ["concatenate_638", 0, 0, {}]]]}, {"name": "dense_31", "class_name": "Dense", "config": {"name": "dense_31", "trainable": true, "dtype": "float32", "units": 2, "activation": "linear", "use_bias": true, "kernel_initializer": {"class_name": "VarianceScaling", "config": {"scale": 1.0, "mode": "fan_avg", "distribution": "uniform", "seed": null}}, "bias_initializer": {"class_name": "Zeros", "config": {}}, "kernel_regularizer": null, "bias_regularizer": null, "activity_regularizer": null, "kernel_constraint": null, "bias_constraint": null}, "inbound_nodes": [[["concatenate_639", 0, 0, {}]]]}, {"name": "activation_31", "class_name": "Activation", "config": {"name": "activation_31", "trainable": true, "dtype": "float32", "activation": "softmax"}, "inbound_nodes": [[["dense_31", 0, 0, {}]]]}], "input_layers": [["input_31", 0, 0]], "output_layers": [["activation_31", 0, 0]]}, "keras_version": "2.2.5", "backend": "tensorflow"}