{"class_name": "Model", "config": {"name": "model_52", "layers": [{"name": "input_52", "class_name": "InputLayer", "config": {"batch_input_shape": [null, 143], "dtype": "float32", "sparse": false, "name": "input_52"}, "inbound_nodes": []}, {"name": "BP_0xa87ff6_4_S_0xc4ca42_1_M_4_L_0", "class_name": "BatchNormalization", "config": {"name": "BP_0xa87ff6_4_S_0xc4ca42_1_M_4_L_0", "trainable": true, "dtype": "float32", "axis": -1, "momentum": 0.9, "epsilon": 1e-05, "center": true, "scale": true, "beta_initializer": {"class_name": "Zeros", "config": {}}, "gamma_initializer": {"class_name": "Ones", "config": {}}, "moving_mean_initializer": {"class_name": "Zeros", "config": {}}, "moving_variance_initializer": {"class_name": "Ones", "config": {}}, "beta_regularizer": null, "gamma_regularizer": null, "beta_constraint": null, "gamma_constraint": null}, "inbound_nodes": [[["input_52", 0, 0, {}]]]}, {"name": "BP_0xa87ff6_4_S_0xc4ca42_1_M_4_L_1", "class_name": "Dense", "config": {"name": "BP_0xa87ff6_4_S_0xc4ca42_1_M_4_L_1", "trainable": true, "dtype": "float32", "units": 64, "activation": "linear", "use_bias": true, "kernel_initializer": {"class_name": "VarianceScaling", "config": {"scale": 2.0, "mode": "fan_in", "distribution": "normal", "seed": null}}, "bias_initializer": {"class_name": "Zeros", "config": {}}, "kernel_regularizer": {"class_name": "L1L2", "config": {"l1": 0.0, "l2": 0.0002500000118743628}}, "bias_regularizer": null, "activity_regularizer": null, "kernel_constraint": null, "bias_constraint": null}, "inbound_nodes": [[["BP_0xa87ff6_4_S_0xc4ca42_1_M_4_L_0", 0, 0, {}]]]}, {"name": "BP_0xa87ff6_4_S_0xc4ca42_1_M_4_L_2", "class_name": "Activation", "config": {"name": "BP_0xa87ff6_4_S_0xc4ca42_1_M_4_L_2", "trainable": true, "dtype": "float32", "activation": "relu"}, "inbound_nodes": [[["BP_0xa87ff6_4_S_0xc4ca42_1_M_4_L_1", 0, 0, {}]]]}, {"name": "BP_0xa87ff6_4_S_0xc4ca42_1_M_9_L_0", "class_name": "BatchNormalization", "config": {"name": "BP_0xa87ff6_4_S_0xc4ca42_1_M_9_L_0", "trainable": true, "dtype": "float32", "axis": -1, "momentum": 0.9, "epsilon": 1e-05, "center": true, "scale": true, "beta_initializer": {"class_name": "Zeros", "config": {}}, "gamma_initializer": {"class_name": "Ones", "config": {}}, "moving_mean_initializer": {"class_name": "Zeros", "config": {}}, "moving_variance_initializer": {"class_name": "Ones", "config": {}}, "beta_regularizer": null, "gamma_regularizer": null, "beta_constraint": null, "gamma_constraint": null}, "inbound_nodes": [[["BP_0xa87ff6_4_S_0xc4ca42_1_M_4_L_2", 0, 0, {}]]]}, {"name": "BP_0xa87ff6_4_S_0xc4ca42_1_M_9_L_1", "class_name": "Dense", "config": {"name": "BP_0xa87ff6_4_S_0xc4ca42_1_M_9_L_1", "trainable": true, "dtype": "float32", "units": 64, "activation": "linear", "use_bias": true, "kernel_initializer": {"class_name": "VarianceScaling", "config": {"scale": 2.0, "mode": "fan_in", "distribution": "normal", "seed": null}}, "bias_initializer": {"class_name": "Zeros", "config": {}}, "kernel_regularizer": {"class_name": "L1L2", "config": {"l1": 0.0, "l2": 0.0002500000118743628}}, "bias_regularizer": null, "activity_regularizer": null, "kernel_constraint": null, "bias_constraint": null}, "inbound_nodes": [[["BP_0xa87ff6_4_S_0xc4ca42_1_M_9_L_0", 0, 0, {}]]]}, {"name": "BP_0xa87ff6_4_S_0xc4ca42_1_M_9_L_2", "class_name": "Activation", "config": {"name": "BP_0xa87ff6_4_S_0xc4ca42_1_M_9_L_2", "trainable": true, "dtype": "float32", "activation": "relu"}, "inbound_nodes": [[["BP_0xa87ff6_4_S_0xc4ca42_1_M_9_L_1", 0, 0, {}]]]}, {"name": "BP_0xa87ff6_4_S_0xc4ca42_1_M_14_L_0", "class_name": "BatchNormalization", "config": {"name": "BP_0xa87ff6_4_S_0xc4ca42_1_M_14_L_0", "trainable": true, "dtype": "float32", "axis": -1, "momentum": 0.9, "epsilon": 1e-05, "center": true, "scale": true, "beta_initializer": {"class_name": "Zeros", "config": {}}, "gamma_initializer": {"class_name": "Ones", "config": {}}, "moving_mean_initializer": {"class_name": "Zeros", "config": {}}, "moving_variance_initializer": {"class_name": "Ones", "config": {}}, "beta_regularizer": null, "gamma_regularizer": null, "beta_constraint": null, "gamma_constraint": null}, "inbound_nodes": [[["BP_0xa87ff6_4_S_0xc4ca42_1_M_9_L_2", 0, 0, {}]]]}, {"name": "BP_0xa87ff6_4_S_0xc4ca42_1_M_14_L_1", "class_name": "Dense", "config": {"name": "BP_0xa87ff6_4_S_0xc4ca42_1_M_14_L_1", "trainable": true, "dtype": "float32", "units": 64, "activation": "linear", "use_bias": true, "kernel_initializer": {"class_name": "VarianceScaling", "config": {"scale": 2.0, "mode": "fan_in", "distribution": "normal", "seed": null}}, "bias_initializer": {"class_name": "Zeros", "config": {}}, "kernel_regularizer": {"class_name": "L1L2", "config": {"l1": 0.0, "l2": 0.0002500000118743628}}, "bias_regularizer": null, "activity_regularizer": null, "kernel_constraint": null, "bias_constraint": null}, "inbound_nodes": [[["BP_0xa87ff6_4_S_0xc4ca42_1_M_14_L_0", 0, 0, {}]]]}, {"name": "BP_0xa87ff6_4_S_0xc4ca42_1_M_14_L_2", "class_name": "Activation", "config": {"name": "BP_0xa87ff6_4_S_0xc4ca42_1_M_14_L_2", "trainable": true, "dtype": "float32", "activation": "relu"}, "inbound_nodes": [[["BP_0xa87ff6_4_S_0xc4ca42_1_M_14_L_1", 0, 0, {}]]]}, {"name": "concatenate_1035", "class_name": "Concatenate", "config": {"name": "concatenate_1035", "trainable": true, "dtype": "float32", "axis": -1}, "inbound_nodes": [[["BP_0xa87ff6_4_S_0xc4ca42_1_M_9_L_2", 0, 0, {}], ["BP_0xa87ff6_4_S_0xc4ca42_1_M_14_L_2", 0, 0, {}]]]}, {"name": "BP_0xa87ff6_4_S_0xc4ca42_1_M_6_L_0", "class_name": "Dense", "config": {"name": "BP_0xa87ff6_4_S_0xc4ca42_1_M_6_L_0", "trainable": true, "dtype": "float32", "units": 64, "activation": "linear", "use_bias": true, "kernel_initializer": {"class_name": "VarianceScaling", "config": {"scale": 2.0, "mode": "fan_in", "distribution": "normal", "seed": null}}, "bias_initializer": {"class_name": "Zeros", "config": {}}, "kernel_regularizer": {"class_name": "L1L2", "config": {"l1": 0.0, "l2": 0.0002500000118743628}}, "bias_regularizer": null, "activity_regularizer": null, "kernel_constraint": null, "bias_constraint": null}, "inbound_nodes": [[["concatenate_1035", 0, 0, {}]]]}, {"name": "BP_0xa87ff6_4_S_0xc4ca42_1_M_10_L_0", "class_name": "Dense", "config": {"name": "BP_0xa87ff6_4_S_0xc4ca42_1_M_10_L_0", "trainable": true, "dtype": "float32", "units": 64, "activation": "linear", "use_bias": true, "kernel_initializer": {"class_name": "VarianceScaling", "config": {"scale": 2.0, "mode": "fan_in", "distribution": "normal", "seed": null}}, "bias_initializer": {"class_name": "Zeros", "config": {}}, "kernel_regularizer": {"class_name": "L1L2", "config": {"l1": 0.0, "l2": 0.0002500000118743628}}, "bias_regularizer": null, "activity_regularizer": null, "kernel_constraint": null, "bias_constraint": null}, "inbound_nodes": [[["input_52", 0, 0, {}]]]}, {"name": "BP_0xa87ff6_4_S_0xc4ca42_1_M_6_L_1", "class_name": "Activation", "config": {"name": "BP_0xa87ff6_4_S_0xc4ca42_1_M_6_L_1", "trainable": true, "dtype": "float32", "activation": "relu"}, "inbound_nodes": [[["BP_0xa87ff6_4_S_0xc4ca42_1_M_6_L_0", 0, 0, {}]]]}, {"name": "BP_0xa87ff6_4_S_0xc4ca42_1_M_10_L_1", "class_name": "Activation", "config": {"name": "BP_0xa87ff6_4_S_0xc4ca42_1_M_10_L_1", "trainable": true, "dtype": "float32", "activation": "relu"}, "inbound_nodes": [[["BP_0xa87ff6_4_S_0xc4ca42_1_M_10_L_0", 0, 0, {}]]]}, {"name": "BP_0xa87ff6_4_S_0xc4ca42_1_M_6_L_2", "class_name": "Dropout", "config": {"name": "BP_0xa87ff6_4_S_0xc4ca42_1_M_6_L_2", "trainable": true, "dtype": "float32", "rate": 0.25, "noise_shape": null, "seed": null}, "inbound_nodes": [[["BP_0xa87ff6_4_S_0xc4ca42_1_M_6_L_1", 0, 0, {}]]]}, {"name": "BP_0xa87ff6_4_S_0xc4ca42_1_M_10_L_2", "class_name": "Dropout", "config": {"name": "BP_0xa87ff6_4_S_0xc4ca42_1_M_10_L_2", "trainable": true, "dtype": "float32", "rate": 0.25, "noise_shape": null, "seed": null}, "inbound_nodes": [[["BP_0xa87ff6_4_S_0xc4ca42_1_M_10_L_1", 0, 0, {}]]]}, {"name": "concatenate_1036", "class_name": "Concatenate", "config": {"name": "concatenate_1036", "trainable": true, "dtype": "float32", "axis": -1}, "inbound_nodes": [[["BP_0xa87ff6_4_S_0xc4ca42_1_M_6_L_2", 0, 0, {}], ["BP_0xa87ff6_4_S_0xc4ca42_1_M_10_L_2", 0, 0, {}], ["input_52", 0, 0, {}]]]}, {"name": "concatenate_1037", "class_name": "Concatenate", "config": {"name": "concatenate_1037", "trainable": true, "dtype": "float32", "axis": -1}, "inbound_nodes": [[["input_52", 0, 0, {}], ["concatenate_1036", 0, 0, {}]]]}, {"name": "BP_0xc4ca42_1_S_0xc81e72_2_M_4_L_0", "class_name": "Dense", "config": {"name": "BP_0xc4ca42_1_S_0xc81e72_2_M_4_L_0", "trainable": true, "dtype": "float32", "units": 64, "activation": "linear", "use_bias": true, "kernel_initializer": {"class_name": "VarianceScaling", "config": {"scale": 2.0, "mode": "fan_in", "distribution": "normal", "seed": null}}, "bias_initializer": {"class_name": "Zeros", "config": {}}, "kernel_regularizer": {"class_name": "L1L2", "config": {"l1": 0.0, "l2": 0.0002500000118743628}}, "bias_regularizer": null, "activity_regularizer": null, "kernel_constraint": null, "bias_constraint": null}, "inbound_nodes": [[["concatenate_1037", 0, 0, {}]]]}, {"name": "BP_0xc4ca42_1_S_0xc81e72_2_M_4_L_1", "class_name": "Activation", "config": {"name": "BP_0xc4ca42_1_S_0xc81e72_2_M_4_L_1", "trainable": true, "dtype": "float32", "activation": "relu"}, "inbound_nodes": [[["BP_0xc4ca42_1_S_0xc81e72_2_M_4_L_0", 0, 0, {}]]]}, {"name": "BP_0xc4ca42_1_S_0xc81e72_2_M_4_L_2", "class_name": "Dropout", "config": {"name": "BP_0xc4ca42_1_S_0xc81e72_2_M_4_L_2", "trainable": true, "dtype": "float32", "rate": 0.25, "noise_shape": null, "seed": null}, "inbound_nodes": [[["BP_0xc4ca42_1_S_0xc81e72_2_M_4_L_1", 0, 0, {}]]]}, {"name": "BP_0xc4ca42_1_S_0xc81e72_2_M_9_L_0", "class_name": "BatchNormalization", "config": {"name": "BP_0xc4ca42_1_S_0xc81e72_2_M_9_L_0", "trainable": true, "dtype": "float32", "axis": -1, "momentum": 0.9, "epsilon": 1e-05, "center": true, "scale": true, "beta_initializer": {"class_name": "Zeros", "config": {}}, "gamma_initializer": {"class_name": "Ones", "config": {}}, "moving_mean_initializer": {"class_name": "Zeros", "config": {}}, "moving_variance_initializer": {"class_name": "Ones", "config": {}}, "beta_regularizer": null, "gamma_regularizer": null, "beta_constraint": null, "gamma_constraint": null}, "inbound_nodes": [[["BP_0xc4ca42_1_S_0xc81e72_2_M_4_L_2", 0, 0, {}]]]}, {"name": "BP_0xc4ca42_1_S_0xc81e72_2_M_9_L_1", "class_name": "Dense", "config": {"name": "BP_0xc4ca42_1_S_0xc81e72_2_M_9_L_1", "trainable": true, "dtype": "float32", "units": 64, "activation": "linear", "use_bias": true, "kernel_initializer": {"class_name": "VarianceScaling", "config": {"scale": 2.0, "mode": "fan_in", "distribution": "normal", "seed": null}}, "bias_initializer": {"class_name": "Zeros", "config": {}}, "kernel_regularizer": {"class_name": "L1L2", "config": {"l1": 0.0, "l2": 0.0002500000118743628}}, "bias_regularizer": null, "activity_regularizer": null, "kernel_constraint": null, "bias_constraint": null}, "inbound_nodes": [[["BP_0xc4ca42_1_S_0xc81e72_2_M_9_L_0", 0, 0, {}]]]}, {"name": "BP_0xc4ca42_1_S_0xc81e72_2_M_9_L_2", "class_name": "Activation", "config": {"name": "BP_0xc4ca42_1_S_0xc81e72_2_M_9_L_2", "trainable": true, "dtype": "float32", "activation": "relu"}, "inbound_nodes": [[["BP_0xc4ca42_1_S_0xc81e72_2_M_9_L_1", 0, 0, {}]]]}, {"name": "BP_0xc4ca42_1_S_0xc81e72_2_M_14_L_0", "class_name": "BatchNormalization", "config": {"name": "BP_0xc4ca42_1_S_0xc81e72_2_M_14_L_0", "trainable": true, "dtype": "float32", "axis": -1, "momentum": 0.9, "epsilon": 1e-05, "center": true, "scale": true, "beta_initializer": {"class_name": "Zeros", "config": {}}, "gamma_initializer": {"class_name": "Ones", "config": {}}, "moving_mean_initializer": {"class_name": "Zeros", "config": {}}, "moving_variance_initializer": {"class_name": "Ones", "config": {}}, "beta_regularizer": null, "gamma_regularizer": null, "beta_constraint": null, "gamma_constraint": null}, "inbound_nodes": [[["BP_0xc4ca42_1_S_0xc81e72_2_M_9_L_2", 0, 0, {}]]]}, {"name": "BP_0xc4ca42_1_S_0xc81e72_2_M_14_L_1", "class_name": "Dense", "config": {"name": "BP_0xc4ca42_1_S_0xc81e72_2_M_14_L_1", "trainable": true, "dtype": "float32", "units": 64, "activation": "linear", "use_bias": true, "kernel_initializer": {"class_name": "VarianceScaling", "config": {"scale": 2.0, "mode": "fan_in", "distribution": "normal", "seed": null}}, "bias_initializer": {"class_name": "Zeros", "config": {}}, "kernel_regularizer": {"class_name": "L1L2", "config": {"l1": 0.0, "l2": 0.0002500000118743628}}, "bias_regularizer": null, "activity_regularizer": null, "kernel_constraint": null, "bias_constraint": null}, "inbound_nodes": [[["BP_0xc4ca42_1_S_0xc81e72_2_M_14_L_0", 0, 0, {}]]]}, {"name": "BP_0xc4ca42_1_S_0xc81e72_2_M_14_L_2", "class_name": "Activation", "config": {"name": "BP_0xc4ca42_1_S_0xc81e72_2_M_14_L_2", "trainable": true, "dtype": "float32", "activation": "relu"}, "inbound_nodes": [[["BP_0xc4ca42_1_S_0xc81e72_2_M_14_L_1", 0, 0, {}]]]}, {"name": "concatenate_1038", "class_name": "Concatenate", "config": {"name": "concatenate_1038", "trainable": true, "dtype": "float32", "axis": -1}, "inbound_nodes": [[["BP_0xc4ca42_1_S_0xc81e72_2_M_9_L_2", 0, 0, {}], ["BP_0xc4ca42_1_S_0xc81e72_2_M_14_L_2", 0, 0, {}]]]}, {"name": "BP_0xc4ca42_1_S_0xc81e72_2_M_6_L_0", "class_name": "BatchNormalization", "config": {"name": "BP_0xc4ca42_1_S_0xc81e72_2_M_6_L_0", "trainable": true, "dtype": "float32", "axis": -1, "momentum": 0.9, "epsilon": 1e-05, "center": true, "scale": true, "beta_initializer": {"class_name": "Zeros", "config": {}}, "gamma_initializer": {"class_name": "Ones", "config": {}}, "moving_mean_initializer": {"class_name": "Zeros", "config": {}}, "moving_variance_initializer": {"class_name": "Ones", "config": {}}, "beta_regularizer": null, "gamma_regularizer": null, "beta_constraint": null, "gamma_constraint": null}, "inbound_nodes": [[["concatenate_1038", 0, 0, {}]]]}, {"name": "BP_0xc4ca42_1_S_0xc81e72_2_M_10_L_0", "class_name": "BatchNormalization", "config": {"name": "BP_0xc4ca42_1_S_0xc81e72_2_M_10_L_0", "trainable": true, "dtype": "float32", "axis": -1, "momentum": 0.9, "epsilon": 1e-05, "center": true, "scale": true, "beta_initializer": {"class_name": "Zeros", "config": {}}, "gamma_initializer": {"class_name": "Ones", "config": {}}, "moving_mean_initializer": {"class_name": "Zeros", "config": {}}, "moving_variance_initializer": {"class_name": "Ones", "config": {}}, "beta_regularizer": null, "gamma_regularizer": null, "beta_constraint": null, "gamma_constraint": null}, "inbound_nodes": [[["concatenate_1037", 0, 0, {}]]]}, {"name": "BP_0xc4ca42_1_S_0xc81e72_2_M_6_L_1", "class_name": "Dense", "config": {"name": "BP_0xc4ca42_1_S_0xc81e72_2_M_6_L_1", "trainable": true, "dtype": "float32", "units": 64, "activation": "linear", "use_bias": true, "kernel_initializer": {"class_name": "VarianceScaling", "config": {"scale": 2.0, "mode": "fan_in", "distribution": "normal", "seed": null}}, "bias_initializer": {"class_name": "Zeros", "config": {}}, "kernel_regularizer": {"class_name": "L1L2", "config": {"l1": 0.0, "l2": 0.0002500000118743628}}, "bias_regularizer": null, "activity_regularizer": null, "kernel_constraint": null, "bias_constraint": null}, "inbound_nodes": [[["BP_0xc4ca42_1_S_0xc81e72_2_M_6_L_0", 0, 0, {}]]]}, {"name": "BP_0xc4ca42_1_S_0xc81e72_2_M_10_L_1", "class_name": "Dense", "config": {"name": "BP_0xc4ca42_1_S_0xc81e72_2_M_10_L_1", "trainable": true, "dtype": "float32", "units": 64, "activation": "linear", "use_bias": true, "kernel_initializer": {"class_name": "VarianceScaling", "config": {"scale": 2.0, "mode": "fan_in", "distribution": "normal", "seed": null}}, "bias_initializer": {"class_name": "Zeros", "config": {}}, "kernel_regularizer": {"class_name": "L1L2", "config": {"l1": 0.0, "l2": 0.0002500000118743628}}, "bias_regularizer": null, "activity_regularizer": null, "kernel_constraint": null, "bias_constraint": null}, "inbound_nodes": [[["BP_0xc4ca42_1_S_0xc81e72_2_M_10_L_0", 0, 0, {}]]]}, {"name": "BP_0xc4ca42_1_S_0xc81e72_2_M_6_L_2", "class_name": "Activation", "config": {"name": "BP_0xc4ca42_1_S_0xc81e72_2_M_6_L_2", "trainable": true, "dtype": "float32", "activation": "relu"}, "inbound_nodes": [[["BP_0xc4ca42_1_S_0xc81e72_2_M_6_L_1", 0, 0, {}]]]}, {"name": "BP_0xc4ca42_1_S_0xc81e72_2_M_10_L_2", "class_name": "Activation", "config": {"name": "BP_0xc4ca42_1_S_0xc81e72_2_M_10_L_2", "trainable": true, "dtype": "float32", "activation": "relu"}, "inbound_nodes": [[["BP_0xc4ca42_1_S_0xc81e72_2_M_10_L_1", 0, 0, {}]]]}, {"name": "concatenate_1039", "class_name": "Concatenate", "config": {"name": "concatenate_1039", "trainable": true, "dtype": "float32", "axis": -1}, "inbound_nodes": [[["BP_0xc4ca42_1_S_0xc81e72_2_M_6_L_2", 0, 0, {}], ["BP_0xc4ca42_1_S_0xc81e72_2_M_10_L_2", 0, 0, {}], ["concatenate_1037", 0, 0, {}]]]}, {"name": "BP_0xc9f0f8_8_S_0xc4ca42_1_M_4_L_0", "class_name": "BatchNormalization", "config": {"name": "BP_0xc9f0f8_8_S_0xc4ca42_1_M_4_L_0", "trainable": true, "dtype": "float32", "axis": -1, "momentum": 0.9, "epsilon": 1e-05, "center": true, "scale": true, "beta_initializer": {"class_name": "Zeros", "config": {}}, "gamma_initializer": {"class_name": "Ones", "config": {}}, "moving_mean_initializer": {"class_name": "Zeros", "config": {}}, "moving_variance_initializer": {"class_name": "Ones", "config": {}}, "beta_regularizer": null, "gamma_regularizer": null, "beta_constraint": null, "gamma_constraint": null}, "inbound_nodes": [[["concatenate_1039", 0, 0, {}]]]}, {"name": "BP_0xc9f0f8_8_S_0xc4ca42_1_M_4_L_1", "class_name": "Dense", "config": {"name": "BP_0xc9f0f8_8_S_0xc4ca42_1_M_4_L_1", "trainable": true, "dtype": "float32", "units": 64, "activation": "linear", "use_bias": true, "kernel_initializer": {"class_name": "VarianceScaling", "config": {"scale": 2.0, "mode": "fan_in", "distribution": "normal", "seed": null}}, "bias_initializer": {"class_name": "Zeros", "config": {}}, "kernel_regularizer": {"class_name": "L1L2", "config": {"l1": 0.0, "l2": 0.0002500000118743628}}, "bias_regularizer": null, "activity_regularizer": null, "kernel_constraint": null, "bias_constraint": null}, "inbound_nodes": [[["BP_0xc9f0f8_8_S_0xc4ca42_1_M_4_L_0", 0, 0, {}]]]}, {"name": "BP_0xc9f0f8_8_S_0xc4ca42_1_M_4_L_2", "class_name": "Activation", "config": {"name": "BP_0xc9f0f8_8_S_0xc4ca42_1_M_4_L_2", "trainable": true, "dtype": "float32", "activation": "relu"}, "inbound_nodes": [[["BP_0xc9f0f8_8_S_0xc4ca42_1_M_4_L_1", 0, 0, {}]]]}, {"name": "BP_0xc9f0f8_8_S_0xc4ca42_1_M_9_L_0", "class_name": "BatchNormalization", "config": {"name": "BP_0xc9f0f8_8_S_0xc4ca42_1_M_9_L_0", "trainable": true, "dtype": "float32", "axis": -1, "momentum": 0.9, "epsilon": 1e-05, "center": true, "scale": true, "beta_initializer": {"class_name": "Zeros", "config": {}}, "gamma_initializer": {"class_name": "Ones", "config": {}}, "moving_mean_initializer": {"class_name": "Zeros", "config": {}}, "moving_variance_initializer": {"class_name": "Ones", "config": {}}, "beta_regularizer": null, "gamma_regularizer": null, "beta_constraint": null, "gamma_constraint": null}, "inbound_nodes": [[["BP_0xc9f0f8_8_S_0xc4ca42_1_M_4_L_2", 0, 0, {}]]]}, {"name": "BP_0xc9f0f8_8_S_0xc4ca42_1_M_9_L_1", "class_name": "Dense", "config": {"name": "BP_0xc9f0f8_8_S_0xc4ca42_1_M_9_L_1", "trainable": true, "dtype": "float32", "units": 64, "activation": "linear", "use_bias": true, "kernel_initializer": {"class_name": "VarianceScaling", "config": {"scale": 2.0, "mode": "fan_in", "distribution": "normal", "seed": null}}, "bias_initializer": {"class_name": "Zeros", "config": {}}, "kernel_regularizer": {"class_name": "L1L2", "config": {"l1": 0.0, "l2": 0.0002500000118743628}}, "bias_regularizer": null, "activity_regularizer": null, "kernel_constraint": null, "bias_constraint": null}, "inbound_nodes": [[["BP_0xc9f0f8_8_S_0xc4ca42_1_M_9_L_0", 0, 0, {}]]]}, {"name": "BP_0xc9f0f8_8_S_0xc4ca42_1_M_9_L_2", "class_name": "Activation", "config": {"name": "BP_0xc9f0f8_8_S_0xc4ca42_1_M_9_L_2", "trainable": true, "dtype": "float32", "activation": "relu"}, "inbound_nodes": [[["BP_0xc9f0f8_8_S_0xc4ca42_1_M_9_L_1", 0, 0, {}]]]}, {"name": "BP_0xc9f0f8_8_S_0xc4ca42_1_M_14_L_0", "class_name": "BatchNormalization", "config": {"name": "BP_0xc9f0f8_8_S_0xc4ca42_1_M_14_L_0", "trainable": true, "dtype": "float32", "axis": -1, "momentum": 0.9, "epsilon": 1e-05, "center": true, "scale": true, "beta_initializer": {"class_name": "Zeros", "config": {}}, "gamma_initializer": {"class_name": "Ones", "config": {}}, "moving_mean_initializer": {"class_name": "Zeros", "config": {}}, "moving_variance_initializer": {"class_name": "Ones", "config": {}}, "beta_regularizer": null, "gamma_regularizer": null, "beta_constraint": null, "gamma_constraint": null}, "inbound_nodes": [[["BP_0xc9f0f8_8_S_0xc4ca42_1_M_9_L_2", 0, 0, {}]]]}, {"name": "BP_0xc9f0f8_8_S_0xc4ca42_1_M_14_L_1", "class_name": "Dense", "config": {"name": "BP_0xc9f0f8_8_S_0xc4ca42_1_M_14_L_1", "trainable": true, "dtype": "float32", "units": 64, "activation": "linear", "use_bias": true, "kernel_initializer": {"class_name": "VarianceScaling", "config": {"scale": 2.0, "mode": "fan_in", "distribution": "normal", "seed": null}}, "bias_initializer": {"class_name": "Zeros", "config": {}}, "kernel_regularizer": {"class_name": "L1L2", "config": {"l1": 0.0, "l2": 0.0002500000118743628}}, "bias_regularizer": null, "activity_regularizer": null, "kernel_constraint": null, "bias_constraint": null}, "inbound_nodes": [[["BP_0xc9f0f8_8_S_0xc4ca42_1_M_14_L_0", 0, 0, {}]]]}, {"name": "BP_0xc9f0f8_8_S_0xc4ca42_1_M_14_L_2", "class_name": "Activation", "config": {"name": "BP_0xc9f0f8_8_S_0xc4ca42_1_M_14_L_2", "trainable": true, "dtype": "float32", "activation": "relu"}, "inbound_nodes": [[["BP_0xc9f0f8_8_S_0xc4ca42_1_M_14_L_1", 0, 0, {}]]]}, {"name": "concatenate_1044", "class_name": "Concatenate", "config": {"name": "concatenate_1044", "trainable": true, "dtype": "float32", "axis": -1}, "inbound_nodes": [[["BP_0xc9f0f8_8_S_0xc4ca42_1_M_9_L_2", 0, 0, {}], ["BP_0xc9f0f8_8_S_0xc4ca42_1_M_14_L_2", 0, 0, {}]]]}, {"name": "BP_0xc9f0f8_8_S_0xc4ca42_1_M_6_L_0", "class_name": "Dense", "config": {"name": "BP_0xc9f0f8_8_S_0xc4ca42_1_M_6_L_0", "trainable": true, "dtype": "float32", "units": 64, "activation": "linear", "use_bias": true, "kernel_initializer": {"class_name": "VarianceScaling", "config": {"scale": 2.0, "mode": "fan_in", "distribution": "normal", "seed": null}}, "bias_initializer": {"class_name": "Zeros", "config": {}}, "kernel_regularizer": {"class_name": "L1L2", "config": {"l1": 0.0, "l2": 0.0002500000118743628}}, "bias_regularizer": null, "activity_regularizer": null, "kernel_constraint": null, "bias_constraint": null}, "inbound_nodes": [[["concatenate_1044", 0, 0, {}]]]}, {"name": "BP_0xc9f0f8_8_S_0xc4ca42_1_M_10_L_0", "class_name": "Dense", "config": {"name": "BP_0xc9f0f8_8_S_0xc4ca42_1_M_10_L_0", "trainable": true, "dtype": "float32", "units": 64, "activation": "linear", "use_bias": true, "kernel_initializer": {"class_name": "VarianceScaling", "config": {"scale": 2.0, "mode": "fan_in", "distribution": "normal", "seed": null}}, "bias_initializer": {"class_name": "Zeros", "config": {}}, "kernel_regularizer": {"class_name": "L1L2", "config": {"l1": 0.0, "l2": 0.0002500000118743628}}, "bias_regularizer": null, "activity_regularizer": null, "kernel_constraint": null, "bias_constraint": null}, "inbound_nodes": [[["concatenate_1039", 0, 0, {}]]]}, {"name": "BP_0xc9f0f8_8_S_0xc4ca42_1_M_6_L_1", "class_name": "Activation", "config": {"name": "BP_0xc9f0f8_8_S_0xc4ca42_1_M_6_L_1", "trainable": true, "dtype": "float32", "activation": "relu"}, "inbound_nodes": [[["BP_0xc9f0f8_8_S_0xc4ca42_1_M_6_L_0", 0, 0, {}]]]}, {"name": "BP_0xc9f0f8_8_S_0xc4ca42_1_M_10_L_1", "class_name": "Activation", "config": {"name": "BP_0xc9f0f8_8_S_0xc4ca42_1_M_10_L_1", "trainable": true, "dtype": "float32", "activation": "relu"}, "inbound_nodes": [[["BP_0xc9f0f8_8_S_0xc4ca42_1_M_10_L_0", 0, 0, {}]]]}, {"name": "BP_0xc9f0f8_8_S_0xc4ca42_1_M_6_L_2", "class_name": "Dropout", "config": {"name": "BP_0xc9f0f8_8_S_0xc4ca42_1_M_6_L_2", "trainable": true, "dtype": "float32", "rate": 0.25, "noise_shape": null, "seed": null}, "inbound_nodes": [[["BP_0xc9f0f8_8_S_0xc4ca42_1_M_6_L_1", 0, 0, {}]]]}, {"name": "BP_0xc9f0f8_8_S_0xc4ca42_1_M_10_L_2", "class_name": "Dropout", "config": {"name": "BP_0xc9f0f8_8_S_0xc4ca42_1_M_10_L_2", "trainable": true, "dtype": "float32", "rate": 0.25, "noise_shape": null, "seed": null}, "inbound_nodes": [[["BP_0xc9f0f8_8_S_0xc4ca42_1_M_10_L_1", 0, 0, {}]]]}, {"name": "concatenate_1045", "class_name": "Concatenate", "config": {"name": "concatenate_1045", "trainable": true, "dtype": "float32", "axis": -1}, "inbound_nodes": [[["BP_0xc9f0f8_8_S_0xc4ca42_1_M_6_L_2", 0, 0, {}], ["BP_0xc9f0f8_8_S_0xc4ca42_1_M_10_L_2", 0, 0, {}], ["concatenate_1039", 0, 0, {}]]]}, {"name": "BP_0xc20ad4_12_S_0xc4ca42_1_M_4_L_0", "class_name": "BatchNormalization", "config": {"name": "BP_0xc20ad4_12_S_0xc4ca42_1_M_4_L_0", "trainable": true, "dtype": "float32", "axis": -1, "momentum": 0.9, "epsilon": 1e-05, "center": true, "scale": true, "beta_initializer": {"class_name": "Zeros", "config": {}}, "gamma_initializer": {"class_name": "Ones", "config": {}}, "moving_mean_initializer": {"class_name": "Zeros", "config": {}}, "moving_variance_initializer": {"class_name": "Ones", "config": {}}, "beta_regularizer": null, "gamma_regularizer": null, "beta_constraint": null, "gamma_constraint": null}, "inbound_nodes": [[["concatenate_1045", 0, 0, {}]]]}, {"name": "BP_0x45c48c_9_S_0xc81e72_2_M_4_L_0", "class_name": "Dense", "config": {"name": "BP_0x45c48c_9_S_0xc81e72_2_M_4_L_0", "trainable": true, "dtype": "float32", "units": 64, "activation": "linear", "use_bias": true, "kernel_initializer": {"class_name": "VarianceScaling", "config": {"scale": 2.0, "mode": "fan_in", "distribution": "normal", "seed": null}}, "bias_initializer": {"class_name": "Zeros", "config": {}}, "kernel_regularizer": {"class_name": "L1L2", "config": {"l1": 0.0, "l2": 0.0002500000118743628}}, "bias_regularizer": null, "activity_regularizer": null, "kernel_constraint": null, "bias_constraint": null}, "inbound_nodes": [[["concatenate_1039", 0, 0, {}]]]}, {"name": "BP_0xc20ad4_12_S_0xc4ca42_1_M_4_L_1", "class_name": "Dense", "config": {"name": "BP_0xc20ad4_12_S_0xc4ca42_1_M_4_L_1", "trainable": true, "dtype": "float32", "units": 64, "activation": "linear", "use_bias": true, "kernel_initializer": {"class_name": "VarianceScaling", "config": {"scale": 2.0, "mode": "fan_in", "distribution": "normal", "seed": null}}, "bias_initializer": {"class_name": "Zeros", "config": {}}, "kernel_regularizer": {"class_name": "L1L2", "config": {"l1": 0.0, "l2": 0.0002500000118743628}}, "bias_regularizer": null, "activity_regularizer": null, "kernel_constraint": null, "bias_constraint": null}, "inbound_nodes": [[["BP_0xc20ad4_12_S_0xc4ca42_1_M_4_L_0", 0, 0, {}]]]}, {"name": "BP_0x45c48c_9_S_0xc81e72_2_M_4_L_1", "class_name": "Activation", "config": {"name": "BP_0x45c48c_9_S_0xc81e72_2_M_4_L_1", "trainable": true, "dtype": "float32", "activation": "relu"}, "inbound_nodes": [[["BP_0x45c48c_9_S_0xc81e72_2_M_4_L_0", 0, 0, {}]]]}, {"name": "BP_0xc20ad4_12_S_0xc4ca42_1_M_4_L_2", "class_name": "Activation", "config": {"name": "BP_0xc20ad4_12_S_0xc4ca42_1_M_4_L_2", "trainable": true, "dtype": "float32", "activation": "relu"}, "inbound_nodes": [[["BP_0xc20ad4_12_S_0xc4ca42_1_M_4_L_1", 0, 0, {}]]]}, {"name": "BP_0x45c48c_9_S_0xc81e72_2_M_4_L_2", "class_name": "Dropout", "config": {"name": "BP_0x45c48c_9_S_0xc81e72_2_M_4_L_2", "trainable": true, "dtype": "float32", "rate": 0.25, "noise_shape": null, "seed": null}, "inbound_nodes": [[["BP_0x45c48c_9_S_0xc81e72_2_M_4_L_1", 0, 0, {}]]]}, {"name": "BP_0xc20ad4_12_S_0xc4ca42_1_M_9_L_0", "class_name": "BatchNormalization", "config": {"name": "BP_0xc20ad4_12_S_0xc4ca42_1_M_9_L_0", "trainable": true, "dtype": "float32", "axis": -1, "momentum": 0.9, "epsilon": 1e-05, "center": true, "scale": true, "beta_initializer": {"class_name": "Zeros", "config": {}}, "gamma_initializer": {"class_name": "Ones", "config": {}}, "moving_mean_initializer": {"class_name": "Zeros", "config": {}}, "moving_variance_initializer": {"class_name": "Ones", "config": {}}, "beta_regularizer": null, "gamma_regularizer": null, "beta_constraint": null, "gamma_constraint": null}, "inbound_nodes": [[["BP_0xc20ad4_12_S_0xc4ca42_1_M_4_L_2", 0, 0, {}]]]}, {"name": "BP_0x45c48c_9_S_0xc81e72_2_M_9_L_0", "class_name": "BatchNormalization", "config": {"name": "BP_0x45c48c_9_S_0xc81e72_2_M_9_L_0", "trainable": true, "dtype": "float32", "axis": -1, "momentum": 0.9, "epsilon": 1e-05, "center": true, "scale": true, "beta_initializer": {"class_name": "Zeros", "config": {}}, "gamma_initializer": {"class_name": "Ones", "config": {}}, "moving_mean_initializer": {"class_name": "Zeros", "config": {}}, "moving_variance_initializer": {"class_name": "Ones", "config": {}}, "beta_regularizer": null, "gamma_regularizer": null, "beta_constraint": null, "gamma_constraint": null}, "inbound_nodes": [[["BP_0x45c48c_9_S_0xc81e72_2_M_4_L_2", 0, 0, {}]]]}, {"name": "BP_0xc20ad4_12_S_0xc4ca42_1_M_9_L_1", "class_name": "Dense", "config": {"name": "BP_0xc20ad4_12_S_0xc4ca42_1_M_9_L_1", "trainable": true, "dtype": "float32", "units": 64, "activation": "linear", "use_bias": true, "kernel_initializer": {"class_name": "VarianceScaling", "config": {"scale": 2.0, "mode": "fan_in", "distribution": "normal", "seed": null}}, "bias_initializer": {"class_name": "Zeros", "config": {}}, "kernel_regularizer": {"class_name": "L1L2", "config": {"l1": 0.0, "l2": 0.0002500000118743628}}, "bias_regularizer": null, "activity_regularizer": null, "kernel_constraint": null, "bias_constraint": null}, "inbound_nodes": [[["BP_0xc20ad4_12_S_0xc4ca42_1_M_9_L_0", 0, 0, {}]]]}, {"name": "BP_0x45c48c_9_S_0xc81e72_2_M_9_L_1", "class_name": "Dense", "config": {"name": "BP_0x45c48c_9_S_0xc81e72_2_M_9_L_1", "trainable": true, "dtype": "float32", "units": 64, "activation": "linear", "use_bias": true, "kernel_initializer": {"class_name": "VarianceScaling", "config": {"scale": 2.0, "mode": "fan_in", "distribution": "normal", "seed": null}}, "bias_initializer": {"class_name": "Zeros", "config": {}}, "kernel_regularizer": {"class_name": "L1L2", "config": {"l1": 0.0, "l2": 0.0002500000118743628}}, "bias_regularizer": null, "activity_regularizer": null, "kernel_constraint": null, "bias_constraint": null}, "inbound_nodes": [[["BP_0x45c48c_9_S_0xc81e72_2_M_9_L_0", 0, 0, {}]]]}, {"name": "BP_0xc20ad4_12_S_0xc4ca42_1_M_9_L_2", "class_name": "Activation", "config": {"name": "BP_0xc20ad4_12_S_0xc4ca42_1_M_9_L_2", "trainable": true, "dtype": "float32", "activation": "relu"}, "inbound_nodes": [[["BP_0xc20ad4_12_S_0xc4ca42_1_M_9_L_1", 0, 0, {}]]]}, {"name": "BP_0x45c48c_9_S_0xc81e72_2_M_9_L_2", "class_name": "Activation", "config": {"name": "BP_0x45c48c_9_S_0xc81e72_2_M_9_L_2", "trainable": true, "dtype": "float32", "activation": "relu"}, "inbound_nodes": [[["BP_0x45c48c_9_S_0xc81e72_2_M_9_L_1", 0, 0, {}]]]}, {"name": "BP_0xc20ad4_12_S_0xc4ca42_1_M_14_L_0", "class_name": "BatchNormalization", "config": {"name": "BP_0xc20ad4_12_S_0xc4ca42_1_M_14_L_0", "trainable": true, "dtype": "float32", "axis": -1, "momentum": 0.9, "epsilon": 1e-05, "center": true, "scale": true, "beta_initializer": {"class_name": "Zeros", "config": {}}, "gamma_initializer": {"class_name": "Ones", "config": {}}, "moving_mean_initializer": {"class_name": "Zeros", "config": {}}, "moving_variance_initializer": {"class_name": "Ones", "config": {}}, "beta_regularizer": null, "gamma_regularizer": null, "beta_constraint": null, "gamma_constraint": null}, "inbound_nodes": [[["BP_0xc20ad4_12_S_0xc4ca42_1_M_9_L_2", 0, 0, {}]]]}, {"name": "BP_0x45c48c_9_S_0xc81e72_2_M_14_L_0", "class_name": "BatchNormalization", "config": {"name": "BP_0x45c48c_9_S_0xc81e72_2_M_14_L_0", "trainable": true, "dtype": "float32", "axis": -1, "momentum": 0.9, "epsilon": 1e-05, "center": true, "scale": true, "beta_initializer": {"class_name": "Zeros", "config": {}}, "gamma_initializer": {"class_name": "Ones", "config": {}}, "moving_mean_initializer": {"class_name": "Zeros", "config": {}}, "moving_variance_initializer": {"class_name": "Ones", "config": {}}, "beta_regularizer": null, "gamma_regularizer": null, "beta_constraint": null, "gamma_constraint": null}, "inbound_nodes": [[["BP_0x45c48c_9_S_0xc81e72_2_M_9_L_2", 0, 0, {}]]]}, {"name": "BP_0xc20ad4_12_S_0xc4ca42_1_M_14_L_1", "class_name": "Dense", "config": {"name": "BP_0xc20ad4_12_S_0xc4ca42_1_M_14_L_1", "trainable": true, "dtype": "float32", "units": 64, "activation": "linear", "use_bias": true, "kernel_initializer": {"class_name": "VarianceScaling", "config": {"scale": 2.0, "mode": "fan_in", "distribution": "normal", "seed": null}}, "bias_initializer": {"class_name": "Zeros", "config": {}}, "kernel_regularizer": {"class_name": "L1L2", "config": {"l1": 0.0, "l2": 0.0002500000118743628}}, "bias_regularizer": null, "activity_regularizer": null, "kernel_constraint": null, "bias_constraint": null}, "inbound_nodes": [[["BP_0xc20ad4_12_S_0xc4ca42_1_M_14_L_0", 0, 0, {}]]]}, {"name": "BP_0x45c48c_9_S_0xc81e72_2_M_14_L_1", "class_name": "Dense", "config": {"name": "BP_0x45c48c_9_S_0xc81e72_2_M_14_L_1", "trainable": true, "dtype": "float32", "units": 64, "activation": "linear", "use_bias": true, "kernel_initializer": {"class_name": "VarianceScaling", "config": {"scale": 2.0, "mode": "fan_in", "distribution": "normal", "seed": null}}, "bias_initializer": {"class_name": "Zeros", "config": {}}, "kernel_regularizer": {"class_name": "L1L2", "config": {"l1": 0.0, "l2": 0.0002500000118743628}}, "bias_regularizer": null, "activity_regularizer": null, "kernel_constraint": null, "bias_constraint": null}, "inbound_nodes": [[["BP_0x45c48c_9_S_0xc81e72_2_M_14_L_0", 0, 0, {}]]]}, {"name": "BP_0xc20ad4_12_S_0xc4ca42_1_M_14_L_2", "class_name": "Activation", "config": {"name": "BP_0xc20ad4_12_S_0xc4ca42_1_M_14_L_2", "trainable": true, "dtype": "float32", "activation": "relu"}, "inbound_nodes": [[["BP_0xc20ad4_12_S_0xc4ca42_1_M_14_L_1", 0, 0, {}]]]}, {"name": "BP_0x45c48c_9_S_0xc81e72_2_M_14_L_2", "class_name": "Activation", "config": {"name": "BP_0x45c48c_9_S_0xc81e72_2_M_14_L_2", "trainable": true, "dtype": "float32", "activation": "relu"}, "inbound_nodes": [[["BP_0x45c48c_9_S_0xc81e72_2_M_14_L_1", 0, 0, {}]]]}, {"name": "concatenate_1046", "class_name": "Concatenate", "config": {"name": "concatenate_1046", "trainable": true, "dtype": "float32", "axis": -1}, "inbound_nodes": [[["BP_0xc20ad4_12_S_0xc4ca42_1_M_9_L_2", 0, 0, {}], ["BP_0xc20ad4_12_S_0xc4ca42_1_M_14_L_2", 0, 0, {}]]]}, {"name": "concatenate_1040", "class_name": "Concatenate", "config": {"name": "concatenate_1040", "trainable": true, "dtype": "float32", "axis": -1}, "inbound_nodes": [[["BP_0x45c48c_9_S_0xc81e72_2_M_9_L_2", 0, 0, {}], ["BP_0x45c48c_9_S_0xc81e72_2_M_14_L_2", 0, 0, {}]]]}, {"name": "BP_0xc20ad4_12_S_0xc4ca42_1_M_6_L_0", "class_name": "Dense", "config": {"name": "BP_0xc20ad4_12_S_0xc4ca42_1_M_6_L_0", "trainable": true, "dtype": "float32", "units": 64, "activation": "linear", "use_bias": true, "kernel_initializer": {"class_name": "VarianceScaling", "config": {"scale": 2.0, "mode": "fan_in", "distribution": "normal", "seed": null}}, "bias_initializer": {"class_name": "Zeros", "config": {}}, "kernel_regularizer": {"class_name": "L1L2", "config": {"l1": 0.0, "l2": 0.0002500000118743628}}, "bias_regularizer": null, "activity_regularizer": null, "kernel_constraint": null, "bias_constraint": null}, "inbound_nodes": [[["concatenate_1046", 0, 0, {}]]]}, {"name": "BP_0xc20ad4_12_S_0xc4ca42_1_M_10_L_0", "class_name": "Dense", "config": {"name": "BP_0xc20ad4_12_S_0xc4ca42_1_M_10_L_0", "trainable": true, "dtype": "float32", "units": 64, "activation": "linear", "use_bias": true, "kernel_initializer": {"class_name": "VarianceScaling", "config": {"scale": 2.0, "mode": "fan_in", "distribution": "normal", "seed": null}}, "bias_initializer": {"class_name": "Zeros", "config": {}}, "kernel_regularizer": {"class_name": "L1L2", "config": {"l1": 0.0, "l2": 0.0002500000118743628}}, "bias_regularizer": null, "activity_regularizer": null, "kernel_constraint": null, "bias_constraint": null}, "inbound_nodes": [[["concatenate_1045", 0, 0, {}]]]}, {"name": "BP_0x45c48c_9_S_0xc81e72_2_M_6_L_0", "class_name": "BatchNormalization", "config": {"name": "BP_0x45c48c_9_S_0xc81e72_2_M_6_L_0", "trainable": true, "dtype": "float32", "axis": -1, "momentum": 0.9, "epsilon": 1e-05, "center": true, "scale": true, "beta_initializer": {"class_name": "Zeros", "config": {}}, "gamma_initializer": {"class_name": "Ones", "config": {}}, "moving_mean_initializer": {"class_name": "Zeros", "config": {}}, "moving_variance_initializer": {"class_name": "Ones", "config": {}}, "beta_regularizer": null, "gamma_regularizer": null, "beta_constraint": null, "gamma_constraint": null}, "inbound_nodes": [[["concatenate_1040", 0, 0, {}]]]}, {"name": "BP_0x45c48c_9_S_0xc81e72_2_M_10_L_0", "class_name": "BatchNormalization", "config": {"name": "BP_0x45c48c_9_S_0xc81e72_2_M_10_L_0", "trainable": true, "dtype": "float32", "axis": -1, "momentum": 0.9, "epsilon": 1e-05, "center": true, "scale": true, "beta_initializer": {"class_name": "Zeros", "config": {}}, "gamma_initializer": {"class_name": "Ones", "config": {}}, "moving_mean_initializer": {"class_name": "Zeros", "config": {}}, "moving_variance_initializer": {"class_name": "Ones", "config": {}}, "beta_regularizer": null, "gamma_regularizer": null, "beta_constraint": null, "gamma_constraint": null}, "inbound_nodes": [[["concatenate_1039", 0, 0, {}]]]}, {"name": "BP_0xc20ad4_12_S_0xc4ca42_1_M_6_L_1", "class_name": "Activation", "config": {"name": "BP_0xc20ad4_12_S_0xc4ca42_1_M_6_L_1", "trainable": true, "dtype": "float32", "activation": "relu"}, "inbound_nodes": [[["BP_0xc20ad4_12_S_0xc4ca42_1_M_6_L_0", 0, 0, {}]]]}, {"name": "BP_0xc20ad4_12_S_0xc4ca42_1_M_10_L_1", "class_name": "Activation", "config": {"name": "BP_0xc20ad4_12_S_0xc4ca42_1_M_10_L_1", "trainable": true, "dtype": "float32", "activation": "relu"}, "inbound_nodes": [[["BP_0xc20ad4_12_S_0xc4ca42_1_M_10_L_0", 0, 0, {}]]]}, {"name": "BP_0x45c48c_9_S_0xc81e72_2_M_6_L_1", "class_name": "Dense", "config": {"name": "BP_0x45c48c_9_S_0xc81e72_2_M_6_L_1", "trainable": true, "dtype": "float32", "units": 64, "activation": "linear", "use_bias": true, "kernel_initializer": {"class_name": "VarianceScaling", "config": {"scale": 2.0, "mode": "fan_in", "distribution": "normal", "seed": null}}, "bias_initializer": {"class_name": "Zeros", "config": {}}, "kernel_regularizer": {"class_name": "L1L2", "config": {"l1": 0.0, "l2": 0.0002500000118743628}}, "bias_regularizer": null, "activity_regularizer": null, "kernel_constraint": null, "bias_constraint": null}, "inbound_nodes": [[["BP_0x45c48c_9_S_0xc81e72_2_M_6_L_0", 0, 0, {}]]]}, {"name": "BP_0x45c48c_9_S_0xc81e72_2_M_10_L_1", "class_name": "Dense", "config": {"name": "BP_0x45c48c_9_S_0xc81e72_2_M_10_L_1", "trainable": true, "dtype": "float32", "units": 64, "activation": "linear", "use_bias": true, "kernel_initializer": {"class_name": "VarianceScaling", "config": {"scale": 2.0, "mode": "fan_in", "distribution": "normal", "seed": null}}, "bias_initializer": {"class_name": "Zeros", "config": {}}, "kernel_regularizer": {"class_name": "L1L2", "config": {"l1": 0.0, "l2": 0.0002500000118743628}}, "bias_regularizer": null, "activity_regularizer": null, "kernel_constraint": null, "bias_constraint": null}, "inbound_nodes": [[["BP_0x45c48c_9_S_0xc81e72_2_M_10_L_0", 0, 0, {}]]]}, {"name": "BP_0xc20ad4_12_S_0xc4ca42_1_M_6_L_2", "class_name": "Dropout", "config": {"name": "BP_0xc20ad4_12_S_0xc4ca42_1_M_6_L_2", "trainable": true, "dtype": "float32", "rate": 0.25, "noise_shape": null, "seed": null}, "inbound_nodes": [[["BP_0xc20ad4_12_S_0xc4ca42_1_M_6_L_1", 0, 0, {}]]]}, {"name": "BP_0xc20ad4_12_S_0xc4ca42_1_M_10_L_2", "class_name": "Dropout", "config": {"name": "BP_0xc20ad4_12_S_0xc4ca42_1_M_10_L_2", "trainable": true, "dtype": "float32", "rate": 0.25, "noise_shape": null, "seed": null}, "inbound_nodes": [[["BP_0xc20ad4_12_S_0xc4ca42_1_M_10_L_1", 0, 0, {}]]]}, {"name": "BP_0x45c48c_9_S_0xc81e72_2_M_6_L_2", "class_name": "Activation", "config": {"name": "BP_0x45c48c_9_S_0xc81e72_2_M_6_L_2", "trainable": true, "dtype": "float32", "activation": "relu"}, "inbound_nodes": [[["BP_0x45c48c_9_S_0xc81e72_2_M_6_L_1", 0, 0, {}]]]}, {"name": "BP_0x45c48c_9_S_0xc81e72_2_M_10_L_2", "class_name": "Activation", "config": {"name": "BP_0x45c48c_9_S_0xc81e72_2_M_10_L_2", "trainable": true, "dtype": "float32", "activation": "relu"}, "inbound_nodes": [[["BP_0x45c48c_9_S_0xc81e72_2_M_10_L_1", 0, 0, {}]]]}, {"name": "concatenate_1047", "class_name": "Concatenate", "config": {"name": "concatenate_1047", "trainable": true, "dtype": "float32", "axis": -1}, "inbound_nodes": [[["BP_0xc20ad4_12_S_0xc4ca42_1_M_6_L_2", 0, 0, {}], ["BP_0xc20ad4_12_S_0xc4ca42_1_M_10_L_2", 0, 0, {}], ["concatenate_1045", 0, 0, {}]]]}, {"name": "concatenate_1041", "class_name": "Concatenate", "config": {"name": "concatenate_1041", "trainable": true, "dtype": "float32", "axis": -1}, "inbound_nodes": [[["BP_0x45c48c_9_S_0xc81e72_2_M_6_L_2", 0, 0, {}], ["BP_0x45c48c_9_S_0xc81e72_2_M_10_L_2", 0, 0, {}], ["concatenate_1039", 0, 0, {}]]]}, {"name": "concatenate_1048", "class_name": "Concatenate", "config": {"name": "concatenate_1048", "trainable": true, "dtype": "float32", "axis": -1}, "inbound_nodes": [[["concatenate_1039", 0, 0, {}], ["concatenate_1045", 0, 0, {}], ["concatenate_1047", 0, 0, {}]]]}, {"name": "BP_0xc81e72_2_S_0xc81e72_2_M_4_L_0", "class_name": "Dense", "config": {"name": "BP_0xc81e72_2_S_0xc81e72_2_M_4_L_0", "trainable": true, "dtype": "float32", "units": 64, "activation": "linear", "use_bias": true, "kernel_initializer": {"class_name": "VarianceScaling", "config": {"scale": 2.0, "mode": "fan_in", "distribution": "normal", "seed": null}}, "bias_initializer": {"class_name": "Zeros", "config": {}}, "kernel_regularizer": {"class_name": "L1L2", "config": {"l1": 0.0, "l2": 0.0002500000118743628}}, "bias_regularizer": null, "activity_regularizer": null, "kernel_constraint": null, "bias_constraint": null}, "inbound_nodes": [[["concatenate_1041", 0, 0, {}]]]}, {"name": "BP_0x8f14e4_7_S_0xc4ca42_1_M_4_L_0", "class_name": "BatchNormalization", "config": {"name": "BP_0x8f14e4_7_S_0xc4ca42_1_M_4_L_0", "trainable": true, "dtype": "float32", "axis": -1, "momentum": 0.9, "epsilon": 1e-05, "center": true, "scale": true, "beta_initializer": {"class_name": "Zeros", "config": {}}, "gamma_initializer": {"class_name": "Ones", "config": {}}, "moving_mean_initializer": {"class_name": "Zeros", "config": {}}, "moving_variance_initializer": {"class_name": "Ones", "config": {}}, "beta_regularizer": null, "gamma_regularizer": null, "beta_constraint": null, "gamma_constraint": null}, "inbound_nodes": [[["concatenate_1048", 0, 0, {}]]]}, {"name": "BP_0xc81e72_2_S_0xc81e72_2_M_4_L_1", "class_name": "Activation", "config": {"name": "BP_0xc81e72_2_S_0xc81e72_2_M_4_L_1", "trainable": true, "dtype": "float32", "activation": "relu"}, "inbound_nodes": [[["BP_0xc81e72_2_S_0xc81e72_2_M_4_L_0", 0, 0, {}]]]}, {"name": "BP_0x8f14e4_7_S_0xc4ca42_1_M_4_L_1", "class_name": "Dense", "config": {"name": "BP_0x8f14e4_7_S_0xc4ca42_1_M_4_L_1", "trainable": true, "dtype": "float32", "units": 64, "activation": "linear", "use_bias": true, "kernel_initializer": {"class_name": "VarianceScaling", "config": {"scale": 2.0, "mode": "fan_in", "distribution": "normal", "seed": null}}, "bias_initializer": {"class_name": "Zeros", "config": {}}, "kernel_regularizer": {"class_name": "L1L2", "config": {"l1": 0.0, "l2": 0.0002500000118743628}}, "bias_regularizer": null, "activity_regularizer": null, "kernel_constraint": null, "bias_constraint": null}, "inbound_nodes": [[["BP_0x8f14e4_7_S_0xc4ca42_1_M_4_L_0", 0, 0, {}]]]}, {"name": "BP_0xc81e72_2_S_0xc81e72_2_M_4_L_2", "class_name": "Dropout", "config": {"name": "BP_0xc81e72_2_S_0xc81e72_2_M_4_L_2", "trainable": true, "dtype": "float32", "rate": 0.25, "noise_shape": null, "seed": null}, "inbound_nodes": [[["BP_0xc81e72_2_S_0xc81e72_2_M_4_L_1", 0, 0, {}]]]}, {"name": "BP_0x8f14e4_7_S_0xc4ca42_1_M_4_L_2", "class_name": "Activation", "config": {"name": "BP_0x8f14e4_7_S_0xc4ca42_1_M_4_L_2", "trainable": true, "dtype": "float32", "activation": "relu"}, "inbound_nodes": [[["BP_0x8f14e4_7_S_0xc4ca42_1_M_4_L_1", 0, 0, {}]]]}, {"name": "BP_0xc81e72_2_S_0xc81e72_2_M_9_L_0", "class_name": "BatchNormalization", "config": {"name": "BP_0xc81e72_2_S_0xc81e72_2_M_9_L_0", "trainable": true, "dtype": "float32", "axis": -1, "momentum": 0.9, "epsilon": 1e-05, "center": true, "scale": true, "beta_initializer": {"class_name": "Zeros", "config": {}}, "gamma_initializer": {"class_name": "Ones", "config": {}}, "moving_mean_initializer": {"class_name": "Zeros", "config": {}}, "moving_variance_initializer": {"class_name": "Ones", "config": {}}, "beta_regularizer": null, "gamma_regularizer": null, "beta_constraint": null, "gamma_constraint": null}, "inbound_nodes": [[["BP_0xc81e72_2_S_0xc81e72_2_M_4_L_2", 0, 0, {}]]]}, {"name": "BP_0x8f14e4_7_S_0xc4ca42_1_M_9_L_0", "class_name": "BatchNormalization", "config": {"name": "BP_0x8f14e4_7_S_0xc4ca42_1_M_9_L_0", "trainable": true, "dtype": "float32", "axis": -1, "momentum": 0.9, "epsilon": 1e-05, "center": true, "scale": true, "beta_initializer": {"class_name": "Zeros", "config": {}}, "gamma_initializer": {"class_name": "Ones", "config": {}}, "moving_mean_initializer": {"class_name": "Zeros", "config": {}}, "moving_variance_initializer": {"class_name": "Ones", "config": {}}, "beta_regularizer": null, "gamma_regularizer": null, "beta_constraint": null, "gamma_constraint": null}, "inbound_nodes": [[["BP_0x8f14e4_7_S_0xc4ca42_1_M_4_L_2", 0, 0, {}]]]}, {"name": "BP_0xc81e72_2_S_0xc81e72_2_M_9_L_1", "class_name": "Dense", "config": {"name": "BP_0xc81e72_2_S_0xc81e72_2_M_9_L_1", "trainable": true, "dtype": "float32", "units": 64, "activation": "linear", "use_bias": true, "kernel_initializer": {"class_name": "VarianceScaling", "config": {"scale": 2.0, "mode": "fan_in", "distribution": "normal", "seed": null}}, "bias_initializer": {"class_name": "Zeros", "config": {}}, "kernel_regularizer": {"class_name": "L1L2", "config": {"l1": 0.0, "l2": 0.0002500000118743628}}, "bias_regularizer": null, "activity_regularizer": null, "kernel_constraint": null, "bias_constraint": null}, "inbound_nodes": [[["BP_0xc81e72_2_S_0xc81e72_2_M_9_L_0", 0, 0, {}]]]}, {"name": "BP_0x8f14e4_7_S_0xc4ca42_1_M_9_L_1", "class_name": "Dense", "config": {"name": "BP_0x8f14e4_7_S_0xc4ca42_1_M_9_L_1", "trainable": true, "dtype": "float32", "units": 64, "activation": "linear", "use_bias": true, "kernel_initializer": {"class_name": "VarianceScaling", "config": {"scale": 2.0, "mode": "fan_in", "distribution": "normal", "seed": null}}, "bias_initializer": {"class_name": "Zeros", "config": {}}, "kernel_regularizer": {"class_name": "L1L2", "config": {"l1": 0.0, "l2": 0.0002500000118743628}}, "bias_regularizer": null, "activity_regularizer": null, "kernel_constraint": null, "bias_constraint": null}, "inbound_nodes": [[["BP_0x8f14e4_7_S_0xc4ca42_1_M_9_L_0", 0, 0, {}]]]}, {"name": "BP_0xc81e72_2_S_0xc81e72_2_M_9_L_2", "class_name": "Activation", "config": {"name": "BP_0xc81e72_2_S_0xc81e72_2_M_9_L_2", "trainable": true, "dtype": "float32", "activation": "relu"}, "inbound_nodes": [[["BP_0xc81e72_2_S_0xc81e72_2_M_9_L_1", 0, 0, {}]]]}, {"name": "BP_0x8f14e4_7_S_0xc4ca42_1_M_9_L_2", "class_name": "Activation", "config": {"name": "BP_0x8f14e4_7_S_0xc4ca42_1_M_9_L_2", "trainable": true, "dtype": "float32", "activation": "relu"}, "inbound_nodes": [[["BP_0x8f14e4_7_S_0xc4ca42_1_M_9_L_1", 0, 0, {}]]]}, {"name": "BP_0xc81e72_2_S_0xc81e72_2_M_14_L_0", "class_name": "BatchNormalization", "config": {"name": "BP_0xc81e72_2_S_0xc81e72_2_M_14_L_0", "trainable": true, "dtype": "float32", "axis": -1, "momentum": 0.9, "epsilon": 1e-05, "center": true, "scale": true, "beta_initializer": {"class_name": "Zeros", "config": {}}, "gamma_initializer": {"class_name": "Ones", "config": {}}, "moving_mean_initializer": {"class_name": "Zeros", "config": {}}, "moving_variance_initializer": {"class_name": "Ones", "config": {}}, "beta_regularizer": null, "gamma_regularizer": null, "beta_constraint": null, "gamma_constraint": null}, "inbound_nodes": [[["BP_0xc81e72_2_S_0xc81e72_2_M_9_L_2", 0, 0, {}]]]}, {"name": "BP_0x8f14e4_7_S_0xc4ca42_1_M_14_L_0", "class_name": "BatchNormalization", "config": {"name": "BP_0x8f14e4_7_S_0xc4ca42_1_M_14_L_0", "trainable": true, "dtype": "float32", "axis": -1, "momentum": 0.9, "epsilon": 1e-05, "center": true, "scale": true, "beta_initializer": {"class_name": "Zeros", "config": {}}, "gamma_initializer": {"class_name": "Ones", "config": {}}, "moving_mean_initializer": {"class_name": "Zeros", "config": {}}, "moving_variance_initializer": {"class_name": "Ones", "config": {}}, "beta_regularizer": null, "gamma_regularizer": null, "beta_constraint": null, "gamma_constraint": null}, "inbound_nodes": [[["BP_0x8f14e4_7_S_0xc4ca42_1_M_9_L_2", 0, 0, {}]]]}, {"name": "BP_0xc81e72_2_S_0xc81e72_2_M_14_L_1", "class_name": "Dense", "config": {"name": "BP_0xc81e72_2_S_0xc81e72_2_M_14_L_1", "trainable": true, "dtype": "float32", "units": 64, "activation": "linear", "use_bias": true, "kernel_initializer": {"class_name": "VarianceScaling", "config": {"scale": 2.0, "mode": "fan_in", "distribution": "normal", "seed": null}}, "bias_initializer": {"class_name": "Zeros", "config": {}}, "kernel_regularizer": {"class_name": "L1L2", "config": {"l1": 0.0, "l2": 0.0002500000118743628}}, "bias_regularizer": null, "activity_regularizer": null, "kernel_constraint": null, "bias_constraint": null}, "inbound_nodes": [[["BP_0xc81e72_2_S_0xc81e72_2_M_14_L_0", 0, 0, {}]]]}, {"name": "BP_0x8f14e4_7_S_0xc4ca42_1_M_14_L_1", "class_name": "Dense", "config": {"name": "BP_0x8f14e4_7_S_0xc4ca42_1_M_14_L_1", "trainable": true, "dtype": "float32", "units": 64, "activation": "linear", "use_bias": true, "kernel_initializer": {"class_name": "VarianceScaling", "config": {"scale": 2.0, "mode": "fan_in", "distribution": "normal", "seed": null}}, "bias_initializer": {"class_name": "Zeros", "config": {}}, "kernel_regularizer": {"class_name": "L1L2", "config": {"l1": 0.0, "l2": 0.0002500000118743628}}, "bias_regularizer": null, "activity_regularizer": null, "kernel_constraint": null, "bias_constraint": null}, "inbound_nodes": [[["BP_0x8f14e4_7_S_0xc4ca42_1_M_14_L_0", 0, 0, {}]]]}, {"name": "BP_0xc81e72_2_S_0xc81e72_2_M_14_L_2", "class_name": "Activation", "config": {"name": "BP_0xc81e72_2_S_0xc81e72_2_M_14_L_2", "trainable": true, "dtype": "float32", "activation": "relu"}, "inbound_nodes": [[["BP_0xc81e72_2_S_0xc81e72_2_M_14_L_1", 0, 0, {}]]]}, {"name": "BP_0x8f14e4_7_S_0xc4ca42_1_M_14_L_2", "class_name": "Activation", "config": {"name": "BP_0x8f14e4_7_S_0xc4ca42_1_M_14_L_2", "trainable": true, "dtype": "float32", "activation": "relu"}, "inbound_nodes": [[["BP_0x8f14e4_7_S_0xc4ca42_1_M_14_L_1", 0, 0, {}]]]}, {"name": "concatenate_1042", "class_name": "Concatenate", "config": {"name": "concatenate_1042", "trainable": true, "dtype": "float32", "axis": -1}, "inbound_nodes": [[["BP_0xc81e72_2_S_0xc81e72_2_M_9_L_2", 0, 0, {}], ["BP_0xc81e72_2_S_0xc81e72_2_M_14_L_2", 0, 0, {}]]]}, {"name": "concatenate_1049", "class_name": "Concatenate", "config": {"name": "concatenate_1049", "trainable": true, "dtype": "float32", "axis": -1}, "inbound_nodes": [[["BP_0x8f14e4_7_S_0xc4ca42_1_M_9_L_2", 0, 0, {}], ["BP_0x8f14e4_7_S_0xc4ca42_1_M_14_L_2", 0, 0, {}]]]}, {"name": "BP_0xc81e72_2_S_0xc81e72_2_M_6_L_0", "class_name": "BatchNormalization", "config": {"name": "BP_0xc81e72_2_S_0xc81e72_2_M_6_L_0", "trainable": true, "dtype": "float32", "axis": -1, "momentum": 0.9, "epsilon": 1e-05, "center": true, "scale": true, "beta_initializer": {"class_name": "Zeros", "config": {}}, "gamma_initializer": {"class_name": "Ones", "config": {}}, "moving_mean_initializer": {"class_name": "Zeros", "config": {}}, "moving_variance_initializer": {"class_name": "Ones", "config": {}}, "beta_regularizer": null, "gamma_regularizer": null, "beta_constraint": null, "gamma_constraint": null}, "inbound_nodes": [[["concatenate_1042", 0, 0, {}]]]}, {"name": "BP_0xc81e72_2_S_0xc81e72_2_M_10_L_0", "class_name": "BatchNormalization", "config": {"name": "BP_0xc81e72_2_S_0xc81e72_2_M_10_L_0", "trainable": true, "dtype": "float32", "axis": -1, "momentum": 0.9, "epsilon": 1e-05, "center": true, "scale": true, "beta_initializer": {"class_name": "Zeros", "config": {}}, "gamma_initializer": {"class_name": "Ones", "config": {}}, "moving_mean_initializer": {"class_name": "Zeros", "config": {}}, "moving_variance_initializer": {"class_name": "Ones", "config": {}}, "beta_regularizer": null, "gamma_regularizer": null, "beta_constraint": null, "gamma_constraint": null}, "inbound_nodes": [[["concatenate_1041", 0, 0, {}]]]}, {"name": "BP_0x8f14e4_7_S_0xc4ca42_1_M_6_L_0", "class_name": "Dense", "config": {"name": "BP_0x8f14e4_7_S_0xc4ca42_1_M_6_L_0", "trainable": true, "dtype": "float32", "units": 64, "activation": "linear", "use_bias": true, "kernel_initializer": {"class_name": "VarianceScaling", "config": {"scale": 2.0, "mode": "fan_in", "distribution": "normal", "seed": null}}, "bias_initializer": {"class_name": "Zeros", "config": {}}, "kernel_regularizer": {"class_name": "L1L2", "config": {"l1": 0.0, "l2": 0.0002500000118743628}}, "bias_regularizer": null, "activity_regularizer": null, "kernel_constraint": null, "bias_constraint": null}, "inbound_nodes": [[["concatenate_1049", 0, 0, {}]]]}, {"name": "BP_0x8f14e4_7_S_0xc4ca42_1_M_10_L_0", "class_name": "Dense", "config": {"name": "BP_0x8f14e4_7_S_0xc4ca42_1_M_10_L_0", "trainable": true, "dtype": "float32", "units": 64, "activation": "linear", "use_bias": true, "kernel_initializer": {"class_name": "VarianceScaling", "config": {"scale": 2.0, "mode": "fan_in", "distribution": "normal", "seed": null}}, "bias_initializer": {"class_name": "Zeros", "config": {}}, "kernel_regularizer": {"class_name": "L1L2", "config": {"l1": 0.0, "l2": 0.0002500000118743628}}, "bias_regularizer": null, "activity_regularizer": null, "kernel_constraint": null, "bias_constraint": null}, "inbound_nodes": [[["concatenate_1048", 0, 0, {}]]]}, {"name": "BP_0xc81e72_2_S_0xc81e72_2_M_6_L_1", "class_name": "Dense", "config": {"name": "BP_0xc81e72_2_S_0xc81e72_2_M_6_L_1", "trainable": true, "dtype": "float32", "units": 64, "activation": "linear", "use_bias": true, "kernel_initializer": {"class_name": "VarianceScaling", "config": {"scale": 2.0, "mode": "fan_in", "distribution": "normal", "seed": null}}, "bias_initializer": {"class_name": "Zeros", "config": {}}, "kernel_regularizer": {"class_name": "L1L2", "config": {"l1": 0.0, "l2": 0.0002500000118743628}}, "bias_regularizer": null, "activity_regularizer": null, "kernel_constraint": null, "bias_constraint": null}, "inbound_nodes": [[["BP_0xc81e72_2_S_0xc81e72_2_M_6_L_0", 0, 0, {}]]]}, {"name": "BP_0xc81e72_2_S_0xc81e72_2_M_10_L_1", "class_name": "Dense", "config": {"name": "BP_0xc81e72_2_S_0xc81e72_2_M_10_L_1", "trainable": true, "dtype": "float32", "units": 64, "activation": "linear", "use_bias": true, "kernel_initializer": {"class_name": "VarianceScaling", "config": {"scale": 2.0, "mode": "fan_in", "distribution": "normal", "seed": null}}, "bias_initializer": {"class_name": "Zeros", "config": {}}, "kernel_regularizer": {"class_name": "L1L2", "config": {"l1": 0.0, "l2": 0.0002500000118743628}}, "bias_regularizer": null, "activity_regularizer": null, "kernel_constraint": null, "bias_constraint": null}, "inbound_nodes": [[["BP_0xc81e72_2_S_0xc81e72_2_M_10_L_0", 0, 0, {}]]]}, {"name": "BP_0x8f14e4_7_S_0xc4ca42_1_M_6_L_1", "class_name": "Activation", "config": {"name": "BP_0x8f14e4_7_S_0xc4ca42_1_M_6_L_1", "trainable": true, "dtype": "float32", "activation": "relu"}, "inbound_nodes": [[["BP_0x8f14e4_7_S_0xc4ca42_1_M_6_L_0", 0, 0, {}]]]}, {"name": "BP_0x8f14e4_7_S_0xc4ca42_1_M_10_L_1", "class_name": "Activation", "config": {"name": "BP_0x8f14e4_7_S_0xc4ca42_1_M_10_L_1", "trainable": true, "dtype": "float32", "activation": "relu"}, "inbound_nodes": [[["BP_0x8f14e4_7_S_0xc4ca42_1_M_10_L_0", 0, 0, {}]]]}, {"name": "BP_0xc81e72_2_S_0xc81e72_2_M_6_L_2", "class_name": "Activation", "config": {"name": "BP_0xc81e72_2_S_0xc81e72_2_M_6_L_2", "trainable": true, "dtype": "float32", "activation": "relu"}, "inbound_nodes": [[["BP_0xc81e72_2_S_0xc81e72_2_M_6_L_1", 0, 0, {}]]]}, {"name": "BP_0xc81e72_2_S_0xc81e72_2_M_10_L_2", "class_name": "Activation", "config": {"name": "BP_0xc81e72_2_S_0xc81e72_2_M_10_L_2", "trainable": true, "dtype": "float32", "activation": "relu"}, "inbound_nodes": [[["BP_0xc81e72_2_S_0xc81e72_2_M_10_L_1", 0, 0, {}]]]}, {"name": "BP_0x8f14e4_7_S_0xc4ca42_1_M_6_L_2", "class_name": "Dropout", "config": {"name": "BP_0x8f14e4_7_S_0xc4ca42_1_M_6_L_2", "trainable": true, "dtype": "float32", "rate": 0.25, "noise_shape": null, "seed": null}, "inbound_nodes": [[["BP_0x8f14e4_7_S_0xc4ca42_1_M_6_L_1", 0, 0, {}]]]}, {"name": "BP_0x8f14e4_7_S_0xc4ca42_1_M_10_L_2", "class_name": "Dropout", "config": {"name": "BP_0x8f14e4_7_S_0xc4ca42_1_M_10_L_2", "trainable": true, "dtype": "float32", "rate": 0.25, "noise_shape": null, "seed": null}, "inbound_nodes": [[["BP_0x8f14e4_7_S_0xc4ca42_1_M_10_L_1", 0, 0, {}]]]}, {"name": "concatenate_1043", "class_name": "Concatenate", "config": {"name": "concatenate_1043", "trainable": true, "dtype": "float32", "axis": -1}, "inbound_nodes": [[["BP_0xc81e72_2_S_0xc81e72_2_M_6_L_2", 0, 0, {}], ["BP_0xc81e72_2_S_0xc81e72_2_M_10_L_2", 0, 0, {}], ["concatenate_1041", 0, 0, {}]]]}, {"name": "concatenate_1050", "class_name": "Concatenate", "config": {"name": "concatenate_1050", "trainable": true, "dtype": "float32", "axis": -1}, "inbound_nodes": [[["BP_0x8f14e4_7_S_0xc4ca42_1_M_6_L_2", 0, 0, {}], ["BP_0x8f14e4_7_S_0xc4ca42_1_M_10_L_2", 0, 0, {}], ["concatenate_1048", 0, 0, {}]]]}, {"name": "concatenate_1051", "class_name": "Concatenate", "config": {"name": "concatenate_1051", "trainable": true, "dtype": "float32", "axis": -1}, "inbound_nodes": [[["input_52", 0, 0, {}], ["concatenate_1043", 0, 0, {}], ["concatenate_1050", 0, 0, {}]]]}, {"name": "dense_52", "class_name": "Dense", "config": {"name": "dense_52", "trainable": true, "dtype": "float32", "units": 2, "activation": "linear", "use_bias": true, "kernel_initializer": {"class_name": "VarianceScaling", "config": {"scale": 1.0, "mode": "fan_avg", "distribution": "uniform", "seed": null}}, "bias_initializer": {"class_name": "Zeros", "config": {}}, "kernel_regularizer": null, "bias_regularizer": null, "activity_regularizer": null, "kernel_constraint": null, "bias_constraint": null}, "inbound_nodes": [[["concatenate_1051", 0, 0, {}]]]}, {"name": "activation_52", "class_name": "Activation", "config": {"name": "activation_52", "trainable": true, "dtype": "float32", "activation": "softmax"}, "inbound_nodes": [[["dense_52", 0, 0, {}]]]}], "input_layers": [["input_52", 0, 0]], "output_layers": [["activation_52", 0, 0]]}, "keras_version": "2.2.5", "backend": "tensorflow"}